model/new/10_gru.model (torch_old, 15757 bytes, 6 tensors)

weight_ih_l0 f4 [30, 28]
00000000: fe90 9e3f a2d0 743f 9144 803f 840d cabe
00000010: 0559 b2bf b700 aabe e6f2 5b3f 852b 3d3f
00000020: 0d8d 9d40 9aea be40 0c49 a740 e7d3 a040
00000030: 5c4d 6e40 f0d5 bb3f c901 94c0 6037 3a40
00000040: eaba 9f40 737f a840 c5e7 ba40 3221 09c0
00000050: 6c47 7e3f 1207 3940 d9db 1b40 90ae 5940
00000060: bd35 5f40 f975 e63f 4afa b93f cc5f a63f
00000070: 7c77 be3e 4ac0 5f3f 2af1 3b3f a25d 413f
00000080: ec30 9f3e d714 063f 8dc7 863f 3ca9 0740
00000090: 8292 5d40 a8ad 9140 f3b4 3040 003f 4a3f
000000a0: 9d90 1e40 bd30 b63f 97fb 37bf 0b1d 6cc0
000000b0: 75a8 c3c0 d8b5 94c0 bffb 9c3e e6e2 973f
000000c0: 0cde 51bf 2bd3 63bf b8c8 7cbf d23a 80bf
000000d0: 2b2f c83f c4f3 f13f e9b8 7e3f 66d5 6e3f
000000e0: 9b26 993e b581 d03d 175c 1d3f f347 3e3d
000000f0: a395 2dbf fb11 24bf 72f0 dfbe 5b86 4ebf
00000100: 4503 bebf 4f96 8ebf 92d4 c0bf aef2 0bbf
00000110: a8e6 a2bf 1533 b0be 588a 3f3f fe81 54be
00000120: 5b54 96bf bc6b 0a3f 4d42 a23f 8847 a03f
00000130: dfa6 993f 5608 0b3f 6b3c 303f ed73 2b3f
00000140: a60b 10bf fcb6 d2bd c041 043f d6d0 713e
00000150: c73b 82bd 3f8b d4be 620d 4bbf 41e9 323e
00000160: dec0 58be 08cb dabe 48d2 7abf 4b67 45bf
00000170: 2729 013e 765f a13e 9cf9 1abe a0dc 9ebe
00000180: 7c5f c8be 5298 18bf fcdc b8bd b484 2dbe
00000190: a415 ecbe 341f 7fbf 4599 83bf 04a3 92bf
000001a0: ba54 55bf 4a6e 5ebe 193b 083f 03ba a9be
000001b0: de02 1b3e 6c1a d4bc 09f1 a83a ac23 2a3d
000001c0: 0876 d7bf 4357 0cc0 7be2 f6bf 6cd2 cebf
000001d0: e5b8 d5bf 770b 8dbf 151f 15bf ab41 69be
000001e0: 8206 9dbf fa92 3ebf c39d cd3d 848f 683d
000001f0: bf71 fb3f bab9 af3f e85c 7c40 e953 ef40
00000200: 10fb 0e41 53a0 0f40 086e ed3f 4443 ca3d
00000210: cbfa b4bf 0fcc b0bf 9475 e53e f12a ed3f
00000220: a932 dabe 2d04 d0bf fcdb 0fc0 cd22 0fc0
00000230: 9a32 023e 8352 773e a499 3c3c 92d7 993e
00000240: 8d43 ac3f b95e 8f3f a1cc 3940 49e0 8bbe
00000250: c7a2 02c0 7e78 223f 8030 bac0 fd38 5f40
00000260: 05df 4141 01f7 0341 bd93 bbbd 3c89 91bf
00000270: d80b edbf 4f2f a03f 6bbe c93f 1b98 8cc0
00000280: 4e0d 8fc0 b934 bd3f a8bc c040 f7e5 a340
00000290: 7e0a 693f dfd5 393d 3c7f 973e 265a 513e
000002a0: c042 16be 03d6 d6bc 0984 cf3d 68c8 d63e
000002b0: f414 0fc0 7912 7cbe c31c 4540 2700 e6be
000002c0: ef53 12bf 3372 f03d d4e7 b3bf 29e3 c1bf
000002d0: b43b 54c0 2a1c 16c0 a7d2 11be 027c cabc
000002e0: f774 2c3d f875 173e c866 883e 79c5 403f
000002f0: 1f24 1bbf 0dee 17c0 bedc 57c0 a391 15c0
00000300: dc78 90bf 1072 59be 0e93 d33e ad42 d8bd
00000310: bc4c b33d 5db5 0d3e c5d4 5f3e d33f 2fbe
00000320: 51a4 d9bd 8679 17bf 3279 33bd e8fc 67be
00000330: 4c7c 843e 1407 9d3e 0368 dc3e bf7e f43e
00000340: 4fbe 18bf 6ffa 53bf 61b0 49bf f24c 97be
00000350: 2442 65be ce2f a7be e1d1 e3be 31af 96bd
00000360: 031c 4d3d 463b 01bf b39c 93be cbe9 873d
00000370: 06a3 69be 99c4 ab3e 171b 83be 5911 87be
00000380: 57cc 843d 9ea1 a2be 1c5b 3dbe d91f 643d
00000390: 124a 063f 8fff 6f3f ed47 4e3e d6c1 53bf
000003a0: 75be f83e c110 35be b294 58bf d908 e03e
000003b0: 009c 3a40 41db 893f 36bf cbc0 84eb dbbf
000003c0: ac03 11bd bc29 6d40 0e60 af40 6829 7d40
000003d0: de7f 6440 bc90 4240 5203 9340 6d3f 3140
000003e0: cadb 133f 0906 42bf 1771 8cbe bc73 49be
000003f0: 2c1e e2be c10c 96be c354 c5be df45 a9be
1.2387998 0.9563085 1.0020925 -0.39463437 -1.3933417 -0.3320367 0.8591751 0.7389453
4.923468 5.966138 5.227667 5.025867 3.7234716 1.4674664 -4.625218 2.9096298
4.9915667 5.265558 5.840792 -2.142651 0.9932773 2.8910565 2.4352934 3.4012794
3.487655 1.8004752 1.4529507 1.2997985 0.37200534 0.87402785 0.7341486 0.755335
0.31092012 0.5237555 1.0529648 2.1197042 3.4620671 4.5524483 2.7610443 0.7900238
2.4775765 1.4233624 -0.7186827 -3.6892726 -6.1143136 -4.6471977 0.30660817 1.1866119
-0.8197944 -0.8899409 -0.9874377 -1.001795 1.5639395 1.8902516 0.995009 0.9329437
0.29912266 0.1018099 0.6146864 0.046455335 -0.6780645 -0.64089936 -0.43738133 -0.8067376
-1.4844748 -1.113962 -1.5064871 -0.54667175 -1.2726641 -0.34413972 0.7482047 -0.20752713
-1.1744493 0.5407064 1.2676483 1.252183 1.200405 0.54309595 0.6884219 0.66973764
-0.56267774 -0.10288808 0.51662827 0.23614821 -0.06359058 -0.41512486 -0.79317296 0.17471792
-0.21167323 -0.42733026 -0.97977114 -0.7711074 0.12613355 0.31518143 -0.15134281 -0.310277
-0.3913535 -0.5960742 -0.090265244 -0.16945153 -0.4611026 -0.9965699 -1.0281149 -1.1455998
-0.8333241 -0.2172176 0.53215176 -0.33149728 0.15137812 -0.025891505 0.0012889217 0.041537926
-1.6832895 -2.192826 -1.9287866 -1.6157966 -1.669705 -1.1019124 -0.5825055 -0.22778957
-1.2267611 -0.7444302 0.10039856 0.056777492 1.9644088 1.3728554 3.9431705 7.478993
8.936295 2.2441604 1.8549204 0.09876111 -1.4139036 -1.3812274 0.44816267 1.852873
-0.42616776 -1.6251274 -2.2478018 -2.236499 0.12714615 0.2415257 0.01151124 0.3004728
1.3458115 1.1200782 2.9031146 -0.27319553 -2.0411851 0.63465106 -5.8184204 3.4878533
12.116948 8.247804 -0.09159038 -1.1370006 -1.851924 1.2514437 1.5761236 -4.3935676
-4.470374 1.4781715 6.0230293 5.121822 0.91031635 0.04536998 0.2958926 0.20444545
-0.146739 -0.026225096 0.101326056 0.41949773 -2.2356539 -0.24616422 3.0798805 -0.4492199
-0.5715932 0.11740532 -1.4055123 -1.5147449 -3.316144 -2.345469 -0.14240514 -0.024717335
0.042103734 0.14791095 0.26640916 0.7530132 -0.6060199 -2.3739045 -3.372848 -2.337014
-1.1286883 -0.21234918 0.4132313 -0.105595924 0.0875487 0.13838716 0.21858509 -0.17114191
-0.10627044 -0.59169805 -0.043816753 -0.2265507 0.2587608 0.30669463 0.43048105 0.4775295
-0.5966539 -0.82804006 -0.7878476 -0.29550892 -0.22388512 -0.3265366 -0.44496062 -0.07357634
0.050075542 -0.5048107 -0.2883049 0.06636389 -0.22816095 0.3354843 -0.25606605 -0.26380423
0.06484287 -0.3176393 -0.18491787 0.055694435 0.5245677 0.93749326 0.20144625 -0.82717645
0.48582807 -0.17682172 -0.8460189 0.4375675 2.9157715 1.0770036 -6.367091 -1.7181249
-0.035403892 3.7056723 5.4804754 3.9556522 3.5703044 3.040084 4.5941553 2.7694962
0.57757246 -0.7579046 -0.2743003 -0.19673055 -0.44163644 -0.29306605 -0.3854123 -0.3306112

weight_hh_l0 f4 [30, 10]
00000000: b34e 2340 4f70 ebbe 914d 52c0 137d ccbf
00000010: 5cad 85bd 9a4d 5640 c87e cabf f0be 69be
00000020: 13d7 28c0 3bdf 1040 ced9 0abe aabb 3540
00000030: e0f5 56c0 02bf 42bf 98fd 9dc0 e70c 1cc0
00000040: ead9 883f 122d 37bf d231 c53f 80cc 56c0
00000050: 3070 c63e e236 9d3f 0d85 06c0 8019 133f
00000060: 7c64 1fbf 1410 e1bd 3c57 a23e 580a abbb
00000070: 865d 78bd b314 4cbf 0d5b 3dbf 0549 1a3f
00000080: 8e3d 513e 5dcb 04c0 c288 19bf c9ed b9be
00000090: ee66 bb3f df76 8dbf 9690 973e 8006 ccbf
000000a0: 1a0d d6c0 d6d0 20bf 45b3 0240 cf82 e0be
000000b0: 33f5 a3be d53f e5c0 4a9a 80c0 a1b3 24bf
000000c0: 3e10 9e40 5aab 74c0 881b 0841 6a20 4540
000000d0: c14c ae40 e5bc 3640 70df 5840 bf50 9441
000000e0: 4878 2a3f 9c9e 0740 1793 42c1 bf41 f440
000000f0: c919 223f ae60 923c 3b36 41bf 246b f23e
00000100: 9272 ce3f c84e 843e 2e88 b2bf 034b 55bf
00000110: 7395 003f 443d 463d 3afd d8bf bef1 2ebc
00000120: d2e1 a83f 6680 65be 5a35 93bf 5bd9 483f
00000130: b0bb ea3e bf47 063e bbf2 893f 454c c8bf
00000140: 5b6f 1fbe 1823 b33f 8fc8 52bf 820a 97bf
00000150: 47b4 503f 09fb 40c0 44a5 7dbf 8724 8d3e
00000160: 2965 b03f 1781 14bf d215 13bf 2c19 7cbe
00000170: 19d5 8a3f 8399 903e f056 32bf bf87 2e3e
00000180: 6e02 3cbf d34c f8be 75e0 cb3e 022f c4bf
00000190: b494 a3c0 4796 9dc0 85b3 913c 6c3c 743d
000001a0: 6264 0141 8a3f a340 812b 8e40 763e 6cbc
000001b0: 6b30 f1c0 25e9 d540 c81e 61c0 1f6d ad40
000001c0: 58ef 783f 0d8d 23be ff6a bdbf 224a fc3d
000001d0: 5789 093f c2f4 7f40 c69a 9340 fb77 bfc0
000001e0: 9fd2 bc40 0f95 91c1 6a80 0a41 3395 80c0
000001f0: 05c6 2a41 296f d83f c409 b0bf ac4b dcbf
00000200: 058f 3fc1 61bb 3d41 d740 0d42 e198 0ac2
00000210: efc5 0142 644e cb40 7705 0442 b6a9 f741
00000220: b052 a73e c147 69c1 af60 0742 8d0e 03c2
00000230: fb66 6a3e 22ee f6bf 0a9d 80c0 b0c4 143f
00000240: fffd 4dc0 a334 e840 69ec 86bf 72ce 1e3f
00000250: 8b41 98c0 0546 a9bf ab34 c5c0 a1e5 1740
00000260: 5b9e 13c0 c0b5 d0bf 321a 5bc0 d4de da40
00000270: db46 33c0 b703 b3bb 8f48 4c3f d6bf 08c0
00000280: 791f e940 9560 663e f73d f640 1083 d03f
00000290: 2850 2141 c19c 60bf 982d bfc0 358d bcc0
000002a0: 2a0a 20c1 527c 3741 6b78 883f 3979 8cbe
000002b0: f39d 8c3e 7df5 11bf 1344 793d 65d2 82bb
000002c0: fcbc 0141 21b8 edbf 0ce7 fd3d ee50 58c0
000002d0: 2ef0 e8c0 71c2 2bc0 d584 9940 9cc8 ef3d
000002e0: 3ccb a2c0 1dc9 d3c0 2564 9dbe 8eb4 643f
000002f0: 6205 a640 91b6 5dc0 6235 30bf d85c d0be
00000300: 6cf5 8bbf 86d1 2ebf 15b3 f7be 6892 ca3f
00000310: fec4 05c0 7d8e 8d3e 1581 973f fcbc 9ec0
00000320: 4898 8fc0 f470 1941 6d06 63c1 2ce7 04c1
00000330: 0d8f 60c0 d41d 9b41 3bdf 86c0 0bdd 3640
00000340: c6a2 98c1 3e59 a541 1394 81c0 9a01 173f
00000350: 6954 d63f 08e6 fc3e e5d6 00c0 0233 0741
00000360: dab7 09bf 08fe 573e 60b4 f73f ce0a 0ac0
00000370: 1dec 1c3f be4f 78bf 8422 2140 334d a3be
00000380: 8b1e 62bf 8904 ff3e 41b1 353f 4680 1abf
00000390: d551 5a3e cd5c b03e 06d9 07c0 dfeb de3f
000003a0: ef49 dbbe e22b ee40 8b72 673f 2579 77bf
000003b0: 03d7 22bf 08ba 4940 a0da a8bf c2c6 59bf
000003c0: 1ff6 2541 dc14 0e3e f33d 0ebe 39d7 ecbd
000003d0: 4839 0e41 14c8 d6bf b53c 16c0 c848 91be
000003e0: 8f7c 2cc1 7197 0b41 8dba 1cc2 52be 4d42
000003f0: 685a 28c2 67e1 07c2 57ad 1bc2 9547 16c2
2.5516784 -0.45984122 -3.2859843 -1.597567 -0.06527206 3.3484864 -1.581994 -0.22826743
-2.638127 2.263625 -0.13559648 2.839579 -3.358757 -0.76072705 -4.9372063 -2.4382875
1.0691502 -0.71553147 1.5405829 -3.3562317 0.38757467 1.2282374 -2.1018708 0.57460785
-0.622627 -0.10989395 0.3170718 -0.005219739 -0.060636066 -0.79719085 -0.7396706 0.6026767
0.20433637 -2.0749123 -0.599743 -0.36314228 1.4640787 -1.1051902 0.29602498 -1.5939484
-6.6890993 -0.6281866 2.0421917 -0.438498 -0.3202301 -7.164042 -4.018834 -0.6433659
4.9394827 -3.8229585 8.5067215 3.0801034 5.4468694 2.8552792 3.3886375 18.539427
0.66589785 2.1190557 -12.160911 7.6330256 0.63320595 0.017868366 -0.75473374 0.47347367
1.6128714 0.25841355 -1.3947809 -0.83317584 0.5022804 0.04839827 -1.6952279 -0.010677753
1.3193915 -0.22412261 -1.1500657 0.7845666 0.4584632 0.13113306 1.07772 -1.5648276
-0.15569822 1.3995085 -0.8233728 -1.1800082 0.8152508 -3.015322 -0.990803 0.2756693
1.3780872 -0.58009475 -0.5745517 -0.24618977 1.0846282 0.2824212 -0.69663906 0.1704397
-0.7344121 -0.48496112 0.39819685 -1.5326846 -5.111902 -4.9245944 0.017785797 0.059627935
8.0870075 5.101506 4.4428105 -0.014419189 -7.5371604 6.68471 -3.5175037 5.4195704
0.9724021 -0.15971775 -1.4798278 0.12318827 0.5372519 3.9993138 4.6126432 -5.983396
5.9007106 -18.197783 8.656351 -4.018213 10.673345 1.6908923 -1.375298 -1.7210593
-11.972417 11.858247 35.31332 -34.649296 32.443295 6.353319 33.005337 30.957867
0.32680273 -14.580018 33.844418 -32.76421 0.22890846 -1.9291422 -4.01917 0.5811262
-3.2186277 7.2564254 -1.0540897 0.6203376 -4.758001 -1.3224493 -6.162679 2.3733904
-2.3065403 -1.6305466 -3.4234738 6.8397007 -2.8011997 -0.0054630893 0.79798216 -2.1367087
7.285092 0.2249778 7.695064 1.6289997 10.082069 -0.8773919 -5.9743156 -5.892237
-10.002481 11.467852 1.0661749 -0.27436236 0.27464256 -0.5701521 0.060855936 -0.003992366
8.108639 -1.8571817 0.12397584 -3.3799396 -7.279319 -2.6837428 4.797465 0.11708185
-5.087309 -6.6183 -0.30740467 0.89338005 5.188157 -3.464268 -0.68831456 -0.40695834
-1.0934272 -0.6828846 -0.48378816 1.582593 -2.0901484 0.27647772 1.1836268 -4.9605694
-4.487339 9.590076 -14.189069 -8.306438 -3.5087311 19.389565 -4.21475 2.8572414
-19.07948 20.668575 -4.0493255 0.5898682 1.674451 0.4939425 -2.0131161 8.449953
-0.5379616 0.21092999 1.9351921 -2.1569095 0.6129778 -0.96996677 2.5177317 -0.31894836
-0.88327855 0.49808148 0.70973593 -0.6035198 0.21320279 0.344458 -2.122621 1.7415732
-0.42829844 7.442857 0.90409154 -0.96669227 -0.6360933 3.1519794 -1.3191719 -0.85068905
10.372588 0.13875145 -0.13890819 -0.11564488 8.888985 -1.6779809 -2.3474553 -0.2837584
-10.78041 8.724473 -39.18218 51.43586 -42.088287 -33.97012 -38.919277 -37.569904

bias_ih_l0 f4 [30]
00000000: 69ff 35c0 ebde adbf ca0e debe f08a 123f
00000010: 3f42 9740 bc50 37bf ee91 e4be 6810 3cbb
00000020: 790b 433e b6b5 4b3f e87f 0f40 1383 99c0
00000030: 3bf7 a741 2262 1442 8b97 a9c0 de28 cfbf
00000040: 11d3 3341 e39f d73f 8be0 aa3f 0cdb ba40
00000050: b490 94c1 5356 4ac1 47df c940 3106 c1c0
00000060: 1df6 5740 1ded 2bc2 1291 c23c 75bf 31c0
00000070: 0b67 ff3d c13d 43c0
-2.843714 -1.3583654 -0.43370658 0.5724325 4.7268367 -0.71607566 -0.44642586 -0.0028696302
0.19047345 0.79574144 2.2421818 -4.7972503 20.995718 37.095833 -5.299749 -1.6184347
11.23903 1.6845669 1.3349775 5.839239 -18.570656 -12.646075 6.3085055 -6.032006
3.3743966 -42.981556 0.023750816 -2.7773106 0.12470826 -3.0506442

bias_hh_l0 f4 [30]
00000000: 5448 22c0 e89d e4bf f8c4 11bf 1e5c fa3e
00000010: 73b1 9540 9495 4ebf 0428 eebd 73c6 dd3e
00000020: e0de 273e 6af9 5b3f 0d1e 0c40 f6ec 90c0
00000030: 9cad aa41 0098 1542 19c8 a7c0 9c84 a5bf
00000040: 10f0 3041 4200 fa3f f5b2 da3f 85fc be40
00000050: 76d8 33c1 bd50 1b3f 78f2 893f 0e01 5bc0
00000060: e3c1 b23e d177 2fc2 78a7 ddbf e170 41c0
00000070: 5469 95bb ac20 bdc0
-2.5356646 -1.7860689 -0.56941175 0.48898405 4.6779113 -0.8069699 -0.11628726 0.43315467
0.16393614 0.8592745 2.1893342 -4.528926 21.33477 37.398438 -5.243176 -1.2931094
11.058609 1.9531329 1.7085863 5.968325 -11.240347 0.6067007 1.077712 -3.4219394
0.3491355 -43.86701 -1.7316732 -3.0225146 -0.004559675 -5.9102383

weight f4 [10, 10]
00000000: ed0b f23f 88a3 92bd a80e 3140 ac75 b4bf
00000010: 7fa4 463e ff3e 033f 0c89 723e 21cc 0241
00000020: 95f4 913f d00a cc3e 9507 00bf 9ca8 323f
00000030: 09f6 cbbf 12e1 6e40 a4a1 193e 960d 75bf
00000040: 4467 89be c618 a540 1ba6 2140 dbc4 d63d
00000050: 4524 a13f 5ed5 3bbf 9510 a4bd b535 82bf
00000060: 3ff5 c33f 4513 cbbe 9ba1 6cbf 5090 ecc0
00000070: 390b 48c0 6103 9c3f fae2 aabe c083 463c
00000080: 96fe 633d 7033 613e 244c 13bd 4c42 3fbf
00000090: 3fc2 5f3f 8941 26c1 1dbb f8be 97db 003f
000000a0: fd92 23bf 3f70 c6bd ef7a 4fbf c026 b8bf
000000b0: 5bc3 12bf d1b0 02bf bf2b adbf e670 8e3d
000000c0: adbf a1bf 696f 913d aad9 83bd ec46 36bf
000000d0: cfff 22bf cc23 debe 3fff dd3e a210 dcbe
000000e0: b8b0 a6be 427c 47c0 22ba 35bf bbd4 62be
000000f0: 8a11 d840 3227 0cc0 fb85 173e ba9a e63e
00000100: ad81 5840 94a1 603f f52e fb3f b791 3f41
00000110: 11d0 3abf 79d8 0840 d897 81c0 86cf f43f
00000120: dc78 fe3e f2be c63d a669 9dbf 0bb9 583f
00000130: c4bb 493f 0109 1ac1 9ae3 753f 6f3d a3bf
00000140: 9fc3 3abd a837 873e e55d 18be da9b febe
00000150: ced2 5cbf a5c5 d23e 31df eb3e 455f b640
00000160: 01e3 0540 be44 85bf 1f50 4cc0 0818 a33f
00000170: 9714 1b3f c758 1cbe 72a8 00c0 3994 fd3d
00000180: 7755 a7bf 0aa6 fdbe 8753 a2be 4e73 47c0
1.890989 -0.07160097 2.7665195 -1.4098411 0.19398688 0.51268 0.23685092 8.174836
1.1402766 0.39852 -0.5001157 0.6978853 -1.5934459 3.7324872 0.15003067 -0.95723855
-0.26836598 5.159274 2.5257633 0.10486766 1.2589194 -0.7337245 -0.08010975 -1.017264
1.5309218 -0.3966314 -0.9243409 -7.3926163 -3.125685 1.2188531 -0.33376294 0.012116373
0.055662714 0.21992278 -0.035961285 -0.74710536 0.8740577 -10.391 -0.48580256 0.5033507
-0.6389616 -0.09689378 -0.81046957 -1.4386826 -0.5732934 -0.5105105 -1.3528975 0.069551274
-1.263662 0.07101328 -0.064380005 -0.7120197 -0.6367158 -0.43386686 0.433588 -0.4298144
-0.325567 -3.116959 -0.7098714 -0.22151463 6.752141 -2.1898923 0.14797203 0.45039922
3.3829148 0.8774655 1.9623705 11.973075 -0.72973734 2.1382124 -4.0497856 1.9125831
0.49701583 0.09704389 -1.2297866 0.84657353 0.7880213 -9.627198 0.9605042 -1.2753123
-0.045596715 0.2640965 -0.14879568 -0.4972828 -0.8625916 0.41166416 0.4606872 5.6991296
2.0919802 -1.0411603 -3.1923902 1.2741709 0.6057829 -0.15268241 -2.010281 0.12381787
-1.3072957 -0.4954074 -0.3170435 -3.1164126

bias f4 [10]
00000000: 01a9 13bf 0800 3c40 e9f1 b0bf 2610 19c0
00000010: a3cc e33f ec3f 1d3f b9ef 2bbf 5a7a 75bf
00000020: 5c61 953f ef54 a0bd
-0.57679754 2.937502 -1.3823825 -2.3916106 1.7796825 0.6142566 -0.6716266 -0.9588982
1.1670337 -0.078287
