model/new/10_gru.model (torch_old, 15772 bytes, 6 tensors)

weight_ih_l0 f4 [30, 28]
00000000: 9069 bdbd 95f0 c8be c3b8 7fbe 9c48 493e
00000010: eb9f 843e 5359 4e3f 99a3 173f bce5 2a3f
00000020: 9472 943e 3669 aa3d e45b fd3e eac7 c1be
00000030: ba7b 81bf 59fa d6bf 3e66 88bf 6a68 573f
00000040: 8975 1240 4107 d03f 5dcb 743f ce7e 4c3f
00000050: 1faa ca3f aadf c23f 39e2 8f3e b568 39be
00000060: 8916 4dbe 1876 09be 4aa1 f7bc 0f3d a0bd
00000070: 4c26 89bf 4efc 11bf b094 18bf cd0d 65bf
00000080: 0d3f 97bf 282d 38bf 0cf8 0dbe b6a2 5abf
00000090: c543 8dbf 0a07 1bc0 196e e0be 5e2a 503f
000000a0: bfb6 db3f 91bb 0740 0631 933f 4bcd a83e
000000b0: 91c6 863d 5793 8e3f 0f64 613f ce2b 8f3e
000000c0: 284d 84bf faec 04c0 d5d5 20c0 4204 93bf
000000d0: 3d0b 2d3c 9afe edbc b3cb c0be ae24 00bf
000000e0: c8fe 48bf 422c 72bf a6d2 f6be 8b84 02bf
000000f0: da72 1dbf 6d95 1dbe 83df 83be 3887 28be
00000100: 3f50 0f3e b8b8 d13e e9d1 433f f8d4 053f
00000110: 0f11 103d 3638 32be a5fa ff3d cf09 72bd
00000120: ae72 4f3d 39c5 013f 7834 a53e 2fc5 983e
00000130: 226e a13e 5dd5 af3e 5195 ebbd a3c0 293e
00000140: b0c5 7fbe b80e cebe 92aa ebbe 4784 4cbf
00000150: e4a6 763e 3b27 07be 907c 80be 3dbd 2e3f
00000160: 2967 093f 9483 f7be e9f0 6fbf f89d 9cbf
00000170: cf13 6fbe 7959 19bf 813d 91bd f817 953f
00000180: ef8d c93e f66a fe3f bc1d 2a40 23c4 d83f
00000190: a4a8 b63f 1b62 4d3f 52d0 9c3f b076 713f
000001a0: 32a9 ad3f 44bd b53f 9b04 5a3f f099 233e
000001b0: 7787 083e 94ac f3be 9e0b b1be a0ee 503e
000001c0: d2b7 173f baa0 af3d 4efa 983e dded 153f
000001d0: 33e0 573f a430 5f3f 1270 233d 2908 bf3e
000001e0: d6e3 4f3f a024 c83f cbdb 2640 8ac5 1540
000001f0: e87e 0b40 ebb6 073f eadb 47bc 3f3c 4e3d
00000200: 8ed0 55bf 94c8 83bf 0ddd 3abf 6bba 113f
00000210: 1828 d53f 1f08 c93f 7558 453f 5ec1 e63e
00000220: f26e d03e d3dd 353e 3554 a03d eed3 bc3c
00000230: 9dc0 06bf 61ee d5be 7c6f 18bf edb7 babe
00000240: e6d4 cdbe 5dd4 5a3e 0324 093f 3a90 a33e
00000250: f124 a6be e844 65bd c4a9 0e40 9bb2 a03d
00000260: 7925 e2bf 2362 21c0 1cdf 02bf ad22 123f
00000270: 4a7d 813f 0573 6d3f 7808 e63e 15b2 15be
00000280: e355 8c3f 79b5 873f 62c2 e7bc 9b5b 02bf
00000290: 2f14 c5be 24f5 823d 5007 13bf 5bba 0bbf
000002a0: 27a5 4fbe 9d3f debd 700e e5bc d501 7b3e
000002b0: 5bf8 923d a87a 8cbe 1999 adbd bbe1 c13e
000002c0: 7626 1c3e 02e7 f23e d188 83bf f320 07bf
000002d0: c4dd 63bf 22d2 4cbf 9967 df3e efce 0d3e
000002e0: a746 553f c037 7d3f 06bd e33e f63f 473f
000002f0: 187a 6b3e 98e5 42bf 6c99 23bd 3455 b2bd
00000300: de4b 1f3f 8e7f ec3e 1ffa f53e 5a6b 2ebe
00000310: 79f1 20be e372 01be 63e5 b5bd 8472 48bf
00000320: ef66 8c3e 0e89 7e3f f280 ca3f 22be 953f
00000330: 9f53 b23f e9ba aa3f 4e1f 8f3f 12e2 493f
00000340: 3c9a ed3e b894 e3be dcc8 edbf 962d c4bf
00000350: ca9a a53e a6bd 213f bdd7 99bf b9e4 31bf
00000360: c390 76bf 4c24 77bf 97ad 2cbf 2180 0dbf
00000370: 532a 5dbf e592 99bd 299e 14bf cc70 0ebf
00000380: 944f 06bf 342b 60bf 7677 39bf 028b a4be
00000390: e4bf 3dbe fce2 993c dee3 8c3d 187f b53d
000003a0: b2bb 213f 566f 9e3d 88f6 db3d 394f 4dbc
000003b0: 01b6 4d3e 0b99 263f 7e01 093f e544 e2be
000003c0: 831e aabf 0fd4 b63d 3ea2 923e 5d34 ddbe
000003d0: cdb1 88bf e0c5 a0bf 3d20 9bbf 4327 42bf
000003e0: 88ad a4bf 772f 9cbe 8102 14bd 55f5 32bf
000003f0: fd44 0d3f 2dd4 263f d399 8b3f 7dc6 fa3f
-0.0924865 -0.3924605 -0.24972825 0.19656605 0.25903258 0.8060505 0.59234005 0.66756797
0.28993666 0.08320849 0.4948417 -0.37847835 -1.0115883 -1.679515 -1.0656202 0.841437
2.2884238 1.6252214 0.9562281 0.7988099 1.5833167 1.5224507 0.28102282 -0.18106349
-0.20028128 -0.13423955 -0.030228276 -0.07824146 -1.0714812 -0.5702561 -0.5960188 -0.89474183
-1.1816117 -0.719439 -0.13864154 -0.8540453 -1.1036307 -2.4223046 -0.43833998 0.8131465
1.7165145 2.1208231 1.1499336 0.32969126 0.06580842 1.1138715 0.880433 0.27963108
-1.0336046 -2.076964 -2.5130513 -1.1485674 0.010561761 -0.029052068 -0.3765541 -0.5005597
-0.78513765 -0.9459878 -0.48207587 -0.50983495 -0.61503375 -0.15389033 -0.25756463 -0.16457832
0.13995455 0.40961242 0.7649217 0.5227809 0.03517252 -0.17404255 0.124989785 -0.059091385
0.050646476 0.5069156 0.32266593 0.2983794 0.31529337 0.3434247 -0.11503089 0.16577391
-0.24977756 -0.40245605 -0.46028572 -0.7988934 0.24087101 -0.13198559 -0.25095034 0.68257505
0.53673035 -0.48342574 -0.93726975 -1.2235708 -0.233474 -0.5990215 -0.07091809 1.164794
0.393661 1.9876392 2.6580648 1.6934856 1.4270215 0.8022782 1.2251074 0.9432173
1.3567259 1.4198384 0.8516328 0.15976691 0.13332926 -0.47592604 -0.34579176 0.20403528
0.5926486 0.08575578 0.29878467 0.58566076 0.84326476 0.87183595 0.0399018 0.37310913
0.81207025 1.5636177 2.607165 2.3401818 2.1796207 0.53013486 -0.012198428 0.050350424
-0.83521354 -1.0295587 -0.72993547 0.56925076 1.6652861 1.5705603 0.770881 0.45069402
0.40709645 0.177604 0.07828561 0.023050275 -0.52637655 -0.4178343 -0.5954511 -0.3646845
-0.4020149 0.21370073 0.53570575 0.31945974 -0.3245006 -0.055973917 2.2291117 0.07846566
-1.7667686 -2.5216148 -0.5112169 0.5708416 1.011636 0.9275363 0.44928336 -0.14618714
1.096371 1.0602256 -0.028290931 -0.5092103 -0.3849196 0.06394413 -0.57433033 -0.5458123
-0.20277844 -0.10851977 -0.027960986 0.24512418 0.07176276 -0.2743733 -0.08476467 0.3786753
0.15249047 0.4744187 -1.0276128 -0.5278465 -0.8901026 -0.8000814 0.43633726 0.1384847
0.8331093 0.9891319 0.4448015 0.7783197 0.22995794 -0.7613158 -0.039941236 -0.087076575
0.6222514 0.46191067 0.4804239 -0.17033139 -0.15717115 -0.12641482 -0.08881643 -0.78299737
0.27422282 0.9942788 1.5820601 1.1698649 1.3931769 1.333829 1.1181428 0.7886058
0.46406734 -0.444494 -1.8576922 -1.5326412 0.32344657 0.63180006 -1.2018963 -0.6948963
-0.9631464 -0.9653976 -0.6745238 -0.55273634 -0.86392707 -0.07498721 -0.58053833 -0.55640864
-0.52465177 -0.8756592 -0.7244791 -0.32137305 -0.18530232 0.018784992 0.068794 0.08862132
0.63177025 0.077360794 0.107403815 -0.012531095 0.2008896 0.65077275 0.535179 -0.44193187
-1.3290561 0.08927166 0.28639406 -0.43204013 -1.067926 -1.2560387 -1.2119213 -0.7584116
-1.2865458 -0.30504963 -0.0361352 -0.69905597 0.5518339 0.65167505 1.0906318 1.9591824

weight_hh_l0 f4 [30, 10]
00000000: d590 18bf 0b19 163e 8c1b b2bf 2adb 61be
00000010: 7cf5 ab3f 3ed8 153f c52c 213d 7ccd 413f
00000020: 2da1 bbbf 5f2d 853f fdd2 8d3e 3f09 963f
00000030: 016f fa3e 26ee 0cc0 b59a bdbf 2ff2 9ebf
00000040: 1d7a b2bf 2a3f f83f af3f 633e afd1 5ebe
00000050: 4d57 02be e873 bdbe cdc7 b2bf 1c05 463e
00000060: 8a8d 693e 3631 ae3f c8ae 38be 3919 9fbe
00000070: 189e 123d 021e cdb7 aaa6 dbbf 97ea 743e
00000080: be76 bebe 1983 ffbe b272 2fbf 9256 dfbe
00000090: 9633 80bf 8dfc c7bf 8e80 c03e 55d2 d5bf
000000a0: 0925 d1bf c61f 35bd 0de8 a1bd 901b 273f
000000b0: f231 09bf 9c95 28bf a7f7 bbbf 4e4e f23f
000000c0: 063a 91bf 65b6 0040 2c37 37bf 6f79 83bf
000000d0: 376e f4be bf49 63bf 6ba1 aebe b2b2 8640
000000e0: 68ef 3f3f 0cde 8e3d e737 8f3e 522f 6ebf
000000f0: 3c16 4840 f6b4 26bf 2c8c 30bf 2123 77be
00000100: 156f 9f3b d07f 12bd 98a7 72bf ffea 3ebe
00000110: 5e6a b6be 041d 14bf 5c87 10c0 5eb8 a43e
00000120: 4677 743f 7630 12c0 4bb3 4fbf ae6a 09be
00000130: d18a 0840 f657 f53f b4eb abbc 8dbf a23f
00000140: 885a 863d a227 fa3c 7f33 30bf cbdf 3dbf
00000150: 1463 67bf 026b 52bf 79e9 86be 21e4 cabd
00000160: 44ca 6e3e 43fb 0d3f e621 8740 e9d7 b83f
00000170: d64e 9d3f 3491 ed3f 63c3 9040 5a31 4a40
00000180: fca1 6c40 9351 8640 4dfb f1bf 8b88 243e
00000190: b8ae 8140 6f2d a83f f0f4 8cbf c424 0d3f
000001a0: 32ab a640 ec5f 6441 7a41 f0bf 5281 383f
000001b0: 6fa3 2ac0 74ff f3bf 1da7 ac40 aca3 c3be
000001c0: 06f9 b5c0 8b30 4740 171b ee40 d0e1 fc40
000001d0: 509e 49bf 12fd 3f40 112b 3bbf e625 b63f
000001e0: 5424 d9bd 9f54 28bd 1292 a93f 7318 01be
000001f0: d798 b6c0 daa2 bcc0 58a6 e9be 62ee 0cbf
00000200: e7bc 02bd 1cc8 33be f65c 7441 3efe dfbf
00000210: 5dff dfc0 9a34 9b40 98f7 4941 0e26 8941
00000220: 9bde cb3f 0a60 b43f 647e 8a3e 013d d6c0
00000230: 7748 78c0 c6c2 ccbe 0981 c140 bdb0 8cc0
00000240: 03a5 44c1 1dd5 95c0 d46f 16bf e3fd 9f3e
00000250: d254 bbbf dabf 0ac0 640e 5dbe 0392 41be
00000260: ba77 0441 f87b d53d ac55 2fc1 4849 27c1
00000270: 74e4 853e dcac 16be 029b 29bf 4bee e1bd
00000280: 98c9 81bf e831 a0bd f138 1bc0 1938 7f3d
00000290: 7fa8 183f 42aa 813f aebd 42c0 743e abbe
000002a0: 0d45 f53e 21eb cebf 8e3a b93e 436a 383f
000002b0: 0933 1e3e 61e2 1840 289c 183f 6331 a7be
000002c0: 5d0f bfbf 4a84 1ac0 c79a 923f 6405 babf
000002d0: a4ea 903f 32d6 98be fcc1 9540 9c9c 7b3e
000002e0: ca8e 143f 6ddd 12bf 6298 4840 7164 4840
000002f0: 3903 ba40 386e e33d edae b73e 0c28 b8be
00000300: 1b47 ac3f d20c 193f 4483 b6bc 06f9 8740
00000310: ba10 553f 5bbd aec0 4304 c03f 9926 0f3f
00000320: a305 25c1 d7ba 813f b3d5 3241 2bee 22c1
00000330: 7176 f9c0 f8f4 6c41 5778 82be bc54 87be
00000340: 3ceb 7ec1 93ff f5bf 2638 afc0 28bf bc40
00000350: 8c24 d240 6f5c 95c0 2a4b 6bc0 be36 acbf
00000360: 6cc1 0dbf 7130 1cc0 3b76 f63e c0f5 bcbf
00000370: 63a7 c33c 754d 2f40 dd79 a840 9671 ffbe
00000380: fcb0 4a40 f36e 56c0 f399 d8be 6b5c ccbf
00000390: 15ec eabe 0fa7 24bf 3c0a e940 061b 8ec0
000003a0: 5d09 803f a62b 8b40 1d7d 1a40 ff8a 2240
000003b0: b140 12c0 8046 873f ece8 d13f cedf b440
000003c0: 4bcd d83f 3847 76bf 867f 78bd d170 a83f
000003d0: a1e0 8e3f 4c7c f03f d905 52be 39f2 4e3f
000003e0: 0fc6 5e3f ae44 aec0 7bed ae3f 5411 46c0
000003f0: 446a 0140 2d55 db3d 8b50 f840 9fd9 1740
-0.59595996 0.1465799 -1.3914657 -0.2205626 1.3434291 0.58533084 0.039349336 0.7570417
-1.4658562 1.0404471 0.27700034 1.1721572 0.48912814 -2.2020354 -1.4812838 -1.2417659
-1.3943516 1.9394276 0.22192262 -0.21759675 -0.12728615 -0.37002492 -1.3967224 0.19337887
0.22807899 1.3608768 -0.18035424 -0.3107393 0.0357953 -2.4451878e-05 -1.7160237 0.23917614
-0.37199968 -0.49904707 -0.68534386 -0.43620735 -1.0015743 -1.5623947 0.3759808 -1.6704813
-1.6339427 -0.044219755 -0.07905588 0.6527643 -0.53591835 -0.65853286 -1.4684952 1.8930147
-1.1345832 2.0111325 -0.7156856 -1.0271434 -0.47740337 -0.887844 -0.34107527 4.2093134
0.7497468 0.06975946 0.27972338 -0.93040955 3.126357 -0.65119874 -0.68963885 -0.24134494
0.004865537 -0.035766423 -0.9478698 -0.18644331 -0.35628027 -0.57856774 -2.2582617 0.3217191
0.95494497 -2.2842078 -0.81132954 -0.13419601 2.1334727 1.9167469 -0.020986415 1.2714707
0.06560236 0.030536477 -0.68828577 -0.74169606 -0.90385556 -0.8219453 -0.2635 -0.099067934
0.23319346 0.5546152 4.222888 1.444089 1.2289684 1.8559937 4.523851 3.1592622
3.6973867 4.197458 -1.8904816 0.16067712 4.052578 1.3138865 -1.1012249 0.55134225
5.208398 14.273418 -1.8769982 0.7207233 -2.6662252 -1.9062333 5.3953996 -0.3821081
-5.6866484 3.1123378 7.440807 7.902565 -0.7875719 2.9998212 -0.7311259 1.4230316
-0.10602632 -0.041096326 1.3247702 -0.12606983 -5.706157 -5.8948793 -0.45634723 -0.55051243
-0.031918433 -0.17556804 15.272696 -1.7499464 -6.9999223 4.850171 12.622948 17.143581
1.5927309 1.4091809 0.27049553 -6.694947 -3.879423 -0.3999235 6.0470014 -4.3965745
-12.290286 -4.682265 -0.58764386 0.31248388 -1.463526 -2.1679597 -0.21587521 -0.18903355
8.27923 0.10424036 -10.958416 -10.455391 0.26150858 -0.14714378 -0.6625215 -0.11031779
-1.0139647 -0.07822019 -2.4253504 0.06230936 0.59632105 1.0130084 -3.0428271 -0.33446085
0.47904244 -1.6165506 0.36177486 0.7203714 0.15449156 2.388817 0.59613276 -0.32654867
-1.4926564 -2.4143243 1.1453484 -1.4532895 1.1321607 -0.29850918 4.6799297 0.2457146
0.5803038 -0.5736912 3.1343007 3.1311305 5.8128934 0.11105007 0.35875645 -0.35968053
1.34592 0.5978519 -0.02227939 4.2491484 0.8322865 -5.4606147 1.50013 0.5591827
-10.313876 1.0135144 11.177173 -10.183146 -7.795708 14.809807 -0.25482437 -0.26431835
-15.93243 -1.921862 -5.475604 5.8983345 6.5669613 -4.6675334 -3.6764627 -1.3454206
-0.55373263 -2.4404566 0.48137078 -1.4762497 0.023883527 2.7391026 5.264876 -0.49891347
3.1670523 -3.3505218 -0.42304954 -1.5965704 -0.4588324 -0.6431741 7.2824993 -4.4407988
1.0002857 4.349078 2.4138863 2.5397336 -2.2851985 1.056839 1.6399207 5.65232
1.693765 -0.9620242 -0.06066849 1.3159429 1.1162301 1.8787932 -0.20510043 0.8083835
0.87020963 -5.4458838 1.3666223 -3.0948076 2.022111 0.10709605 7.759832 2.3726575

bias_ih_l0 f4 [30]
00000000: b1cd 963e 31d8 0240 42dd 0740 9993 15be
00000010: 7a3e 23bf 22f7 523f 5b65 a0be a798 133f
00000020: 814b ca3f cf15 c5bf b2b9 133f dad8 ce40
00000030: be55 e93f 38e8 8841 e7e8 1cc1 87bf afc0
00000040: 7ab8 5f40 be96 fa3f ebfe 1d40 0ba2 973f
00000050: 4b56 89c1 2078 0ec0 267c 92bf b896 18c0
00000060: db6c b6c0 1d77 8ec0 af4d 78bf 753b 3bbf
00000070: 9392 823f 0d57 813f
0.29453805 2.0444453 2.1228795 -0.14607085 -0.63767207 0.82408345 -0.31327328 0.57654804
1.5804292 -1.539728 0.57705224 6.463971 1.8229291 17.113388 -9.806861 -5.49213
3.4956346 1.9577253 2.468684 1.1846327 -17.167135 -2.2260818 -1.1444137 -2.3841991
-5.700788 -4.45204 -0.96993536 -0.731376 1.0200981 1.0104691

bias_hh_l0 f4 [30]
00000000: 6143 1a3f eff1 ce3f 4b5b fe3f 0c08 6bbe
00000010: ffc4 2fbf bfb2 3b3f e328 8a3c 049c 813f
00000020: e7e5 c63f 1df4 bcbf 9132 063f db6e d740
00000030: b65d 0a40 f753 8b41 2d01 1cc1 6956 a5c0
00000040: 762c 5440 f47b 0e40 2fe8 3540 c227 a83f
00000050: b4b2 68c1 d0db 60be 5181 05c0 357a b3bf
00000060: 1ef3 3cc0 844e 51bf b28b fcbf 8d3e 17c0
00000070: 5e80 8a3f 5d0e 17c0
0.6025906 1.6167582 1.987161 -0.22952288 -0.6865997 0.7331962 0.0168652 1.0125737
1.5538911 -1.4761997 0.5242091 6.732282 2.1619697 17.415998 -9.750287 -5.166798
3.3152137 2.2263155 2.8422964 1.3137133 -14.543629 -0.21958852 -2.0860178 -1.402167
-2.9523387 -0.8176043 -1.9730132 -2.3631928 1.0820425 -2.3602517

weight f4 [10, 10]
00000000: e0cf 443e b2b1 bdbb dffa babd 76ac 083f
00000010: b7f5 4dc0 f79f f23f ba3b ff40 6bb8 73c1
00000020: 2f02 95bf c375 fa3e 5e3a 6a3d 9bab 58bf
00000030: a23a 133e 22b4 ae3e 7483 1f40 3bce e03f
00000040: c2ca 6140 f745 1a41 cf9d b7c0 06fd 2b40
00000050: 9c6f d8be b7cf 1fbf b7ad e7bf 9286 88bd
00000060: 75bb 12bf 0c30 cc3f f2a5 1dc1 b0de 903d
00000070: 77d0 3940 6f56 613e 93f5 7abf c0ba 58bd
00000080: c205 273e 1fdf 453e 5705 f63e 6c80 0bbe
00000090: 992d 0ec1 6ef4 8f40 d5b3 47bf 9511 febf
000000a0: e249 703f 5b77 cb3e 0cbd 933f b137 10bf
000000b0: 3b44 5d3d f56e 91be f6db c23f bbd9 4ac0
000000c0: 3312 8f40 9c9c 813f aeb7 22bf 98d4 3e3f
000000d0: 42e8 e13e e31b ba3d 75ed 443e 1f0d 14be
000000e0: a21d 82c0 e122 8f40 9129 1140 58e8 0bc0
000000f0: 7c27 283f 2dce a83f b70f 88c0 6440 6cbf
00000100: 3c73 523f 8fea 473f 30d9 0841 2fc2 f7bf
00000110: 2d51 f2bf a321 90bf dba5 c7be 2599 8abe
00000120: b8c8 9a3f e29a b8bc 27cf 9fbf 03be 4dc0
00000130: aadd 12c1 2d1d fa3f d3b0 5c40 d25c 153f
00000140: be0a 683f 38a3 423e 807d c03f 1579 5d3e
00000150: 1943 2240 d366 883e bc61 2841 9bc2 0140
00000160: 6ac1 6abf 8315 b1bf e5fd 403f ab33 fdbe
00000170: f6d4 1540 1de1 7fbe 899a 0ebf cf27 32c0
00000180: 1839 ca3c 02a4 11c0 9abe 20c0 27c1 ef3e
0.19219923 -0.005789005 -0.09129881 0.53388155 -3.2181222 1.8955067 7.976041 -15.232524
-1.1641291 0.4891797 0.05718457 -0.8463685 0.14377835 0.34121805 2.4923983 1.7562937
3.5280004 9.642081 -5.7380137 2.6873183 -0.4227265 -0.6242632 -1.8099889 -0.06666292
-0.57317287 1.5952163 -9.853014 0.07073724 2.9033487 0.22005628 -0.98030967 -0.052912474
0.1631079 0.19323395 0.4805095 -0.13623208 -8.886132 4.4985876 -0.78008777 -1.9849116
0.93862736 0.39739498 1.1542068 -0.5633498 0.054020148 -0.28404966 1.5223377 -3.1695392
4.4709716 1.0125918 -0.6356152 0.7454314 0.4412251 0.0908735 0.19231208 -0.1445813
-4.0661173 4.4730077 2.268162 -2.1860561 0.6568525 1.318792 -4.2519183 -0.9228575
0.82207084 0.78092283 8.553024 -1.9356135 -1.8931023 -1.1260265 -0.38993725 -0.27069965
1.2092505 -0.022534791 -1.2485093 -3.2147224 -9.179117 1.9540154 3.4482925 0.5834476
0.9064139 0.19007576 1.50383 0.2162822 2.5353453 0.2664095 10.523861 2.0275028
-0.91701376 -1.383469 0.7538741 -0.49453482 2.341123 -0.24988218 -0.5570455 -2.7836797
0.024685428 -2.2756352 -2.5116334 0.4682705

bias f4 [10]
00000000: 3b2a a1c0 4cac 6c40 ae81 28c0 071a 5cbf
00000010: 21eb 90bd 2110 8d3f 4f21 b8bf 1c90 ad3d
00000020: 6975 1b40 c074 4a40
-5.036405 3.6980162 -2.632915 -0.85977215 -0.07076097 1.1020547 -1.4385165 0.08474752
2.4290411 3.1633759
