model/new/10_lstm.model (torch_old, 18050 bytes, 6 tensors)

weight_ih_l0 f4 [40, 28]
0	0xbf9d6f83	-1.2299656
1	0xbfbc7f76	-1.4726398
2	0xbfac169f	-1.3444403
3	0xbf831dbf	-1.0243453
4	0xbf4052e6	-0.7512649
5	0x3f79c231	0.9756194
6	0x3e8b2668	0.2717774
7	0x3f3bc1c4	0.7334254
8	0xbe003cf4	-0.12523252
9	0x3f8438aa	1.0329792
10	0x3e11370e	0.14181158
11	0x3e99bf01	0.30028537
12	0x3fcf5091	1.6196462
13	0x3f958e25	1.1684004
14	0x40337e82	2.8045964
15	0x4038b539	2.886061
16	0x3ffd74d4	1.9801278
17	0x3faaf48f	1.3355883
18	0x3fa54477	1.2911519
19	0xbcfe8438	-0.031068906
20	0x3e5ea9c7	0.21744452
21	0x3df8c521	0.12146974
22	0xbecc31df	-0.398818
23	0xbfd6e853	-1.678965
24	0xbfc67a79	-1.5506126
25	0xbf77f756	-0.9686178
26	0xbf860633	-1.0470642
27	0xbf90507c	-1.1274562
28	0xbf828783	-1.0197605
29	0xbee046dd	-0.43804064
30	0x3db90790	0.090346456
31	0xbd8e38e5	-0.069444455
32	0x3e2a5ff9	0.16638173
33	0xbed21a6e	-0.4103579
34	0xbdf63551	-0.12021888
35	0xbf1aa99c	-0.60415053
36	0xbf60a060	-0.8774471
37	0xbf496d5f	-0.7868251
38	0xbf8072b0	-1.0035
39	0xbf38dd6f	-0.7221288
40	0xbf41a9fa	-0.7564999
41	0xbef42d4f	-0.47690818
42	0xbedf6c65	-0.43637386
43	0xbc83d1e7	-0.0160913
44	0x3dc2a73a	0.09504552
45	0xbddad860	-0.106858015
46	0x3d484744	0.04889609
47	0x3e2ce35c	0.16883606
48	0x3d1f330c	0.03886704
49	0x3e7919de	0.24326274
50	0xbe6e5dba	-0.23277941
51	0xbea6f4af	-0.32608554
52	0x3eb3a6bc	0.35088146
53	0xbe571b7c	-0.21006578
54	0xbee4bdb0	-0.4467597
55	0xbeea7ed2	-0.4579988
56	0x3f069c9e	0.5258273
57	0x3ed3bada	0.41353494
58	0x3f86c7b2	1.0529692
59	0x3f863f0d	1.0487992
60	0x3f3ce055	0.73779804
61	0x3ed2e92d	0.41193524
62	0x3eacf493	0.33780345
63	0x3ee217d3	0.441588
64	0xbf81df77	-1.0146321
65	0x3f1854ad	0.59504205
66	0xbe8a8204	-0.2705232
67	0xbf4061eb	-0.7514941
68	0xbfe33097	-1.7749203
69	0x3f87ed5a	1.0619309
70	0x3ec40b75	0.3828999
71	0x3cc90ef9	0.024543272
72	0xbebd1e7a	-0.36937314
73	0xbe927a4d	-0.28608933
74	0x3eba0e14	0.36338866
75	0x3f9e090e	1.2346513
76	0x3e96ac80	0.29428482
77	0x3f18fc10	0.59759617
78	0x3e99ad8a	0.30015212
79	0x3f32e558	0.698812
80	0x3ec03d63	0.37546834
81	0x3dbea1bf	0.09308194
82	0x3eaee4f3	0.3415905
83	0x3eb0cea3	0.3453265
84	0xbfa21403	-1.2662357
85	0xbfdf8d3c	-1.7464976
86	0xc0080e18	-2.1258602
87	0xbf6b74c7	-0.91975063
88	0x3c229559	0.009923303
89	0x3e07190f	0.13193153
90	0x3ee7ad01	0.4524918
91	0x3eeba8ae	0.4602713
92	0x3f5300b1	0.8242293
93	0xbe12cf7e	-0.14336964
94	0x3e9dcaa6	0.3081867
95	0x3e0733c8	0.13203347
96	0x3e607797	0.2192062
97	0xbfa211d0	-1.2661686
98	0xc007beb9	-2.1210158
99	0xbf9badde	-1.2162435
100	0xbe7ee609	-0.24892439
101	0xbf523dff	-0.8212585
102	0xbd25d4aa	-0.040486015
103	0xbebfbe4a	-0.37449867
104	0xbfbffece	-1.4999635
105	0xbf3720f5	-0.71534663
106	0xbfd4c772	-1.6623366
107	0xc01697fc	-2.3530264
108	0xbfbb1c25	-1.4617964
109	0xc01c6365	-2.4435666
110	0xc0082d82	-2.1277776
111	0xbfa3ac75	-1.2787005
112	0xbcbb260a	-0.022845287
113	0xbeb2acc1	-0.34897426
114	0xbdb38359	-0.08765287
115	0x3e681900	0.22665787
116	0x3d9054aa	0.070473984
117	0xbe44730e	-0.19184515
118	0xbe4a396b	-0.19748466
119	0x3e040cf0	0.1289556
120	0x3dddaff0	0.10824573
121	0xbf130d90	-0.5744257
122	0x3e36731c	0.17817348
123	0x3e978e96	0.29600972
124	0xbdbb6638	-0.09150356
125	0xbec5f412	-0.38662773
126	0xbee24c41	-0.44198802
127	0xbfb5aceb	-1.4193395
128	0xbf009f2e	-0.5024289
129	0x3e6e5248	0.23273575
130	0x3e8f3345	0.27968803
131	0x3f5fc27b	0.8740613
132	0x4087d9ef	4.245353
133	0x401965e6	2.3968444
134	0x3d834ed5	0.064115204
135	0x3eccfb7b	0.40035614
136	0x3ee04f84	0.43810666
137	0x3f7f1840	0.9964638
138	0xbe672399	-0.22572173
139	0xbf1790aa	-0.59205115
140	0xbfc710b4	-1.5551972
141	0xbfbd901a	-1.4809601
142	0xbfcb3123	-1.587437
143	0xbfb142f1	-1.3848554
144	0x3ee94097	0.4555709
145	0x3f3cb5a2	0.7371465
146	0xbeb688dd	-0.35651293
147	0x3d8ca275	0.06866924
148	0x3edbc7ae	0.4292578
149	0xbe7aff22	-0.24511388
150	0x3eea7197	0.45789787
151	0xbf719c89	-0.9437948
152	0x3f449970	0.7679663
153	0xbecb0c04	-0.39657605
154	0xbea383c7	-0.31936476
155	0xbf6c6aab	-0.9235026
156	0xbf4b4115	-0.7939618
157	0xbdf09c51	-0.11748565
158	0xbe3289d9	-0.17435397
159	0xbdd4a610	-0.103832364
160	0xbeff46a4	-0.49858582
161	0xbec4065d	-0.38286105
162	0xbe324a1f	-0.17411087
163	0xbe8ca64e	-0.2747063
164	0x3eb2e1b9	0.34937838
165	0xbe9dcc40	-0.30819893
166	0xbfa4df84	-1.2880712
167	0xbfbd11bb	-1.4771036
168	0xbf8db4af	-1.1070765
169	0xbf800a0b	-1.0003065
170	0xbf2fb10e	-0.6862954
171	0xbee63cfa	-0.44968396
172	0xbd2250c6	-0.039627813
173	0x3ebdf474	0.37100565
174	0x3f32509e	0.6965426
175	0x3f8650bc	1.0493388
176	0x3f7d4cd5	0.9894536
177	0x3d92dc34	0.07170907
178	0xbf8b24f2	-1.087065
179	0xbd9f8c2b	-0.07790407
180	0x40184b3f	2.3795927
181	0x401d5e3e	2.458877
182	0xc02f7a36	-2.7418342
183	0xbf3d794f	-0.7401323
184	0x3fdc1599	1.7194091
185	0x3f947d0f	1.1600665
186	0x3f0167f6	0.50549257
187	0x3f1bb693	0.6082546
188	0x3ecc3f3c	0.39891994
189	0x3f43e2c3	0.76517886
190	0x3f7529e8	0.9576707
191	0x3e082a10	0.13297296
192	0xbed83e89	-0.4223521
193	0xbfa44b8a	-1.2835553
194	0xbf2759a8	-0.6537118
195	0xbf89be18	-1.0761137
196	0x3f66f415	0.9021619
197	0x3f65fd41	0.8983956
198	0x3f4759e0	0.77871513
199	0x3e540e8d	0.20708676
200	0x3fbc7048	1.4721766
201	0x3f5e3165	0.8679412
202	0x3e5ad023	0.2136846
203	0x3e7c20b4	0.2462185
204	0x3f0225fb	0.50839204
205	0x3dd82f4b	0.105558954
206	0x3ef68f57	0.48156235
207	0x3eda6ca3	0.42661008
208	0xbee1bcd3	-0.44089374
209	0xbf8e817c	-1.1133265
210	0xbf8adb65	-1.0848204
211	0xbf5c3d87	-0.86031383
212	0xbf9e509d	-1.2368351
213	0x3eabda32	0.33564907
214	0xbd9cb3a4	-0.07651451
215	0x3e43f931	0.19138028
216	0xbdd626f9	-0.10456652
217	0xbec91a25	-0.3927776
218	0xbe224953	-0.15848283
219	0xbe0bcdc8	-0.13652718
220	0xbf065f3b	-0.5248906
221	0xbe68f000	-0.22747803
222	0x3f8caaad	1.0989586
223	0x3f179939	0.59218174
224	0x3fa1e103	1.2646793
225	0x3f6fc3a1	0.9365788
226	0x3f931d4e	1.1493318
227	0xbf225f5a	-0.63426745
228	0xbfca6ceb	-1.5814489
229	0xbfcd4681	-1.6037141
230	0xbfe00faa	-1.750478
231	0xc000f71e	-2.0150828
232	0xbff8045c	-1.937633
233	0xbf9c278c	-1.2199569
234	0xbf66839d	-0.90044576
235	0xbfa81160	-1.3130302
236	0xbeae849d	-0.3408555
237	0x3f0aded7	0.54246277
238	0x3f435e9f	0.76316255
239	0x3efc6fe4	0.49304116
240	0x3e356dc5	0.17717655
241	0x3e7c8841	0.24661352
242	0x3e5863e1	0.21131851
243	0x3e813fe3	0.25244054
244	0x3eec1065	0.46106258
245	0x3c31634c	0.010826897
246	0x3e4adcf2	0.19810846
247	0x3e7ed68c	0.2488653
248	0x3fcd6429	1.6046191
249	0x40082392	2.127171
250	0x40138e83	2.3055732
251	0x3fab506e	1.338392
252	0x3f95e5de	1.1710775
253	0x3f9e3245	1.2359091
254	0x3f74c523	0.95613307
255	0x3f2754a2	0.65363514

weight_hh_l0 f4 [40, 10]
0	0xc09cbc44	-4.8979816
1	0x4083f9a6	4.1242247
2	0x408fcd9c	4.493849
3	0x3faf0c7e	1.3675687
4	0xbf1dd6bc	-0.61655784
5	0xc0537180	-3.3038025
6	0xc0c196ac	-6.0496426
7	0xc00af68f	-2.1712987
8	0xbec5d8b0	-0.38641882
9	0x3ee0d923	0.43915662
10	0xbb045258	-0.0020190682
11	0xc0f70b04	-7.7200947
12	0xc0ade489	-5.4341474
13	0x403902d5	2.8907979
14	0xbff97112	-1.9487631
15	0xbf68f80a	-0.9100348
16	0x3fd8c567	1.6935242
17	0xbf3e15b2	-0.74251854
18	0xbc33604f	-0.010948255
19	0x3f57d1a2	0.8430425
20	0x3f4b4935	0.7940858
21	0xc0078ef4	-2.1181002
22	0x3f83f7e8	1.031003
23	0x4110d7d4	9.052692
24	0x40853139	4.1622586
25	0xc08327d6	-4.098613
26	0xc01737c3	-2.3627784
27	0x3e27f80e	0.16403219
28	0x3fc328b6	1.5246799
29	0x3e311d96	0.17296442
30	0xc0f18332	-7.547265
31	0xbec63aff	-0.38716885
32	0x3f09c33d	0.53813535
33	0xc0504a03	-3.2545173
34	0xc08ce26e	-4.4026403
35	0x3f9bb64c	1.2165008
36	0xc0cb85ef	-6.3600993
37	0xc0ce730d	-6.4515443
38	0xc1173dbb	-9.452571
39	0xbe76614c	-0.24060553
40	0x3f0b5ba8	0.5443673
41	0x3ffa7abc	1.9568706
42	0xc0063e98	-2.0975704
43	0xbec4ca43	-0.38435563
44	0x3fb7248a	1.4308026
45	0xbdc82c2a	-0.097740486
46	0xbf8e1e95	-1.1103083
47	0xbf82f3ce	-1.0230653
48	0x3f618108	0.8808751
49	0xbf64b297	-0.89335006
50	0xbe058862	-0.13040307
51	0xbff1c2c2	-1.888756
52	0x3f1c361f	0.6102008
53	0x409319dc	4.5969067
54	0x3e41cb17	0.18925129
55	0xc01d7bd6	-2.4606833
56	0xc07a0585	-3.906587
57	0x402b8062	2.6797109
58	0xbfca574c	-1.5807891
59	0x3e2eec9d	0.17082448
60	0x3f6ce1b1	0.9253188
61	0xbf6d2072	-0.9262763
62	0x3f8da964	1.1067319
63	0x3fb27277	1.3941182
64	0xbfca45e1	-1.5802575
65	0xbf145faf	-0.579585
66	0x405710f7	3.3604105
67	0xbcdb71aa	-0.026787598
68	0xbe9b363d	-0.30314818
69	0x3f093552	0.53596985
70	0xc0844f3d	-4.1346726
71	0xbf2a752b	-0.66585034
72	0x40ddb96c	6.9288845
73	0x40c5a7f1	6.1767507
74	0x3f8df292	1.1089652
75	0xbfea2bc2	-1.8294604
76	0xc09d0ea8	-4.908039
77	0x3e6b7baa	0.22996393
78	0xbfd22ca1	-1.641987
79	0x405f655d	3.4905617
80	0x3ce795de	0.028269704
81	0xc08adab5	-4.3391976
82	0x4060b567	3.511072
83	0x3f41ec1f	0.7575092
84	0x40d18e36	6.5486097
85	0x3dd0634b	0.10175189
86	0x4053c779	3.3090498
87	0x3f3b3dc2	0.7314111
88	0x40519400	3.2746582
89	0xbef69101	-0.48157504
90	0xc07bbb0a	-3.933291
91	0xc02a2950	-2.6587715
92	0x40d3fc71	6.6245656
93	0x3cc249ba	0.023716796
94	0xbf8de414	-1.1085229
95	0x3f166aca	0.587567
96	0xc0355466	-2.8332763
97	0xbed1405f	-0.40869424
98	0x3f48f33c	0.78496146
99	0x4045e62a	3.092173
100	0xc044881c	-3.0708075
101	0xbffe0f06	-1.9848335
102	0xbcc710ef	-0.024300067
103	0x40f6eb6e	7.716239
104	0x4017fd3b	2.374831
105	0x40436046	3.052751
106	0xc04a7f35	-3.164014
107	0x40032246	2.048967
108	0x3f7678c4	0.96278024
109	0x400cace1	2.1980517
110	0x4055586d	3.333522
111	0xc07b3934	-3.9253664
112	0xc0b93d66	-5.788745
113	0xc08fd381	-4.4945683
114	0x3fbdb710	1.4821491
115	0xc0264379	-2.5978682
116	0xbf883ab5	-1.0642916
117	0x3fe48bb9	1.785514
118	0xc0044293	-2.0665634
119	0xc009bef6	-2.1522803
120	0xc0bc8a78	-5.891903
121	0xbf8d7da5	-1.1053969
122	0xbf4ad6f3	-0.79234236
123	0x4098ea85	4.778628
124	0xbfefef4c	-1.8744903
125	0xbcc218ea	-0.02369352
126	0xbfbbbb21	-1.4666482
127	0xc020d55f	-2.5130231
128	0x3faabb9c	1.3338504
129	0x407d4c8a	3.9577966
130	0x403a44a0	2.9104385
131	0xbe470a6f	-0.19437574
132	0xc0396f3c	-2.8974142
133	0xbecfa525	-0.40555683
134	0x4004545c	2.067649
135	0x408911f7	4.283443
136	0x40598b0d	3.399112
137	0x3f9afe3f	1.210884
138	0x401c98c9	2.4468253
139	0xbfd2727d	-1.6441189
140	0xbf97240b	-1.1807874
141	0x3f5688e7	0.83802646
142	0xbcff38d3	-0.031155026
143	0x402ff18a	2.7491174
144	0xc054bb63	-3.3239372
145	0x3f1cc269	0.61234146
146	0xbf2f8619	-0.6856399
147	0xbd07532e	-0.03303831
148	0xbe015983	-0.12631802
149	0x3e0c8092	0.1372092
150	0x3e9123c4	0.283476
151	0xbfc4a835	-1.5363833
152	0xbf157e45	-0.58395797
153	0xbeab2f3b	-0.3343447
154	0xbd38a91d	-0.045083154
155	0x3eb9ab34	0.3626343
156	0x3df7ae32	0.12093772
157	0x3eac991a	0.33710557
158	0x3eabf5b7	0.33585903
159	0xbe410ef9	-0.18853368
160	0x406e32ac	3.7218428
161	0x3fb57a00	1.4177856
162	0x3f246aec	0.6422565
163	0xc0129de4	-2.2908869
164	0x40118b6c	2.2741346
165	0x3f1dcce7	0.6164078
166	0x4033a710	2.8070717
167	0xbc56b6ab	-0.013105075
168	0x3e634a7a	0.2219638
169	0xbf3d7c29	-0.7401758
170	0xbc6fde3e	-0.014640389
171	0x3f41939e	0.7561587
172	0xbfe91666	-1.820996
173	0x3fb1dbf6	1.3895252
174	0xbf2a2c72	-0.6647407
175	0xbf001890	-0.5003748
176	0xbf567272	-0.8376838
177	0xbe0e245c	-0.13881058
178	0x3e25cfc7	0.16192542
179	0xbeaac198	-0.33350825
180	0x403b5569	2.927088
181	0x3f9675c0	1.1754684
182	0xc0af369b	-5.4754157
183	0xbfcbf506	-1.593415
184	0xbfd21657	-1.6413068
185	0xbf60be22	-0.8779012
186	0xc0265cea	-2.599421
187	0x40e9e36e	7.3090124
188	0x40296695	2.646886
189	0x3fa11437	1.2584294
190	0xbd6e8b60	-0.058238387
191	0x3e80e321	0.25173286
192	0x40785ddd	3.880729
193	0xbf2181ca	-0.6308867
194	0x3f35f68e	0.7107934
195	0xbe083966	-0.13303146
196	0x3fe3518b	1.775926
197	0xbf253529	-0.6453424
198	0x3e8ec30d	0.27883187
199	0xbfe0e346	-1.7569358
200	0x40510ddb	3.2664707
201	0xc081dee2	-4.0584574
202	0xc057b9d3	-3.3707168
203	0x3f2c26bc	0.67246604
204	0xbea5fd14	-0.32419646
205	0x3f29f26d	0.6638554
206	0xc0b3b201	-5.615479
207	0xbe452bb2	-0.1925495
208	0xbfe9ecdb	-1.8275408
209	0xc02a8d0f	-2.6648595
210	0xbea5f773	-0.3241535
211	0xbfc8ec94	-1.5697198
212	0x3fa5f841	1.2966386
213	0xbef42f29	-0.4769223
214	0xc023094a	-2.547442
215	0x3ea88a31	0.32917932
216	0x3dd4293e	0.10359429
217	0x3f031ea9	0.5121866
218	0x3f52f75c	0.8240869
219	0xbf88a063	-1.0673946
220	0x3e2c27c3	0.16812043
221	0xbf0ce181	-0.5503159
222	0xbf11b9d7	-0.56924194
223	0x4120e0ac	10.054852
224	0x3c5c9d9a	0.0134653095
225	0x40058a08	2.0865498
226	0x406287c6	3.539537
227	0xbf581b17	-0.84416336
228	0x401244ce	2.2854495
229	0x404621c8	3.0958118
230	0x410f7f58	8.96859
231	0xbfdd415a	-1.7285569
232	0xc0a99bbc	-5.3002605
233	0x4015ed90	2.3426247
234	0x3f9c2c71	1.2201062
235	0x3f2b89a2	0.67006886
236	0x40453991	3.0816386
237	0x3ea9abdf	0.3313894
238	0xbd7ef528	-0.062245518
239	0xbec60b0e	-0.3868031
240	0x3ff5d407	1.9205331
241	0xbf1e7340	-0.6189461
242	0xc00d8986	-2.2115188
243	0x3fb4c8dc	1.4123797
244	0xbf624ac0	-0.8839531
245	0xbf6abab5	-0.9169114
246	0xc05aca14	-3.4185839
247	0x3f9bfde8	1.2186861
248	0x3edf4900	0.43610382
249	0x3efc52c9	0.4928191
250	0x41032bc3	8.198184
251	0xbee73f75	-0.451656
252	0xbedc23b7	-0.42995998
253	0x3f05cf5d	0.52269536
254	0x3e296d63	0.16545634
255	0xc00e2cc4	-2.2214823

bias_ih_l0 f4 [40]
0	0x4053634b	3.3029354
1	0x3fde3d4b	1.7362455
2	0xbfc1a011	-1.5126973
3	0x405838b6	3.3784614
4	0x3f2467ef	0.6422109
5	0x4063bfb0	3.5585747
6	0x3ffff8d6	1.9997814
7	0xbfc93d2b	-1.5721792
8	0xc01538b9	-2.331587
9	0xc0368167	-2.851648
10	0x408d267c	4.410948
11	0x40190bad	2.3913376
12	0x40538751	3.305134
13	0x408d3518	4.412731
14	0x4013a3c7	2.3068712
15	0x40155fb8	2.3339672
16	0xbec7287c	-0.38898075
17	0x40118240	2.2735748
18	0x40a7bee2	5.242051
19	0x3f3f7444	0.7478678
20	0xc00cbd44	-2.1990519
21	0x401f7940	2.4917755
22	0x4093201c	4.5976696
23	0xbfbbafac	-1.4662986
24	0xbfdf76d3	-1.7458137
25	0x3f8aba5c	1.0838122
26	0xbf8317a3	-1.0241588
27	0xc02f8a61	-2.742821
28	0xbf18e094	-0.5971768
29	0x401384f0	2.3049889
30	0x401c0689	2.4378989
31	0x4008b63f	2.1361234
32	0x3ffcefd8	1.9760695
33	0x40932dc0	4.5993347
34	0x3fa0da26	1.2566574
35	0xbf48d3de	-0.78448284
36	0xbe53292f	-0.20621179
37	0x4031cdda	2.7781892
38	0x3fe6edf6	1.804137
39	0x3fddb039	1.7319404

bias_hh_l0 f4 [40]
0	0x40451768	3.0795536
1	0x3fd5162d	1.6647393
2	0xbf8f740c	-1.120729
3	0x406494b7	3.5715768
4	0x3ee2032a	0.4414304
5	0x405496f3	3.3217132
6	0x40014865	2.0200436
7	0xbff6c5d5	-1.9279124
8	0xc01742b8	-2.3634472
9	0xc03588f8	-2.836485
10	0x40815341	4.041413
11	0x400eb18a	2.2295861
12	0x405cff67	3.4530885
13	0x408b4a4f	4.352821
14	0x4017cb44	2.3717813
15	0x4022e9df	2.5455244
16	0xbea40da8	-0.3204167
17	0x40091628	2.1419773
18	0x40aaf492	5.342355
19	0x3f597867	0.84949344
20	0xc007a2f6	-2.1193213
21	0x401b522d	2.4268906
22	0x409b5df6	4.85522
23	0xbfc29698	-1.5202208
24	0xbfbd53d0	-1.4791203
25	0x3f977fb1	1.1835843
26	0xbf3a9a23	-0.72891444
27	0xc0327dda	-2.7889314
28	0xbf21c211	-0.63186747
29	0x4019b84a	2.401873
30	0x40401f85	3.0019238
31	0x3ffbf1ea	1.9683201
32	0x4006e37c	2.1076345
33	0x4092a2da	4.5823793
34	0x3fa99e6a	1.3251469
35	0xbf4859cc	-0.7826202
36	0xbc97b176	-0.018517237
37	0x40246ffd	2.5693352
38	0x3ff48898	1.9104185
39	0x3fd8d1cc	1.6939025

weight f4 [10, 10]
0	0x3f1bd41f	0.60870546
1	0xc03b339b	-2.9250247
2	0x3fa23434	1.2672181
3	0x3e98377e	0.29729837
4	0x3fdf37f1	1.7438947
5	0xbfbd2fc2	-1.47802
6	0x3f340c51	0.70331293
7	0xbfc72b17	-1.5560025
8	0x3f1519bf	0.5824241
9	0x40a91eb2	5.284997
10	0xbfa369ab	-1.2766622
11	0xbfc63d3d	-1.5487438
12	0x3ef1c31c	0.4721917
13	0x3e0bc187	0.13648044
14	0x3d4bb3ac	0.049731895
15	0x3e91d934	0.28486025
16	0x3ea3c360	0.31984997
17	0x3f1a27b4	0.6021683
18	0xc00465df	-2.0687177
19	0xc0de7859	-6.952191
20	0x3f8a312f	1.079626
21	0xbf423ce8	-0.75874186
22	0xbeeca7bf	-0.4622173
23	0x3ef4407c	0.47705448
24	0xc0144b84	-2.317109
25	0xbd8545ec	-0.06507477
26	0x3ec5c7f8	0.38629127
27	0x3f1d87df	0.6153545
28	0xbfd6bf47	-1.6777123
29	0x3f82a678	1.0207052
30	0x3f5079f7	0.81436104
31	0x405f11a8	3.4854527
32	0xbf6a6e39	-0.91574436
33	0x3f227118	0.6345382
34	0x3fda827a	1.7071068
35	0x3f78d1c8	0.971951
36	0xbfa56542	-1.2921526
37	0xbedb5510	-0.42838335
38	0xc01f5e3c	-2.4901266
39	0xbf3125b1	-0.6919814
40	0xc025bad3	-2.5895278
41	0xbfd8c9d5	-1.6936594
42	0x3f00341e	0.50079525
43	0xbf8ea91e	-1.114536
44	0xbfd7a7ba	-1.6848061
45	0x3fb73929	1.4314319
46	0x3ea42c38	0.32064986
47	0xbfcc9d67	-1.5985535
48	0x3fa331f2	1.2749617
49	0x3f8af8af	1.0857142
50	0x3fb6dd41	1.4286271
51	0x402092d9	2.5089629
52	0xbf38af16	-0.7214216
53	0xbcfd7ce0	-0.030943334
54	0x3f339ac4	0.7015803
55	0x3f3c0516	0.7344526
56	0xbf84da6f	-1.0379161
57	0x4022ec4d	2.5456727
58	0x400b186f	2.1733663
59	0xc0058299	-2.086096
60	0x3fef442f	1.8692683
61	0xc026be07	-2.6053483
62	0x3f56919b	0.83815926
63	0x3d405723	0.0469581
64	0x3e5b7e33	0.2143486
65	0xbea5b5e8	-0.32365346
66	0x401ce15d	2.451255
67	0x402f9fb0	2.7441216
68	0x401c81fb	2.4454334
69	0xbf1d3ad6	-0.614179
70	0xc00a8f53	-2.1649978
71	0x3fc274fa	1.5191948
72	0x3fa8f184	1.3198705
73	0xbf6bccdb	-0.9210946
74	0x3e39c813	0.18142729
75	0xbeb57373	-0.35439643
76	0xbe710fd6	-0.23541197
77	0xbf0a04de	-0.53913677
78	0xc05cf6b5	-3.4525578
79	0x402e3194	2.721776
80	0x3f9ffc90	1.2498951
81	0xbf266301	-0.6499482
82	0xbfa82263	-1.3135494
83	0x3e814bb2	0.25253063
84	0xbea1ba61	-0.31587508
85	0xbfa78d8b	-1.309007
86	0xbf471f9a	-0.77782595
87	0xbfbbc96a	-1.4670842
88	0x3f903421	1.1265908
89	0xbfbcc6ce	-1.474817
90	0xbfdd2262	-1.7276118
91	0x40319a42	2.7750401
92	0xbef73c5c	-0.48288238
93	0x3e50f93c	0.20407575
94	0xbf407874	-0.75183797
95	0xbe6d34bd	-0.2316465
96	0xbef3ee7a	-0.4764288
97	0xbf03814a	-0.51369154
98	0x3fb0d9c7	1.381646
99	0x400ab02f	2.1670034

bias f4 [10]
0	0xc07c652f	-3.9436758
1	0xbf6e4212	-0.93069565
2	0x3f832c42	1.0247881
3	0x403a147e	2.9075007
4	0xbf9e422b	-1.2363943
5	0x3fa15a4f	1.2605685
6	0xc05a0311	-3.4064372
7	0x3fc4124d	1.5318085
8	0x3efe96a3	0.49724302
9	0x4018bc82	2.3865056
