model/new/10_lstm.model (torch_old, 18075 bytes, 6 tensors)

weight_ih_l0 f4 [40, 28]
00000000: d3c8 5a3d 8365 34be b1c2 3a3e 7eb6 4c3f
00000010: b021 073e f719 dabe 6a2e f03d d1d7 283f
00000020: 5000 f7bd 6748 0dc0 07d1 523e 8b74 4f3f
00000030: 7614 85bf 947f 82bf 3247 9cbe 0645 b6be
00000040: b2a6 ce3f 3539 bfbe 014e d2bd 5ff3 e4bf
00000050: 7798 9c3e c39a c8bf 6ba1 33bf bedc 2fbf
00000060: 054a 09bf 5620 1a3f cb71 eb3e e0c5 943e
00000070: f310 87bf b627 0bbf ee8c 37bf d033 98bf
00000080: e70c a7bf 9ce4 bcbf 2f4b bfbf 5a02 0bc0
00000090: 621d 1ac0 b93a 2fc0 5a14 f73f d6d8 6740
000000a0: 93f9 8140 bdda ae40 50dc 3240 0e9a cd3f
000000b0: f436 1d3f c1b9 3e3e 7ae4 3a3f ad6a 043f
000000c0: cf29 3b3e ae09 8ebf 4e39 c8bf 5a76 d1bf
000000d0: 2f48 c9bf 0a52 a4bf be9c 41bf 971f 0fbf
000000e0: bb37 7ebf 600c 90bf 24d3 76be 23c8 883f
000000f0: 4118 1dbe 3382 7abe 8d01 aabe 8dd1 a2be
00000100: 7791 94be ea2d 1cbf 8b6d 00c0 48d9 b3bf
00000110: e5ee bebf afd2 f8bf 06c3 8b3f 41f5 dbbe
00000120: c711 b93d e69b 093f 2acc 15bd 7f24 1a3f
00000130: 9409 723f 4432 0c3f 610c bb3d 8b34 063f
00000140: 1a06 fd3e 536a f7be 2e60 78bf 4bf6 82bf
00000150: be4d cfbf cde7 ffbf 4fac 10c0 1234 99bf
00000160: b887 1bbf 6d60 7c3e 4e12 2e40 fb24 873f
00000170: 2deb c23f 3fdb 893f 8158 0a3f 47af d8be
00000180: 9be6 84bf af58 d1bf d70c 13c0 75f6 cdbf
00000190: 606b cbbe 59da 88bf 77d0 b3bf bc42 4bbf
000001a0: 59a6 e7bf f4a5 2bbf ff7f 93bf 97df 5ac0
000001b0: 1fac 41c0 bb91 4fc0 fc0c 07c0 e503 cebf
000001c0: 859a f3bc a521 07bf 7e9b edbe c94e 893d
000001d0: 37ee 9dbe fd43 b5be f383 06bf f469 edbd
000001e0: c189 883e 8ba1 03bf b7c3 ca3e 4944 4b3f
000001f0: 3734 8cbf 7e6a 9ebf 2265 27c0 5dce 29bf
00000200: d0b6 c13f adb2 833f a4a8 093f ded9 5f3f
00000210: 24b9 7c3f de24 0f40 2f6f 5240 5ffe 2e40
00000220: a90a a73f c289 f13e 1d1e 37bf 696c 30bf
00000230: beb8 89bf 05c6 80bf d731 8abf 63fc 48bf
00000240: f877 b9bd 6faf 9cbd 2b31 38be 0ac2 c5be
00000250: 47c1 173e e1ea e5be 17b0 0d3f aea9 58be
00000260: 5314 d73e 2f90 d9be 9fd3 e33d ac27 5ebf
00000270: 74f0 6ebe 1b6c 04bf c560 bf3e ac95 8d3e
00000280: 795b b43e 3227 b8bd ee6e c73e 5fbd 143e
00000290: bc5d 1cbd e11a 64bf 8209 82bf c4f1 7cbf
000002a0: 2310 cebf 161f bfbf b329 aebf 66a5 ddbf
000002b0: a4a4 b0bf a686 bbbf b339 8bbf 953a c0be
000002c0: 0daf 1ebf 3d02 843e 7f65 0a3f 7b3c 0440
000002d0: d009 ab3f 91cc 25bf 3ce6 13c0 cde6 0fc0
000002e0: 7bb5 c2be c184 cf3e bbf4 283d 04bb 08bf
000002f0: a813 1840 8022 cf3e 0864 fcbf 54ba babf
00000300: 4fd0 46bf 3908 84bf 4f00 87bf 9bef ccbf
00000310: cd18 4e3f 52af 553f 4abf 443f e4aa 16bf
00000320: 62eb c3bd c23e b23e dcdb 3c3f 6719 783e
00000330: 374b 353f 9b69 e23e 6297 9e3f 746f 32bf
00000340: 1e08 26bf 4790 26c0 38d2 f9bf f286 16c0
00000350: eb8b bbbf 97ed d33e b1ee 453d cd34 863e
00000360: d177 a33e ae84 acbd 0f5e 99bd a876 093e
00000370: cc47 75bf a5ba 26be a470 963f a29d ff3e
00000380: ec41 0140 af90 d83f a37a 0c40 a946 18bf
00000390: 53ea 98bf 07a3 b2bf a501 c0bf c85a eabf
000003a0: 2e9c 02c0 abb6 0dc0 9a47 08c0 104c c5bf
000003b0: 7971 c8be a58b ae3e 4c58 0b3f c71f 7b3e
000003c0: 1137 7aba bac5 0ebe b49c 3c3d 7ee7 2c3e
000003d0: 735e 47be 18cd 2bbd fe0f 3b3e f932 ee3d
000003e0: f8ae 443f f518 e73e ce92 853f 80d9 e43f
000003f0: 07b4 ec3e 3d53 ed3e b7e8 51bd 3544 04be
0.053414177 -0.17616849 0.18238331 0.7996596 0.13196445 -0.42597935 0.11727603 0.6595431
-0.120606065 -2.207544 0.2058755 0.81037205 -1.0396869 -1.0195184 -0.30523068 -0.35599536
1.6144621 -0.37348333 -0.10268784 -1.7886771 0.3058507 -1.567223 -0.7016818 -0.686962
-0.5362857 0.6020559 0.45985255 0.29057217 -1.0552047 -0.5435747 -0.71699417 -1.1890812
-1.3050812 -1.4757266 -1.4944819 -2.1720185 -2.4080434 -2.7379591 1.9303086 3.6226096
4.0617156 5.4642015 2.7946968 1.6062639 0.61411977 0.18625547 0.7300488 0.51725274
0.18277667 -1.1096704 -1.5642488 -1.6364243 -1.5725154 -1.2837536 -0.75629795 -0.5590758
-0.9930379 -1.1253777 -0.24103981 1.0686077 -0.15341283 -0.2446373 -0.33204308 -0.318005
-0.2901723 -0.6100756 -2.006686 -1.4050684 -1.4916655 -1.9439296 1.0918891 -0.4296055
0.09036594 0.5375351 -0.03657166 0.6021194 0.94545865 0.547642 0.091332205 0.52423924
0.49418718 -0.48323306 -0.9702176 -1.0231413 -1.61956 -1.9992615 -2.260517 -1.1969016
-0.60753965 0.24646159 2.7198672 1.055816 1.522802 1.0770034 0.54041296 -0.42321226
-1.0382875 -1.6355189 -2.2976587 -1.6090838 -0.39730358 -1.0691634 -1.4047993 -0.79398704
-1.809764 -0.670501 -1.1523436 -3.4198968 -3.0261304 -3.2432697 -2.1101675 -1.6094939
-0.029736767 -0.5278571 -0.46407694 0.0670448 -0.30845806 -0.35403433 -0.5254509 -0.115924746
0.26667598 -0.5141837 0.39602444 0.7940107 -1.0953435 -1.2376249 -2.6155477 -0.6633051
1.5133915 1.0288903 0.5377295 0.87441814 0.9872 2.2366252 3.288036 2.7342756
1.3050128 0.47175413 -0.71530324 -0.6891542 -1.0759504 -1.0060431 -1.079646 -0.7851011
-0.09056085 -0.07650649 -0.17987506 -0.38624603 0.14819823 -0.4490576 0.55346817 -0.21158478
0.42007694 -0.42492816 0.11124348 -0.86779284 -0.23333913 -0.51727456 0.37378517 0.27653253
0.35226038 -0.08991851 0.3895182 0.14525364 -0.03817533 -0.89103514 -1.0159152 -0.98806405
-1.6098675 -1.4931362 -1.3606476 -1.7316101 -1.3800244 -1.4650466 -1.0876983 -0.37544695
-0.61985856 0.25782958 0.5406112 2.0661914 1.336237 -0.6476527 -2.3109274 -2.248462
-0.38029084 0.4053097 0.04124902 -0.53410363 2.3761997 0.4045601 -1.9718027 -1.4588113
-0.77661604 -1.0315009 -1.0546969 -1.6010622 0.80506593 0.8347064 0.76854384 -0.5885451
-0.0956638 0.34813505 0.7377298 0.2422844 0.70817894 0.44221196 1.2389948 -0.69701314
-0.64856136 -2.602556 -1.9517279 -2.3519864 -1.4652075 0.41392204 0.048323337 0.2621216
0.3192735 -0.08423744 -0.074886434 0.1342417 -0.9581268 -0.16282137 1.1753125 0.49924952
2.0196486 1.6919154 2.1949852 -0.5948282 -1.194651 -1.3956002 -1.5000502 -1.8308954
-2.0407825 -2.2142742 -2.1293702 -1.5413837 -0.39149073 0.34090915 0.54431605 0.24523841
-0.00095449487 -0.13942614 0.04604788 0.16885182 -0.19469623 -0.04194364 0.1826782 0.11630816
0.7682948 0.45136228 1.0435426 1.7878876 0.462311 0.46352568 -0.051247325 -0.12916644

weight_hh_l0 f4 [40, 10]
00000000: 9807 d5bf 1c2a 5341 c82d 8240 ad88 d740
00000010: 2951 1e3f 086c b2bf 227e 57c0 23a3 8a3f
00000020: e982 b13f 4cfa d03f 0d8a 2240 2401 acc0
00000030: 4452 00c1 782c 8c40 33d6 08bf e0e8 53bf
00000040: 6df2 f73e 6a08 5fbf 31ad a33f bc57 ca3f
00000050: bfdd 0bc0 dcb9 2b40 a734 a73f eebe 1441
00000060: 485a 1b40 e220 cbbf 999a e33f 5020 06be
00000070: 3571 82bf 19d1 9240 310a 08c1 19c0 1f3f
00000080: 8387 fa40 da9a 7fc0 57ba d4c0 43ec 0c40
00000090: 71df eec0 2ecd 07c1 8ac4 09c0 e040 22c0
000000a0: bf88 873f 3d6e bf3f 5ad2 2140 6c6d 61c0
000000b0: 1b7d b3be 4253 b83f 9e96 f5c0 0510 5ec0
000000c0: 625a 8c3e 906f 2a3f 6277 973f c5b3 68bf
000000d0: d457 d440 9bcb 7040 e143 3f40 89b6 6ac0
000000e0: 4d65 3bbe 679b 0940 08a2 3ec0 19d2 d3be
000000f0: 8768 efbe 8b93 91c0 6005 32bf 5030 fc3f
00000100: d7fa 6b3f aac7 c93d 0c32 723f c836 0cbf
00000110: f2d2 e2bf cde7 8d3f 670e c6bf 8d7e 4140
00000120: e1a6 ba40 0ed4 2341 1ded 14be 123b bbbe
00000130: 2f1f c3c0 46cc e3bf 3d8a 1abf 69ac a640
00000140: 7a81 acbf 0922 eebf 3182 6f40 56c7 39bf
00000150: 9471 7940 bbcd e23e e947 043f b764 2cc0
00000160: 9524 8e40 2a28 7840 676a aac0 58d9 4dc0
00000170: d2d3 1040 83c4 c140 c655 9d40 29fd 76bf
00000180: 2939 a0be 8c19 0e40 6733 ae3f c9be 8f40
00000190: 530c 29c0 b55b a240 42ff 14c0 e451 a240
000001a0: 777b 893f cee0 4840 1942 1540 00d1 79bf
000001b0: b40b 24bf 5b71 a33f d868 b43f 7e9b 7ac0
000001c0: a34b 47bf 01d8 06c0 6dd8 e4be e252 993d
000001d0: d2a8 f03f 8ced 973e abb4 a6bf 2705 603e
000001e0: dc2a 833d 3cc5 09c0 1d94 49c0 bc83 8cbf
000001f0: 7e4b b03f 1f63 c63e 0b55 783e ad67 0ec0
00000200: ec1b d53d 42a8 3340 5964 f33f 55af 09c0
00000210: b25d 06c1 6ca2 63c0 1148 b240 23c6 3c40
00000220: b993 2540 be0b 23be b93e 533e 076d 9bbf
00000230: 1f9b c23d 2d3a aa3f 69d4 d1bc 6f8c 3840
00000240: 84b3 b1bf df7d e53d 7a31 5c3e 8824 1a3d
00000250: 46dd c8bf d82d c63f 4ddb 823f bcd9 573d
00000260: d39c c33e eeca afbf 386f a3be 2573 7840
00000270: 0a5e 4cbe 6682 e93e edb6 153f 407b 17bf
00000280: 6c3d 0540 5d70 d2be 06f3 7f3f 58b9 0940
00000290: 7597 e53d 0030 1140 0e33 5bbe aa48 d9be
000002a0: 1766 e4bc 8b25 77bf 6e6d 95be ca86 3a3f
000002b0: db75 17bf 01c9 1abf 7b00 adbe bc6c f43e
000002c0: 470b 733e 1ad3 9e3f ec27 8c3e e51b ddbd
000002d0: 2cd9 003e bbf0 2440 b101 f5bf c759 bbbe
000002e0: 65cc 59bf 11b5 f4bd 113b 52bf 3a60 1540
000002f0: cc3c 6bc0 bd94 a1bf d656 1ebf 2a41 11bf
00000300: 31b5 aabe 159a 44bf 4a15 4ebf e73e f43f
00000310: e43d 193f 9fca c63e 7b2b acbf aebf 9dc0
00000320: 26be 8740 6a7d 4ac1 1fb6 3dc0 1fe5 8740
00000330: a430 9ec0 131d 9040 0e36 b0c0 659b 8840
00000340: 56b6 d13f f724 b13f 6f1b 8cbe 9f82 13c0
00000350: 9fbc 26be 0759 a7c0 9cfb b33f 679c 81bf
00000360: 1e44 a23f 2638 64bf 00b4 2d40 c37a f8bf
00000370: db33 3cc0 5743 89be 9541 b840 7d24 2141
00000380: 6d22 a040 9f4d 6b3f 25ce 0ac0 a51e b0bf
00000390: 762d bd3f b332 af40 d8f9 0041 bd05 58c0
000003a0: 3c1a c8c0 3fc0 6340 a1e1 b13f 7989 8040
000003b0: a86d 9a3f 049f 733f e785 0840 77a3 43c0
000003c0: cabf 1440 cc78 05c0 6985 d8bf dbca 0740
000003d0: 4c05 7cbf 4290 99bf 487a e5bf 03c2 d43f
000003e0: da8b 35bf d86e 87bf 9c08 7240 e282 38c0
000003f0: 11e2 02c1 b023 4240 a626 1cc0 e90f 27c0
-1.6642942 13.197781 4.0680885 6.735434 0.6184259 -1.3939219 -3.3670735 1.0831035
1.3868076 1.6326385 2.539676 -5.375139 -8.020084 4.3804283 -0.5345184 -0.82777214
0.48427144 -0.87122214 1.2787229 1.5808024 -2.1854093 2.683219 1.3062943 9.296614
2.4273853 -1.586941 1.7781554 -0.13098264 -1.0190798 4.5880246 -8.502488 0.6240249
7.829042 -3.9938264 -6.6477466 2.2019203 -7.4647756 -8.487593 -2.1526208 -2.5352097
1.0588607 1.4955517 2.5284638 -3.5223036 -0.35056385 1.4400408 -7.674636 -3.4697278
0.27412707 0.6657648 1.1833308 -0.90899307 6.635721 3.762427 2.988518 -3.667391
-0.18300362 2.15011 -2.9786396 -0.4137123 -0.46759436 -4.5492606 -0.6953945 1.9702244
0.92179626 0.09852536 0.94607615 -0.5477109 -1.7720625 1.1086365 -1.5473145 3.023349
5.832871 10.239271 -0.14543577 -0.36568505 -6.0975566 -1.7796714 -0.60367185 5.208546
-1.3477013 -1.8604137 3.7423213 -0.7256979 3.8975573 0.44297585 0.51672226 -2.6936471
4.4419656 3.8774514 -5.3254886 -3.2163906 2.2629285 6.0552382 4.9167204 -0.9648004
-0.3129361 2.2203093 1.3609437 4.492039 -2.6413772 5.0736947 -2.3280797 5.0724964
1.0740803 3.138721 2.3321593 -0.97584534 -0.6408036 1.2768968 1.4094496 -3.9157405
-0.7784979 -2.1069338 -0.4469637 0.07486512 1.880152 0.2967342 -1.3023885 0.21876965
0.06404659 -2.1526632 -3.149665 -1.0977702 1.3773038 0.38747498 0.24251191 -2.2250779
0.10405716 2.8071446 1.9014999 -2.1513264 -8.397875 -3.5567884 5.571297 2.9495933
2.5871413 -0.15922448 0.20629396 -1.2142648 0.09502243 1.3299004 -0.02561398 2.8835714
-1.3882909 0.11205649 0.21503249 0.037632495 -1.5692527 1.548274 1.0223175 0.052697882
0.38205585 -1.3733804 -0.3192079 3.8820279 -0.19957748 0.456073 0.5848225 -0.5917244
2.081874 -0.4110135 0.999802 2.1519375 0.11210529 2.2685547 -0.21406195 -0.4243825
-0.027880711 -0.9654166 -0.2918505 0.7286192 -0.5916421 -0.6046296 -0.3378943 0.47739208
0.2373477 1.2408173 0.27374208 -0.10796336 0.12582844 2.577193 -1.9141141 -0.36591932
-0.85077506 -0.11948598 -0.8212138 2.3339982 -3.6755857 -1.2623516 -0.6185125 -0.5674006
-0.33341363 -0.7679761 -0.80501235 1.9081696 0.5986006 0.38826463 -1.3450769 -4.9296484
4.2419615 -12.655619 -2.9642408 4.246719 -4.9434376 4.503549 -5.5065985 4.268969
1.638377 1.3839406 -0.2736468 -2.3048475 -0.1628289 -5.2296176 1.406116 -1.0125855
1.2677038 -0.89148176 2.7141113 -1.9412464 -2.940665 -0.2680919 5.7580056 10.071408
5.0042024 0.91915315 -2.168832 -1.3759352 1.4779499 5.474939 8.060997 -3.3753502
-6.2532024 3.5586088 1.3896981 4.0167813 1.2064714 0.95164514 2.1331728 -3.056852
2.3242059 -2.0854979 -1.6915714 2.1217563 -0.9844558 -1.1997149 -1.7927942 1.6621708
-0.7091652 -1.0580702 3.7817755 -2.8829885 -8.180192 3.0334282 -2.439859 -2.610346

bias_ih_l0 f4 [40]
00000000: bb9e 933e 730c e73f 7f8c 0040 5398 8740
00000010: cc39 253f f132 1b40 d799 4c40 0b88 abbf
00000020: ab35 84c0 f352 95bf 34b8 7540 aec0 4abf
00000030: 22f4 8b3e 0db8 a240 bcd9 7440 f53e 2040
00000040: 0761 7ebf ad86 1140 e5a5 7c40 c7ae 2b40
00000050: 4a1c f3bf adee dd3f 20e9 cf3e 8e2b 6ac0
00000060: 236d 14c0 6d36 ac3e e019 56bf 611c 18c0
00000070: 483d 2ac0 baeb 8740 c16a 1e40 2889 ce3f
00000080: b666 6740 28db 0f40 d8e2 eb3f 069b 3cbf
00000090: 5ccb 8b3f 8a2d 0f40 f063 c83f 873b 1740
0.2883204 1.8050674 2.0085752 4.2373443 0.64541316 2.4249842 3.1968896 -1.3400892
-4.1315513 -1.1665939 3.8393679 -0.79200256 0.27334696 5.084967 3.8257895 2.5038426
-0.993668 2.273845 3.9476254 2.6825426 -1.8993008 1.7338463 0.40607548 -3.6589084
-2.3191612 0.33635274 -0.8363323 -2.376732 -2.6599903 4.247525 2.4752657 1.6135607
3.615644 2.2477512 1.8428602 -0.73674047 1.0921435 2.2371545 1.5655499 2.3630083

bias_hh_l0 f4 [40]
00000000: a1ff 843d 85e5 dd3f 7fa2 1940 51c6 8d40
00000010: 91a6 e33e 550a 0c40 cce5 4d40 0e11 d9bf
00000020: b33a 85c0 2c62 93bf 6611 5e40 f229 74bf
00000030: 26b4 d73e 50cd a040 3f01 7940 efc8 2d40
00000040: aad3 6cbf 821a 0940 9988 8140 c72f 3240
00000050: 6fe7 e8bf 8ba0 d53f 8be3 293f fc9e 6dc0
00000060: 5a5b 03c0 d74b df3e 4785 0abf cc0f 1bc0
00000070: a275 2cc0 6405 8b40 e583 4240 640e b93f
00000080: 37d2 6f40 5bc5 0e40 07a7 f43f ff20 3cbf
00000090: c8d1 a33f a8cf 0140 7efe d53f 52cc 1440
0.0649407 1.7335669 2.400543 4.4304585 0.44463018 2.1881306 3.2171507 -1.695833
-4.1634154 -1.1514335 3.469812 -0.95376503 0.4212963 5.0250626 3.890701 2.715389
-0.92510474 2.142243 4.0479245 2.784166 -1.8195628 1.6689619 0.6636283 -3.7128286
-2.0524507 0.4361255 -0.54109615 -2.4228392 -2.6946797 4.344408 3.0393002 1.4457517
3.7472055 2.2307956 1.9113473 -0.7348785 1.2798395 2.0282993 1.671829 2.3249707

weight f4 [10, 10]
00000000: c98c 7d40 c6d4 7fbe 0cb9 0e40 be19 1e40
00000010: a460 9d3e c4c7 4cc0 5122 e43f c1ab 80c0
00000020: 73ea af3f 9692 8b40 63fc 03c0 2610 62c0
00000030: 4ce7 bbbe 587a 9f3f 1800 0340 12fa 85bf
00000040: c276 463f 6ff3 f73f fc42 cebf 227f 6bc0
00000050: 5174 1a3f 24ab a3bf 35ed b93f e020 783f
00000060: abdf 1f3f d752 e13d 7ae7 933f db83 a8bd
00000070: afa1 99c0 8db5 da3f 1f0c 523e c9f3 bc3f
00000080: 375a e3bf a3b7 e53f 7ed3 50bf d00f 3340
00000090: a3ae f0bf 9b1d b93f 2b12 9fc0 ebb7 24c0
000000a0: 5e84 47c0 ebce 0dbe 1b3f 3cbf eafe 7d3d
000000b0: 7e92 77bf 5bd5 2a40 6330 ae3e a4b4 10c0
000000c0: 6f50 1740 5892 1340 e47d bf3e ef37 4740
000000d0: 5802 bdbf cdc4 373f 3976 dfbd d3cb f93f
000000e0: 7b9f 93bf 5d1a 8940 ae4b 8940 ab0b ffbf
000000f0: d6bb ee3f 0076 d3bf 8d49 8d40 47ca 79bf
00000100: d4f2 cbbf 3c16 08c0 3abf 9940 36b2 a03f
00000110: 74b7 7b40 821f 52bf feda e6bf 2120 0140
00000120: 30a0 02bf ea06 74c0 dcc3 0d3f 5a6e d9be
00000130: 92e2 debf 1b8d 8ebd 6eed bdc0 6264 af3f
00000140: 5630 b63f d353 68bf cdc9 e0bf 67de aa3f
00000150: 4ad2 ebbe 7526 44bf ec05 73bf c42c b9bf
00000160: 23e6 d13f e96d 0bc0 7016 0ac0 1c33 a13f
00000170: 8f60 79bf 53b8 74c0 a549 6fbd 9ca8 9bbe
00000180: 7e67 31c0 1f61 23bf fdbf 4040 e2e1 fa3f
3.9617178 -0.2498351 2.2300444 2.4703212 0.30737793 -3.1996927 1.7822973 -4.020966
1.3743423 4.361644 -2.0622795 -3.5322356 -0.36699903 1.2459211 2.0468807 -1.046694
0.7752496 1.9371165 -1.6114192 -3.6796346 0.60333735 -1.2786603 1.4525515 0.96925163
0.62450665 0.110021286 1.1555016 -0.082282744 -4.800987 1.7086655 0.20512436 1.4761897
-1.7761906 1.7946666 -0.8157271 2.79784 -1.8803295 1.446216 -4.970968 -2.5737255
-3.117454 -0.13848464 -0.7353379 0.062010683 -0.96707904 2.6692722 0.3402129 -2.2610254
2.3642843 2.305807 0.37400734 3.112789 -1.476634 0.7178467 -0.10911221 1.9515327
-1.1533045 4.284468 4.2904882 -1.9925436 1.8651073 -1.6520386 4.4152284 -0.97574276
-1.593348 -2.126357 4.804593 1.2554386 3.933072 -0.8207933 -1.8035581 2.017586
-0.51025677 -3.812922 0.5537698 -0.42467004 -1.7412894 -0.069605075 -5.935233 1.3702509
1.4233501 -0.90752906 -1.7561585 1.3349122 -0.46058875 -0.7662118 -0.9493091 -1.4466786
1.6398357 -2.1785834 -2.1576195 1.2593722 -0.9741296 -3.8237503 -0.058419842 -0.30402076
-2.7719417 -0.6382007 3.011718 1.9600184

bias f4 [10]
00000000: bcee 5dc0 20de ba3e 5d73 93bf 41d9 e2bd
00000010: 2ac2 a6bf ee2a 5740 aa59 e1bf 4ebd 203f
00000020: 81d8 9b3f 0701 1440
-3.4676962 0.36497593 -1.1519581 -0.11076594 -1.3028004 3.3619952 -1.7605488 0.62788856
1.2175447 2.3125627
