model/new/128_gru.model (torch_old, 258387 bytes, 6 tensors)

weight_ih_l0 f4 [384, 28]
00000000: ac04 1a3c 141b 9abd bb27 51bd 5423 7f3b
00000010: d188 e6bd 3f4e 1d3d f3bf a9bc 6266 dc3c
00000020: 8a75 8a3d a944 de3c 4370 13bd 32b4 c8bd
00000030: 2c4d 87b8 3c52 44bd 6491 c13d 05f6 083e
00000040: 1bb8 293e 5f9a 0c3e a2a3 603e 621b 0d3e
00000050: 4fa1 70bc 55a8 8dbc 8b0c 483c 3378 55bd
00000060: 208a 78bd fc43 34bd 3aac 173c 8aeb b93b
00000070: 2a57 e7bd 40d6 e23c f7fe a3bb a9dc 673d
00000080: b2ba a23d 7b19 82bc 3891 473c ffcb a13d
00000090: 921f 3d3e f8ff 163d 67b2 dc3d 00d5 8bbd
000000a0: cb1a 033d 2107 013c fd34 233e 15c9 ea3d
000000b0: 6496 9e3d c891 573e 81a2 aa3d bac6 e53d
000000c0: 4fa4 293d f418 6d3d ba09 0ebd bacf 6b3c
000000d0: 1e73 fe3c f285 85bd 546a 6a3d f970 2f3d
000000e0: 9a19 a03b e5b7 4fbd 0fd1 853d 8640 0f3d
000000f0: a7f6 0cbd 9778 ed3d 10f8 f23c eb47 dc3d
00000100: 7cbf 9fbd e5b7 57be c668 133c d558 c03c
00000110: f7de 773d 26ac 303e 5a0c 013e fc12 653d
00000120: 72c5 bf3d 50ae d33d b0b6 963e e683 6b3e
00000130: 3880 3c3e 7919 083e 3a50 bfbc 2da2 9b3d
00000140: c2b5 2bbd fc29 88bd 06eb d83b b990 2fbc
00000150: e981 903c 468d b0bd a3fa ebbd dc68 353d
00000160: 2370 8c3c c513 b73d 80b6 833d cbdd a6bc
00000170: 797f 303e 52f8 063e 2c6a 7d3e 11e4 853e
00000180: 2ce7 273e 30d6 8dbd efd3 34be 7688 cdbd
00000190: aaba 9a3d 7473 723d 8f1f 173e b251 033e
000001a0: 7c6d febd 0f19 47be 7d5a 853d 4136 0ebc
000001b0: 2e17 a33c af8e 0fbd 1ef6 b9bb 6ed4 fa3c
000001c0: e4cf e93d 2f39 9bbc 82e3 893d 7e51 513e
000001d0: 9c50 793e 9a1f 313e 1d84 7bbd edae cbbd
000001e0: 10cd 9c3a 323f 0d3e 1cdb 033d 5fd3 1fbe
000001f0: 9572 efbd 877d 7ebe 0953 14be f01c 5d3e
00000200: d5fe d93e 3901 c23e c733 9ebd f659 863d
00000210: 8bab 8f3d cb02 3abd dba8 81bd 8eef 9f3a
00000220: 2ccd 8a3d e0ca cc3c 6b85 02bd 4be0 33bd
00000230: 798f 7cbd 0d8c 01bd 6bd9 9fbd 1544 7f3c
00000240: 54d1 b5bc acea f6bc 2f23 013d 72c5 e33d
00000250: f1f6 753e 90ab 653e 4b7c 603e 58f8 613e
00000260: f5b8 363d 3ccb 333d c4bb a1bd 38ce a9bd
00000270: 0062 35be 6957 11be 4793 e63d deaf 253e
00000280: 83f0 2a3e ae62 243e eb5f a33d fad4 ef3d
00000290: 3f32 5abd 8605 b2bc c68f 7dbd b9b0 2bbd
000002a0: 1ac3 cfbd 9105 94bd 8b88 67bd 513a 033c
000002b0: 2166 b5b9 dc03 29bd d0ba 3b3d c827 3b3d
000002c0: 5b17 2f3e dc65 a93d a9d7 f5bd 40ad 10bd
000002d0: f972 d1bd 3766 24be 2c5b 9cbc c0fb 703e
000002e0: c3c2 463e ec18 793e dfe9 f83d 4054 ca3d
000002f0: 6d32 bf3d 7c16 c3bc a037 c23b e12d 93bd
00000300: 911c 14be 903a 67bc dcf9 a73c 4b18 bfbd
00000310: 923b a83c 6c25 1a3d 38a1 963d 3f3b b9bd
00000320: 57a5 02bc 9d03 60bb 2b39 3b3e fb83 efbb
00000330: be82 0c3e 3f9f 3e3e ecc2 283e 0843 5dbc
00000340: 5986 6cbd 204e 113e 5f5e 633e 8d38 903e
00000350: 98aa 243d c5f3 b13d 4097 ae3d 482d 953d
00000360: 1a5e 9d3d 2c7c 2dbb 7904 6bbc cd22 583d
00000370: 1227 fcbd 042e 153d 6533 e9bd 6af6 b2bd
00000380: 781b 9c3c 4fa7 b4bd eab2 24bd 854c 493d
00000390: 5704 8c3d 292f 8dbc c5fd 1fbd 99d8 e0bd
000003a0: bcfb f33d 020f 3d3e 8f9f b73e 7b38 6a3e
000003b0: 5a91 0fbd bb93 093e 4b0f f03d 669a 1c3e
000003c0: a541 983e 3425 373e c840 a83c 8623 763d
000003d0: 4cbc ab3d 5b18 e83c e5b8 96bd 7ad4 6dbd
000003e0: 3ca7 c5bd 2f7d 8c3c ceea 253d 78e4 84bd
000003f0: c53b 41bd eea4 46bc 89aa 3bbd a332 e6bd
0.009400528 -0.07524696 -0.05106328 0.003893097 -0.112565644 0.0384047 -0.020721411 0.026904289
0.067607 0.02713235 -0.035995733 -0.097999945 -6.451676e-05 -0.047929987 0.09451559 0.13375099
0.16574137 0.13730763 0.21937421 0.13779977 -0.0146868965 -0.017292181 0.012210022 -0.052116584
-0.0606786 -0.044010147 0.009257371 0.0056738304 -0.11295922 0.027690053 -0.0050047594 0.056606922
0.079457656 -0.01588129 0.012180619 0.07900237 0.18469074 0.036865205 0.10776215 -0.06827736
0.032007974 0.007875235 0.15938182 0.114641346 0.077435285 0.21051705 0.083317764 0.11219545
0.041416463 0.057885125 -0.034677245 0.014392788 0.031060752 -0.06519689 0.05723031 0.04283235
0.0048858644 -0.050712485 0.065340154 0.034973644 -0.034414914 0.11595266 0.029659301 0.10755905
-0.078001946 -0.21066244 0.008997148 0.023479858 0.06051537 0.1725317 0.12602368 0.055926308
0.093638316 0.10335982 0.29436255 0.22999534 0.18408287 0.13290967 -0.023353685 0.07599292
-0.041921385 -0.06648633 0.006619814 -0.010715657 0.017640071 -0.08620696 -0.115224145 0.044289455
0.017143315 0.089393176 0.064312935 -0.020369431 0.17236127 0.13180664 0.24747533 0.26150563
0.16396779 -0.06925619 -0.17658971 -0.100357935 0.075551346 0.059192136 0.14758132 0.12824133
-0.12423226 -0.19443153 0.065114 -0.008679927 0.019908514 -0.035048183 -0.0056750914 0.030618872
0.11416605 -0.018948166 0.06732847 0.20441243 0.24347156 0.17297211 -0.06140529 -0.09945474
0.0011962969 0.13793638 0.03219138 -0.15607975 -0.11691777 -0.24852572 -0.144848 0.2159307
0.42577234 0.37891558 -0.077247195 0.065601274 0.07015141 -0.04541282 -0.06331035 0.001220213
0.06777415 0.024999082 -0.03186552 -0.043915074 -0.061660264 -0.031627703 -0.07805141 0.015580197
-0.022194542 -0.030141197 0.031527694 0.11121644 0.24019982 0.22428727 0.21922414 0.22067392
0.044609983 0.04389499 -0.078971416 -0.08291286 -0.17713165 -0.141935 0.1125856 0.1618037
0.1669331 0.16053268 0.07977279 0.11710544 -0.053270575 -0.02173115 -0.06190469 -0.041916583
-0.101446345 -0.07227624 -0.056526702 0.008009509 -0.00034599102 -0.041263446 0.045832455 0.045692235
0.17098753 0.08271381 -0.120040245 -0.035321474 -0.102270074 -0.16054617 -0.019086443 0.23533535
0.19410233 0.24325913 0.12153982 0.09879351 0.0933579 -0.023814432 0.005927041 -0.07186485
-0.14464022 -0.0141130835 0.020504884 -0.093308054 0.020536218 0.037633345 0.07354969 -0.090445034
-0.00797399 -0.0034181841 0.18283527 -0.0073094345 0.13721749 0.18615435 0.16480607 -0.013504751
-0.05774531 0.14189959 0.22203968 0.28168145 0.040201753 0.086890735 0.085249424 0.07284027
0.07683964 -0.0026471717 -0.014344328 0.052767564 -0.123121396 0.036420837 -0.11386756 -0.08738406
0.019056067 -0.08820974 -0.04020969 0.04914524 0.06836765 -0.017234402 -0.039060373 -0.10978813
0.11913249 0.18462756 0.3586392 0.22873108 -0.035050727 0.13435261 0.11721667 0.15293273
0.29737583 0.17885286 0.020538703 0.06009247 0.08385524 0.028331926 -0.073594846 -0.05806396
-0.09651038 0.017149536 0.04050713 -0.064888895 -0.04717614 -0.012124283 -0.045816932 -0.11240127

weight_hh_l0 f4 [384, 128]
00000000: b683 96bd bfbc 4cbd 1187 a0bd c9dd 48bd
00000010: c34d a23c 7e73 95bd 51b2 a4bd 74cf 3bbd
00000020: 23ca 18be 0ef7 2c3d 2a87 e53d f7ed 863c
00000030: 63f0 fcbd 6a9c 03be 6238 a8bd 47db 4dbd
00000040: 272d a83c 6b2f 963d d049 813d 211e 68bc
00000050: 0bf6 ec3c fcfd f73d 9095 c8bd 3fcf 3dbc
00000060: 9409 c43d e9ab 643d 7f73 1abd 1848 ed3d
00000070: c343 5abd 0b9d 8bbb c6fe 15bd 5de9 833c
00000080: 35ba 2e3d e1f0 ba3c d793 843c 5062 e73c
00000090: c4bb 17be f783 3fbd bcd0 a53c bb6e 09be
000000a0: 7816 c73c 8101 b43d 74ac e63d d499 1bbe
000000b0: 9ee1 47bd 2a00 973d 61a9 29bd dc9d bfbc
000000c0: e5e0 71bc e621 e4bc 549d 9d3d bc4b 6fbd
000000d0: c4a2 adbd 9e08 7f3d 7f9d 73bd ccb4 b8bd
000000e0: 2a52 2cbc c4b8 a0bd 0858 7f3d bf95 33bd
000000f0: 4180 60bd 9328 983d 172e a63d a1d8 123d
00000100: 5c7c 1abd 091b f9bd 1242 8f3d b8bc c6bd
00000110: 0824 863d 63e0 b0bd 8f71 09bd dd3e 833d
00000120: 858e 04bd 4100 6cbd 30aa f93d 8dac f6bc
00000130: d31f 27bd edc2 37bb 3ea3 debd e8a2 db3d
00000140: 26bb 633d 7c9b d13d 69fa 523d fc46 95bd
00000150: 933b bcbd be63 8bbd 37e0 4ebc 7073 153e
00000160: 9b05 603c 7377 5d3e 5d29 c6bd 7d1b 41bd
00000170: 7227 b2bd 1b52 0e3e 1fc5 cc3d f7bf c03d
00000180: c3e2 d2bc 9a60 d73d 0aef 98bc 1bcc f8bd
00000190: aeb7 13bd 6c96 95bb 5196 14be c418 a1bd
000001a0: dd1e bf3d 0686 a33d 4e01 eb3d eb6e bebd
000001b0: 7938 c63c f491 3f3e 82b0 8c3d b869 c7bd
000001c0: 3b45 cabb 0415 963d a506 00bd 0f7c 62bd
000001d0: ded2 0cbc 78e9 bbbd 1265 cf3c f05d c7bd
000001e0: af43 903d db62 dabd 40fc 68bb a9b0 373a
000001f0: 316d d7bd 30ee b8bd a85d e53c cf4c 2f3d
00000200: a224 9f3d fb7b 2abd 4cda 0d3e 6943 7fbc
00000210: 17a7 323d 6d37 8f3d 84aa f6bd 9faa 4a3d
00000220: 05a4 2b3d 2753 97bd 3ab4 9e3c 4b94 be3d
00000230: 031b 83bd 4891 d93d 5afe d4bd a66f 32bd
00000240: d4e5 aa3c e5bd ea3d 5d11 02bb 7dda aabd
00000250: 927e a73d e6a8 713d 2a55 07bd 4f64 a3bd
00000260: 32b2 333d aedc ca3d 7806 373e 8e25 38be
00000270: 9625 69bd 14e2 573e bd69 d93c cef4 fdbd
00000280: e697 1dbe 3e55 72be aaee d6bc c9f5 8bbc
00000290: 4137 0a3d 3770 c3bc 925b e03d f2c3 51bc
000002a0: e06f 2abd 3733 8e3d 8417 e73d fafc 8cbd
000002b0: f151 16bc 7717 d33b 2e57 6a3d 2f43 313d
000002c0: 0c15 ea3d f1c7 6e3c f8de 8dbd ea6a 9f3c
000002d0: 1c96 22be 5ff4 c6bd 55b0 953d 8112 a2ba
000002e0: 85a3 b23d 2d85 c03d 4815 103e da62 8a3d
000002f0: c8b6 93bd b421 4fbd 090b 76bd 89ff f03b
00000300: 24fb 883b 8bd9 e63c ccb6 c93d bce1 b43d
00000310: 5276 683d 55ad 90bc 5d5e 01be c68e 34be
00000320: 86ee 153d 2153 c33d 4cc1 24bd ee55 ae39
00000330: 279d 1a3e 6f7d be3d 0dba c5bd eb4b cbbd
00000340: 980b 32bc 3b53 dfbd 1641 87bb 7715 323e
00000350: 94b8 e43c 8709 ff3c 86bd 91bd 5ceb cc3c
00000360: 1081 4a3e ba82 af3d c503 48bd e312 a5bd
00000370: e57b a73b be4d 083e 8686 ea3c 451d a23c
00000380: eb67 143e 2b1c 3c3d acff 2cbe a5a1 0c3e
00000390: 17fd a63a 21a4 133e dd87 a63c f714 83bd
000003a0: 02a9 b73b 2240 80bd a263 903d 9f80 11bd
000003b0: 5126 b4bd ca00 0b3d 4bf8 8f3d de5d 273e
000003c0: 4576 36bd 65fd 033c d070 0a3d d442 2abd
000003d0: 7c16 ae3d 92b9 c2bc 6645 18be ecfd 26bc
000003e0: 8014 07be 2329 a53d 0298 813d f82d 883d
000003f0: e51d 533d 749d 8ebd d69d f13d a232 983c
-0.073493406 -0.04998469 -0.07838262 -0.049039636 0.01981247 -0.07297419 -0.08041824 -0.04585214
-0.14920859 0.042227797 0.11207421 0.016470892 -0.12350538 -0.12852636 -0.08213879 -0.050257947
0.020529343 0.07333263 0.06312907 -0.01416734 0.028925916 0.121089906 -0.09794152 -0.011585056
0.095721394 0.05582801 -0.037707802 0.115860164 -0.05328728 -0.0042606643 -0.036619924 0.016102487
0.04265805 0.022819938 0.016183777 0.028245121 -0.1481772 -0.04675671 0.020241134 -0.13421147
0.024302706 0.08789349 0.112633616 -0.151954 -0.04879915 0.07373078 -0.041421298 -0.023390703
-0.014763092 -0.027848195 0.076960236 -0.058421835 -0.08478311 0.062264077 -0.05947637 -0.09018859
-0.010517636 -0.07847741 0.062339813 -0.04384398 -0.054809812 0.07429614 0.0811426 0.035851125
-0.037716255 -0.1216336 0.06995024 -0.09703964 0.06549841 -0.08636548 -0.033555564 0.064084746
-0.03236248 -0.05761743 0.12190664 -0.030111575 -0.040801834 -0.0028039769 -0.1087098 0.10724431
0.0555984 0.102347344 0.05150834 -0.0728893 -0.091910504 -0.06806134 -0.012626699 0.14594817
0.013673211 0.21627598 -0.09675858 -0.047145355 -0.0869893 0.13898508 0.09998535 0.094116144
-0.025742894 0.10516472 -0.01866867 -0.12148305 -0.036063842 -0.004565051 -0.14510466 -0.07866052
0.093320586 0.07984547 0.11474858 -0.092985 0.02419685 0.1870802 0.06869604 -0.09736961
-0.0061728037 0.07328227 -0.031256337 -0.055294093 -0.0085951965 -0.0917539 0.025316749 -0.09734714
0.070441596 -0.106633864 -0.0035550743 0.00070072204 -0.105188735 -0.09029806 0.02799876 0.04279786
0.07770659 -0.041622143 0.13852805 -0.015580037 0.04361638 0.069929935 -0.12044242 0.049479123
0.041904468 -0.07388907 0.019373048 0.093056284 -0.064016365 0.10623413 -0.10400076 -0.043563507
0.020861544 0.11462001 -0.0019846775 -0.083424546 0.08178438 0.058998965 -0.033040203 -0.07978117
0.043871112 0.099053726 0.17873561 -0.17983076 -0.05692061 0.21082336 0.026539678 -0.124002084
-0.15389976 -0.2366533 -0.02623685 -0.017084973 0.0337441 -0.02385722 0.10954966 -0.012803065
-0.0416106 0.06943362 0.11283782 -0.06884189 -0.00917481 0.006442006 0.057212047 0.043276962
0.114297956 0.014574037 -0.069272935 0.01946016 -0.15877575 -0.09714579 0.07309023 -0.0012365134
0.08722595 0.09400401 0.14070618 0.06757136 -0.07212597 -0.05056925 -0.060069118 0.007354681
0.004180329 0.028179904 0.09849319 0.08832118 0.056753464 -0.017660776 -0.12633653 -0.17632589
0.036604427 0.0953734 -0.040223405 0.0003325189 0.15099011 0.09301268 -0.09654627 -0.099265896
-0.010867022 -0.10904547 -0.004127632 0.17391 0.027920045 0.031132473 -0.07116227 0.025014572
0.19775796 0.08569856 -0.04883172 -0.08060243 0.005111205 0.13310906 0.028628599 0.019789347
0.14492767 0.0459253 -0.16894406 0.13733537 0.0012740222 0.14418079 0.020328457 -0.06400483
0.005604864 -0.06262232 0.070502535 -0.035523053 -0.08796371 0.0339363 0.0702978 0.16344401
-0.044546384 0.008056019 0.033798993 -0.04156764 0.08500382 -0.023770127 -0.14870223 -0.010192376
-0.13191414 0.08064487 0.06327821 0.06649393 0.05154218 -0.069636256 0.11797683 0.018578831

bias_ih_l0 f4 [384]
00000000: be3a 823d c75b 2a3c 8f4e a2ba c55c 3e3c
00000010: 2dae cbbd e2ad 073e 6058 173e b081 523d
00000020: 9c76 fabc 4726 253e 7344 b13d c6b7 56bd
00000030: ac0c 7dbb 6616 473e ed67 553e bd1a 893c
00000040: 56e2 113d 179a 303d 12f0 913d 4060 deba
00000050: ea7a 123d 1689 883d 8936 14bd 8a23 b73d
00000060: 1720 5a3d a133 02bd 7849 7c3d 5db6 343e
00000070: e043 3c3e b753 fbbc 8f60 f43d 6a9d b93d
00000080: c3dc 133e 6fc6 9b3c 6d11 4f3e 7029 b13d
00000090: 3521 be3b 4cb3 68bc f062 de3d b38f cf3c
000000a0: 14d0 c23d 25ce 003b b3d0 04bd d6a2 ed3d
000000b0: 8075 3a3e 6657 983e 1326 e23d 21c6 093e
000000c0: 5d3c e1bc a4cf 81bb 1505 87bc f0ef d4bc
000000d0: 9143 ec3c fac8 993e 8154 d6bc 078e c1bb
000000e0: 0f68 fdbb ccc0 5e3d 3e26 b63d 58cb 1b3c
000000f0: 7a47 c13d 1dee 383e 5dcc 3c3e 7422 3a3d
00000100: 8a24 d93e 46bf 6f3d d28f 8d3d d3c3 b63c
00000110: de84 1e3e 8854 68ba 7088 a8bd 029d 643e
00000120: e39a ea3d 2c95 593e f5f0 1bbd 993b a6bd
00000130: a7eb aebb 9ccf 413c f345 b7bd d092 613d
00000140: 804c bb3d 2545 673e 0a0f 993d d082 343d
00000150: e378 d8bc 5d80 38bc 2937 943d 7b23 ca3c
00000160: f557 093e 5ace ab3d 18fe 8d3d 58f1 063e
00000170: 08af 003e 0f97 083e 23bc 423c 6d7b 2f3e
00000180: 32fc ff3d db35 0b3e d1da 183e d1f3 f03d
00000190: 2c95 953d 184b f83c cd52 b53d f077 ef3d
000001a0: 06f5 6cbc 909e 993d 892b 383e 4fc7 b93d
000001b0: cb2e 3d3e c08c 5b3e 0bd3 a13d 556b 283e
000001c0: 2377 c23d 0c63 f73d a172 8d3d cc18 ad3d
000001d0: 16b6 ff3d 67b0 8a3d c060 2a3c 6233 923d
000001e0: 2bb6 273d 6aca 123c 1875 f53c 7c91 b6bd
000001f0: 622a a6bd 6624 243d bef4 6a3d 4042 49bd
00000200: ea04 bd3c e8aa fe3d 1558 853e 0ff5 d03d
00000210: a6a3 853d 2767 4e3e e0de 32bd 1729 d13d
00000220: 2057 d03e 9714 c93e eec4 843e b370 993d
00000230: ee22 533f 28a9 d4bc 3f98 973e 83c4 883d
00000240: 9e9f bd3d 1425 033f 475e 093d 80f8 1e3e
00000250: 0d66 5d3e 9d5b be3e 4ac4 513e ee7b 763c
00000260: 8de6 313e d6bd 923d 789c 0f3f 9f34 523e
00000270: aca3 ae3e b8e4 cd3d e7ca 1f3e 4738 833e
00000280: f01c 0f3c 0049 fd3d 6566 8c3d 443e 893e
00000290: cd93 7c3d b117 c53e dfb4 253e ebaa 403e
000002a0: 1cf1 433e 925d d03e fcb7 8c3e 4332 523e
000002b0: 3d29 9e3e 66ae cdbb cb4c ba3e 7724 8d3c
000002c0: 972e 7b3e 0852 813e bc8e 72bc 2496 843e
000002d0: c32d 0f3e ca85 c83c af18 233e 33a7 873e
000002e0: 47cc 083e 70f6 07be a473 933e 9e96 0d3e
000002f0: b2f7 003f 8b28 ca3d bc92 433e a96c 993e
00000300: 56dd aabc d794 0f3e d2d1 853e fc7b 14bd
00000310: 9588 c63d 6c8c 623d 9890 513d 9c8a 2d3f
00000320: 544c 973d ae8a 84bb ba80 063e 3ac7 323e
00000330: 837e fc3c 4550 af3d a065 5abd 4e55 423e
00000340: 13c6 813d 31c3 8a3c 0822 2e3e e6e1 943e
00000350: 3011 e23e 80a9 7c3e 278c c53e 01e2 313e
00000360: f365 803e 67b0 b9bd 8531 243e 529b 123e
00000370: e7da 863e fc78 913e 7290 973e 4a1e 553e
00000380: ee87 1b3f fe0e 6e3e dd4a d83e f0d2 15ba
00000390: 18a3 393d 6444 89bd 18d5 303d 455b 853e
000003a0: 2f14 0cbd 7aa2 87bd 05ed bbbd 8465 293e
000003b0: 0559 153f a22c 073e 91c5 fe3d e71d 173d
000003c0: 443a 813c afa2 0d3e 183f 3fbc 4c58 cd3e
000003d0: 4622 cebc e9bc 533e ce23 f03d 004d f03d
000003e0: 59e4 3c3e c103 983e 987e 473e 8926 9dbc
000003f0: f248 243e 7c41 073e d0b3 e03e d45e ea3d
0.063588604 0.010397858 -0.0012383031 0.011618798 -0.09945331 0.13249925 0.14779806 0.05139321
-0.030574135 0.16127883 0.08655634 -0.052421354 -0.003861229 0.19442138 0.20840426 0.016736383
0.03561624 0.0431157 0.07125868 -0.0016965941 0.03576175 0.06666772 -0.03618482 0.089423254
0.05325326 -0.03178752 0.061593503 0.17647691 0.18385267 -0.030679567 0.119324796 0.090632275
0.14439683 0.019015519 0.20221491 0.08650482 0.0058022984 -0.014202904 0.108587146 0.025337076
0.09512344 0.0019654122 -0.032425594 0.11603324 0.18208885 0.2975418 0.11042418 0.13454486
-0.027494604 -0.0039615203 -0.016481915 -0.025993317 0.028840812 0.30036145 -0.026163341 -0.0059068236
-0.007733352 0.054383084 0.08894013 0.00950893 0.09437461 0.18059583 0.18437333 0.045443013
0.4241069 0.058532022 0.06912197 0.022310173 0.15480372 -0.0008862694 -0.082291484 0.22325519
0.114553235 0.21248311 -0.03807159 -0.08116836 -0.0053381505 0.011829283 -0.08948889 0.055071652
0.091454506 0.2258497 0.074735716 0.044070065 -0.02642483 -0.011261073 0.072370835 0.024675122
0.13412459 0.08388968 0.0693323 0.13178003 0.12566769 0.13338874 0.011885676 0.17136927
0.12499274 0.13594763 0.14927222 0.11765254 0.07303843 0.030309245 0.088536836 0.11692798
-0.014462715 0.075009465 0.17985357 0.09071218 0.18474881 0.2144041 0.079015814 0.16447194
0.0949538 0.120794386 0.06906629 0.08451995 0.12485902 0.06771927 0.010399044 0.07138707
0.040945213 0.008959392 0.029963061 -0.08914468 -0.08113553 0.040073775 0.05736231 -0.049135447
0.023073632 0.124349415 0.26043764 0.10202991 0.06525354 0.20156537 -0.04366958 0.102129154
0.4069147 0.3927352 0.25931495 0.07492199 0.82475173 -0.025959566 0.29608342 0.06678107
0.0925896 0.5122845 0.033537176 0.15524483 0.2162096 0.3717927 0.20485035 0.015044196
0.17373104 0.071651146 0.5609813 0.20527886 0.34109247 0.1005339 0.15604745 0.25628874
0.008734927 0.12367439 0.06855468 0.26805317 0.06166439 0.38494638 0.16182278 0.188152
0.19134945 0.40696388 0.2748412 0.20526986 0.30890837 -0.0062768934 0.36386713 0.017229302
0.24529491 0.25257897 -0.014804538 0.25895798 0.139823 0.024477858 0.15927385 0.2649475
0.13359176 -0.13277602 0.28799164 0.13826987 0.50377953 0.09871014 0.19098943 0.29965714
-0.020857494 0.14021622 0.26136643 -0.036251053 0.0969402 0.055309698 0.051163286 0.67789626
0.07387605 -0.004044852 0.13135043 0.17458811 0.030822044 0.08560232 -0.053319573 0.18977854
0.06336608 0.016938778 0.1700517 0.29078597 0.44153738 0.24674034 0.3858349 0.1737137
0.2507778 -0.09066849 0.16034515 0.14317062 0.26338884 0.28412616 0.2960239 0.20812336
0.6075429 0.23247907 0.42244616 -0.0005715331 0.045321554 -0.067024976 0.043171972 0.26046196
-0.034198936 -0.06622787 -0.09176067 0.16542631 0.5833896 0.1320062 0.124400266 0.03689375
0.015774854 0.1383159 -0.011672758 0.40106428 -0.025162827 0.20677532 0.11725579 0.117334366
0.18446483 0.29690364 0.19481885 -0.019183414 0.16043451 0.13208574 0.43887186 0.11443868

bias_hh_l0 f4 [384]
00000000: ba1d 6b3d 4ff3 5e3d f4b4 2abd df7c 083d
00000010: 837f 14bd 3245 8f3d 72b4 a73d 5ec6 043b
00000020: 20e3 153c 4756 b03d 4534 0f3e a261 6f3d
00000030: 894a fa3d a784 4e3e cdcd 2b3e 0aba 8a3d
00000040: 6e49 95bc 8802 b23d a168 c2bd 7165 883d
00000050: 9f5a 233e b435 0d3e 3e39 e73c a488 e8bc
00000060: c7d4 3b3d b1a3 c7bc dbd1 db3d 983f 7b3d
00000070: 6fcc 693d aaa4 b93c 6c24 8bbb 7877 3d3e
00000080: 2fd9 d23d 4178 283e 0c0d e33d 12d7 203e
00000090: 88bf 723a 56b3 013b d18e 143e a09a 11bc
000000a0: c8fc 1e3e 0743 f9bd 758d 3f3d c891 e83d
000000b0: a7e1 7d3e bb53 5f3e aa08 c63d 6c52 593d
000000c0: 9246 aabc 39cf 973b 56e9 da3c 3511 51bd
000000d0: 0467 5c3d 2ee8 203e c63b 033b 60a5 e9bc
000000e0: 3b4d b93d 80f2 a53c 29b8 2cbd b98c a53d
000000f0: cf80 95bc 2a9a 273e a5f6 233e 1e27 f43c
00000100: 05da d73e f7bb 313d b6f4 ea3d 97cd a33d
00000110: 42d5 983d 7b82 4b3c 0524 b9bc 1f10 313e
00000120: 0089 463e 22f3 4c3e 5055 f73d 6e1c cabc
00000130: bc08 8bbc 96ea ba3c d552 41bd b7e4 983d
00000140: 9ad4 a438 b365 653e ae3e ea3d 8579 3c3c
00000150: 8e15 acbb 3fd2 febc 64b0 163e 52aa efbd
00000160: eb63 583d 93d4 003d 4978 f4bc 602f 083e
00000170: 4e02 213e 2766 043e bfb4 813d cb8d e13c
00000180: b46c e03d 9a3d 293e 0e51 083e 8050 043e
00000190: 94c5 673d 1cfb a43d 0b53 71bd 33a4 533e
000001a0: c40a a43d 59c7 553e 5fe8 6b3d d493 193e
000001b0: 3122 c13d 82a4 f53d 413e 25bd d46e 1b3e
000001c0: 41eb 2c3d 56f8 893d f154 2a3d 68be ba3d
000001d0: bac9 183e c347 203c 9906 053e 9f53 893d
000001e0: e9d5 87bd de0c dd3d 97ec 0f3e b351 a5bd
000001f0: 4c43 0f3d 6cdb 463e 8379 923d 8e3a c5bc
00000200: 9a37 713d 228b f3bc bac4 113e beb8 503d
00000210: abce af3d f4ed 883e 0b65 103d 6183 583e
00000220: 2b18 e23e b62b 983e fcd2 a83e ed55 3c3d
00000230: 48b2 573f a4e6 d9bd fbd8 b23e 6142 1c3e
00000240: 6115 0e3e fbb8 cf3e 1379 4bbc 1199 363e
00000250: 4117 833e f6b6 a33e 3b3b 8d3e 0f3b 5abc
00000260: f082 653e 7844 233e b5f4 1a3f b0f5 9b3e
00000270: f46a 793e 20c9 e93d 5910 8c3e d054 543e
00000280: e2d4 053c aefb 693e 1deb 3a3e c7b3 813e
00000290: f5cf 023e 0b56 ab3e b096 143e dc01 7b3e
000002a0: a6eb 643e 6efc a43e f3cf 673e 9b45 4b3e
000002b0: 7158 733e 738d 983d 35f7 973e cb21 133d
000002c0: b80a 473e ed97 5b3e 0037 e4bd c64f c03d
000002d0: 5e4c 393c 1be6 a23d c7c1 7a3c 24a8 363e
000002e0: 3c5b 2b3e 27f4 40bd c4fe 893e 3ab8 943d
000002f0: e392 ef3e dfdc b93d c25c 9d3e feca 743e
00000300: 45ec 503d efb7 c83d 2e9e 4d3e 57a5 9d3d
00000310: d8c3 bb3d 5f5d 813d 8412 a93c 5d0a 2f3f
00000320: 92ff f83d 6cdf 1d3e 5e84 323e e96f 213e
00000330: 25fa d53d 8217 583d 0ad1 e5bd 0568 1d3e
00000340: b235 b13d 8f08 f93d 20f7 093e d133 b63e
00000350: e508 df3e d527 dc3d 0e40 a53e dce9 a63e
00000360: c9da 803e 128d 1e3c 1e60 533d 5f94 9b3d
00000370: 9de8 943e bc68 c13e 9118 6c3e bd4c 833e
00000380: 7f05 033f bd71 3f3e b9b7 bc3e 8443 3a3d
00000390: ae96 07bd a0ff 9c3c 7834 b93d e3fc e83d
000003a0: c637 3bbd b3ab 0abe 97af 9b3d 574e d13d
000003b0: 5972 143f ad73 203d 57b1 103e d284 333d
000003c0: 7e3b 3c3c b60c 303e 1c42 41bc db30 073f
000003d0: 805b 86bd f038 273e 62fe 9c3d ed86 f53d
000003e0: 4f83 4a3e bb9b 7a3e 3de8 503e f70a a6bc
000003f0: 8aa1 973d 332c e33d 5105 b63e d342 9c3d
0.057401396 0.054431256 -0.041676477 0.03332221 -0.036254417 0.0699562 0.08188714 0.0020259838
0.009148389 0.08610206 0.13984783 0.05844272 0.12221248 0.2016779 0.16777726 0.067737654
-0.01822349 0.08691889 -0.09492613 0.066599734 0.15952538 0.13790017 0.028225537 -0.028385468
0.045857217 -0.024370046 0.10733386 0.061339945 0.05707973 0.022661526 -0.004246285 0.18502605
0.10295331 0.16452123 0.11086473 0.15707043 0.0009260108 0.001979073 0.14507605 -0.008886963
0.15526116 -0.121709876 0.046765763 0.113559306 0.24793111 0.21809284 0.09669621 0.05305712
-0.020785604 0.004632857 0.026722591 -0.0510418 0.05380918 0.1571357 0.0020024641 -0.02852124
0.09047934 0.020257235 -0.042167816 0.08083481 -0.018249897 0.16367403 0.16012056 0.029803809
0.42158523 0.043392148 0.11472456 0.079981975 0.07462551 0.012421246 -0.022600183 0.17291306
0.19388199 0.20014623 0.12076819 -0.02467176 -0.016971938 0.022816937 -0.047198135 0.07465499
7.8597295e-05 0.22402076 0.114377365 0.011503582 -0.005251593 -0.031106113 0.14715725 -0.11702408
0.052829664 0.031452727 -0.029842513 0.13299322 0.15723535 0.12929593 0.06333303 0.027533432
0.109582335 0.16527405 0.1331217 0.12921333 0.05658491 0.08055708 -0.058917087 0.20668106
0.08009866 0.20876826 0.057594653 0.14997798 0.094303496 0.11994268 -0.040342573 0.15178996
0.042216543 0.067368194 0.041584913 0.09118348 0.14920703 0.009782734 0.12990798 0.067054026
-0.06632597 0.1079347 0.14055096 -0.080722235 0.03497629 0.1941964 0.07152083 -0.024075773
0.058890916 -0.02972943 0.14235201 0.050957434 0.08584341 0.26744044 0.035252612 0.21143867
0.44159064 0.2972085 0.32973468 0.045980383 0.8425641 -0.10639694 0.34931168 0.15259697
0.13875343 0.40570816 -0.012419003 0.17831828 0.2560368 0.31975526 0.27584252 -0.013319745
0.2241323 0.15944088 0.60529643 0.30460882 0.24357206 0.11415315 0.27356222 0.20735478
0.008168431 0.22849914 0.18253751 0.25332472 0.12774642 0.33464083 0.14510608 0.24512428
0.22355518 0.3222384 0.2263792 0.19850771 0.23764206 0.07448854 0.29680791 0.0359209
0.19437683 0.21444674 -0.11143303 0.093902156 0.011309711 0.079540454 0.015304989 0.17837578
0.16734022 -0.04710784 0.26952183 0.07261701 0.46791753 0.09075331 0.3073483 0.2390556
0.051006574 0.098007075 0.20079872 0.07697552 0.091682136 0.06316637 0.020638712 0.6837519
0.12158121 0.1541726 0.17433307 0.15765347 0.10448102 0.052756794 -0.11221512 0.15371712
0.0865282 0.121598355 0.13473177 0.35586408 0.43561473 0.10749785 0.32275432 0.32600296
0.2516692 0.0096771885 0.051605336 0.07596659 0.2908372 0.37775218 0.23056246 0.25644484
0.5118026 0.18695731 0.3685892 0.045474544 -0.033102684 0.01916486 0.09043211 0.11376359
-0.045707487 -0.1354206 0.076018505 0.1022002 0.5798698 0.039172817 0.1413015 0.04382784
0.011488793 0.17192349 -0.011795547 0.5280892 -0.06560421 0.16330314 0.07665707 0.11988626
0.19776653 0.24473469 0.20401092 -0.0202689 0.07403858 0.11092415 0.3555093 0.07629933

weight f4 [10, 128]
00000000: 84dc 6abe 9089 b6be 71bc 333e dbf3 d33d
00000010: 5196 423e 76e1 243e ebbb bfbd a98f c9be
00000020: 2eb8 c13e 9cb9 c53d 42c4 353d 239b 703e
00000030: 89f3 a3be fab2 963c faaa b6be 7407 ae3e
00000040: ccce 183d 0d96 bdbe ac5c 023f 0ac3 323b
00000050: 108d 31bf 4aa2 1b3f 2ab6 e2be fb7a f73e
00000060: 6aa8 1c3f 91ae 273e 1eac df3f 93b7 b83c
00000070: 3253 07bd 7105 553e 5217 58be b74e e1be
00000080: 093b c6be 6766 513e 4cb5 213e 6dfd 23be
00000090: b297 ccbe cb8e 9a3e 7825 3e3e 7f54 08be
000000a0: 3b10 1f3e 3dff 9f3d 4f4e 38bf 6bf6 63be
000000b0: 669e 68bd 7aee 4f3e 683d 0a3f 3797 5dbe
000000c0: 2652 18be ad11 a53e b5c9 2d3e e3f2 8c3d
000000d0: 18f6 03be fdb3 a53c a645 9c3c da51 723e
000000e0: e189 7d3e bf16 2bbe c7f5 1bbe db0d 1dbe
000000f0: 3b2d f0bc 7b51 91be 20b5 753d d025 58bd
00000100: bbc8 f03e 21fa 13be bfa2 003f d810 e13d
00000110: db5e cbbd 7597 4ebc 8e8d e8bd 88f4 9abe
00000120: c81f 2b3f f9c1 33bf 3354 98be 0216 69bd
00000130: 1165 243e de6c 27be 2b64 9ebd c6d8 0abd
00000140: f20c c2bd 0174 743e cb67 5bbd 048c b53e
00000150: ccc0 0e3f 7c2d 3f3f 8198 d2bd bfaf bcbe
00000160: 7ca5 63be f10f 843d 007c f33e ceae 36be
00000170: 45b3 38be f6d7 79bd ee03 cbbd 6d03 9e3d
00000180: 1cc0 1abf 485a c8be 5ab6 c53e 18dd d83e
00000190: 1c73 4abd 8325 a13e af68 bf3d c8d2 ce3d
000001a0: e639 353e da9d 2cbe 6894 49be f752 48be
000001b0: be47 f3be 9aa4 f53e 8d07 d8bc 0cfb 0f3f
000001c0: 4908 78be edbb 00be 312f f3bd eab9 1bbf
000001d0: efb9 50be f6ae cb3a 58bc a43d 31dd b03e
000001e0: 2220 403d ae24 2a3e 12fc 17bd e698 7b3e
000001f0: a0dd abbc 8420 153f 6f39 41bd 33a7 223e
00000200: 24dc 783e 3cf4 683d dd24 9c3e 0c88 a53d
00000210: 3e5e b83d 30f3 3e3e 218a e23e 502c 86be
00000220: bdf7 25be 780e a6bd 6d41 1ebf a539 dfbe
00000230: 8aa1 153f f75e b1be a468 1e3e 430d b7be
00000240: fb13 91be f477 c4be cf24 30be 100f d33c
00000250: ba2e f8ba 610d 1fbf 1bd8 dd3e 095a 15bc
00000260: 710e 89be 202d 10bf d663 bdbe ab80 683e
00000270: 4b31 b13e b4ac 41be c5c8 c03e 4bf0 27bf
00000280: eb06 e8bd 2c22 853e f98b 543c d50b 983e
00000290: 1fd5 103f ff9e bfbe daa4 dabe 93bc a13e
000002a0: d0c6 cf3e 8f3d b43d dccf b9be 2dad 5b3e
000002b0: e907 4e3f 66cc 7abe 8e45 183e 5159 ddbe
000002c0: e7c1 7dbe 0cb2 4a3e e23a 29be c102 97be
000002d0: c813 1bbe fe0c 4bbe db69 e73d 828b 4e3f
000002e0: e6b4 edbd a57f 26be ed6e bc3e 418e b73e
000002f0: 854e fb3e ba8c f0bd 2d69 e3be 7c2f 913e
00000300: fe80 d9bc fcbd 0d3f 0013 22bf 6d62 61be
00000310: 3910 d93d 5997 25bb 51f1 613e 9e7a 193f
00000320: 369f 47be 18e9 19bf 2ef5 23be 70a5 c23e
00000330: 3e54 8ebd 3cfc 86be 8cfb f13d 076e 713e
00000340: af3b 56b9 e033 9cbe 2ad2 9c3d f062 febe
00000350: df68 843d 4614 91be f450 413c f9e3 013f
00000360: 59fa 43bf 3692 37be 11ea d33d 11e3 60be
00000370: 4c70 f83d 9f3a f3be 214c c93e a870 a93d
00000380: 0032 703e 1bff 103f 9095 7fbe a760 623d
00000390: 6ef6 973e 280a 0ebe 6e7f a63c 0ceb a63e
000003a0: f0bf ebbe 89db 523d 6bc9 e73d 4067 bb3e
000003b0: 58d6 e6be 5082 13bf 22e9 093e 45ea 923e
000003c0: bab1 e73d 5327 3b3e 713f 8f3d 28e4 4e3e
000003d0: ccba d33e ebe0 473e 4e38 85be 8823 9e3e
000003e0: b14b 18be 6d1f 35bd 226b 863e c35b 0dbe
000003f0: 54e7 383f ffb2 6c3c cad8 58bd b2cc 97bd
-0.22935683 -0.35651827 0.17552353 0.10349246 0.19002654 0.16101632 -0.093620144 -0.39367417
0.3783583 0.09654543 0.04437662 0.2349668 -0.3202174 0.01839589 -0.3567732 0.3399006
0.037306592 -0.37028542 0.50922656 0.0027276897 -0.6935587 0.6079451 -0.44279605 0.48336014
0.6119448 0.16375186 1.7474401 0.022548473 -0.033038326 0.20802857 -0.21102646 -0.44005367
-0.38716915 0.2044922 0.15791816 -0.16014643 -0.39959484 0.30187067 0.1856898 -0.13313483
0.15533535 0.07812355 -0.7199449 -0.2226197 -0.056791686 0.20305815 0.5399995 -0.21639715
-0.14875087 0.32240048 0.16971476 0.068822645 -0.12886846 0.020227427 0.01907618 0.23664036
0.24759628 -0.16707896 -0.15230475 -0.15337317 -0.029318443 -0.28382477 0.059987187 -0.052770436
0.47028145 -0.14450885 0.5024833 0.10989541 -0.099302016 -0.012609352 -0.113551244 -0.30264688
0.6684537 -0.70217854 -0.2975174 -0.056905754 0.16054179 -0.16350123 -0.07733949 -0.033898138
-0.09475125 0.23872377 -0.05356578 0.35458386 0.55762935 0.7467878 -0.10282994 -0.36852834
-0.22231096 0.06448353 0.47555542 -0.1784012 -0.18037136 -0.060996972 -0.09912859 0.07715497
-0.60449386 -0.3913138 0.38615686 0.4235618 -0.049426183 0.31473932 0.09346139 0.10098797
0.17697868 -0.1685709 -0.19685519 -0.19562899 -0.47515672 0.47977144 -0.026370788 0.5624244
-0.2422191 -0.12571688 -0.118742354 -0.6083056 -0.20383428 0.0015539813 0.08043736 0.34543756
0.046905644 0.16615555 -0.037105627 0.24570045 -0.020979702 0.5825274 -0.047173914 0.15884094
0.24302727 0.056873545 0.30496874 0.080825895 0.0900235 0.18647456 0.4424601 -0.26205683
-0.16207786 -0.081082284 -0.6181858 -0.43598667 0.58449614 -0.34642765 0.15469605 -0.35752305
-0.28335556 -0.38372767 -0.17201541 0.025764018 -0.0018934824 -0.6212979 0.43328938 -0.009115704
-0.2676883 -0.56318855 -0.3699023 0.22705333 0.3460792 -0.18913537 0.37653175 -0.6560103
-0.113294445 0.26002634 0.012972825 0.29696527 0.56575197 -0.37425992 -0.42703897 0.31589183
0.4058137 0.08800804 -0.36291397 0.2145278 0.8048082 -0.24492034 0.14870283 -0.43232206
-0.24780999 0.19794482 -0.16526368 -0.2949429 -0.15144265 -0.19829175 0.11299487 0.8068162
-0.11606769 -0.1625963 0.3680338 0.3585072 0.49083343 -0.117455915 -0.4441618 0.2835654
-0.026550766 0.5536802 -0.6331024 -0.22010203 0.10598797 -0.0025267212 0.22064711 0.59952724
-0.19494328 -0.601213 -0.16011497 0.38016844 -0.06949662 -0.26364315 0.11815557 0.23577128
-0.00020430864 -0.30508327 0.07657273 -0.49684858 0.06465315 -0.2833578 0.011799086 0.50738484
-0.76553875 -0.17926869 0.10347379 -0.21961619 0.12130794 -0.47505662 0.39315894 0.082734406
0.23456573 0.5663926 -0.24959397 0.055267956 0.29680198 -0.13871062 0.020324435 0.32601202
-0.46044874 0.051478896 0.11317714 0.3660221 -0.45085406 -0.57620716 0.1346784 0.28694358
0.113131955 0.1827672 0.06994522 0.20204222 0.41353452 0.19519393 -0.2601952 0.30886483
-0.14872624 -0.044219423 0.2625361 -0.13804536 0.7222798 0.014446973 -0.05294112 -0.074120894

bias f4 [10]
00000000: 2460 80be e31b 80be 5114 6fbd 3fdd 0fbd
00000010: a28a dfbd d437 dc3e 7a50 2bbf 831f 0c3f
00000020: 2ff7 97bd ff82 813e
-0.2507335 -0.25021276 -0.058368985 -0.035123106 -0.10915114 0.43011343 -0.6691967 0.54735583
-0.074201934 0.25295255
