model/new/128_gru.model (torch_old, 258366 bytes, 6 tensors)

weight_ih_l0 f4 [384, 28]
00000000: ac3e 3b3b d71e a6bd 5f7c 6bbd 296c 68bb
00000010: c51b edbd 7f58 033d 4261 51bd d591 5d3c
00000020: 2aba 083d be45 b63d abc2 f73d ffb9 6bbc
00000030: c7ea d1bd 90ae e8bd 77d6 ca3c 6520 0c3e
00000040: a984 903e 3ed9 613e 5b95 873e 9c73 303e
00000050: cd29 353d 83b2 1c3d b7d6 003c 7a84 92bd
00000060: 3949 aabd 0900 35bd 0a6a 063b a81a 543b
00000070: c110 01be 4717 743c 7feb 84bc 320b 193d
00000080: 145e 083d c051 80bd 9fe5 4bbc ac8f e23c
00000090: 6888 543e 55fd 6a3d d2c9 483c affb 33be
000000a0: 29c8 5d3c af19 28bc 8e2a 253e 5878 2b3e
000000b0: 5df4 013e 30df ac3e 7b16 1e3e ab5b dd3d
000000c0: 76dc 47bd 0d5a b93c ff49 2cbd 4c10 de3b
000000d0: 734c 583d ab78 8dbd 5fe2 2f3d 9f60 f73c
000000e0: 796c a03a 41c4 60bd 3886 733d 40d9 4c3c
000000f0: d85a 1dbd bcb4 bc3d ed3b 523d bf6a 1b3d
00000100: 5ca8 84bd 26a7 82be 0b2b b2bd fd4a 11bd
00000110: 62ca 36bc 7b70 623e 8e09 9f3e 19ca 683e
00000120: 5c47 6d3e 9281 b73d 78b7 653e d17e 3e3e
00000130: 3018 473e 3580 233e 22b6 0abc d48b ee3d
00000140: 0dde fbbc 6aef 7ebd ee35 2e3c be2f 43bc
00000150: 58ea ea3c dc9a 9abd bc0b d5bd b9bd 463d
00000160: 9477 7eba 05b0 733d 2d82 813d 0803 83bd
00000170: c051 d73c b4cd d13c 34ea e03d dda0 913e
00000180: d5be 3e3e 92a6 37bd ca8d e5bd 0265 48bd
00000190: 36d9 4c3e fe99 393e 1e0d 1c3d ddd3 00bc
000001a0: 9dec adbd a6d4 f8bd ff85 113d 6a11 00bd
000001b0: 8e1e 4c3d c5bc e0bc 00f4 603b 9cfc 323d
000001c0: 7eb5 e33d 6340 b7bc e22d 3e3d be28 273e
000001d0: 8fa4 603e 69b1 353e 5845 053d 52e5 b2bd
000001e0: 87a6 e7bd 9989 9f3d eb8c 3c3d 929f 25be
000001f0: 7de3 16be c46e 9cbe d5b2 12be 0ad6 3a3e
00000200: 1ecd ca3e b9e4 d33e e096 963c 4988 233d
00000210: 3872 7c3d 75e6 83bc 4924 d6bc 1727 4b3d
00000220: 8e9a b13d b6a1 e83c 3db3 38bd 7ac8 3dbd
00000230: bfbf 83bd f524 07bd 52ed 9cbd 6e7e 64bc
00000240: 3bda a43c 0abe a9bc 8239 2e3d b034 0a3e
00000250: db2f 993e bf16 813e d2de 5d3e 9811 363e
00000260: 303a c93d 8e7d f63d 1859 95bd cc30 0dbb
00000270: e893 52be 785f 24be 41cc af3e e69c 643e
00000280: 9f10 cb3d 1340 1f3e ba7b 9b3d c2e1 853d
00000290: 1929 a9bd 37ab 63bd 7e2d 76bd 0a8a 35bd
000002a0: 0adb cfbd 5e13 94bd ce98 6dbd cd4b 333c
000002b0: 8547 513c 762c df3c e34f 9d3d 6d6e 423d
000002c0: 5c53 323e 91c0 f73d 36dd 6e3c 9bb9 de3d
000002d0: 695f dbbb 81f1 a9bd e616 24bd aeba cb3d
000002e0: 92d3 e23d 7c67 413e 5242 b83d 805b f83c
000002f0: 639c fe3b e337 6fbd 0df5 6fbc b50f 83bd
00000300: b7cc 9ebd 2b90 4bbd 6ef9 363c bb3d c0bd
00000310: e6c3 cd3b fb47 b53c e360 573d 51de 06be
00000320: 7c13 2ebd 1b9d 9dbd ee23 1d3e da84 813d
00000330: 7ccb fe3d 5c24 883d 5a8d a43d 3d85 433d
00000340: 2ee2 143d f251 293e 3bb8 903e 0116 5e3e
00000350: b601 bf3c 3de2 1a3e cb30 a13d b294 b63a
00000360: 996d a73d 9cc5 a7bd 9255 94bd 02c5 0a3d
00000370: 99fd 26be c873 b5bc d0ba 0bbe 4507 cebd
00000380: b87b d13b cf1c cebd 1e9d 52bd a0db 6c3d
00000390: 4c12 913d 9dc6 ac3c b51e 36bd 14e6 a3bd
000003a0: 9406 c83d 0106 2b3e 06c2 583e 2b66 d33d
000003b0: 6382 4ebe 3367 8b3d 3849 133e 058f 5a3e
000003c0: 1721 ab3e ac30 733e 5ebf c63d f4c0 bb3d
000003d0: 9016 d23d 31f9 1f3d 963a 2cbd 7161 25bc
000003e0: 203a 82bd 27fd 923c 9e52 fb3c 0148 95bd
000003f0: 97c5 52bd 22a1 89bc d608 4abd fbeb e8bd
0.002857129 -0.08111351 -0.057491656 -0.003546486 -0.11577562 0.03206682 -0.051118143 0.013523539
0.033380665 0.08900021 0.12097677 -0.014387607 -0.10249858 -0.1136142 0.024760468 0.13684233
0.28226212 0.22055528 0.26481137 0.17231601 0.044229317 0.03825618 0.007863692 -0.07154174
-0.08314747 -0.044189487 0.0020509982 0.0032364521 -0.12604047 0.014898128 -0.016225575 0.037364192
0.033292845 -0.062655926 -0.012444883 0.027656399 0.2075516 0.057370503 0.012255149 -0.17576478
0.013536491 -0.01026003 0.16129515 0.16745126 0.12690873 0.3376403 0.15438263 0.108085
-0.048794232 0.022625947 -0.042062756 0.006776845 0.052807283 -0.06907781 0.042940494 0.03019744
0.0012239359 -0.054874662 0.059454173 0.012502968 -0.038416713 0.0921416 0.05132668 0.037943598
-0.064774245 -0.2551815 -0.08699616 -0.035471905 -0.01115665 0.2211322 0.31061977 0.22733344
0.23171753 0.089602605 0.22433269 0.18603064 0.1944282 0.15966876 -0.008466275 0.11647764
-0.03074553 -0.06224004 0.010632975 -0.011913238 0.028676197 -0.07549068 -0.10402629 0.048520777
-0.00097071496 0.059494037 0.06323657 -0.063970625 0.026284099 0.025610782 0.10982171 0.2844304
0.18627484 -0.04483659 -0.11208685 -0.048924454 0.20004734 0.1812515 0.038098447 -0.007863012
-0.08492396 -0.121499345 0.03552818 -0.031266607 0.049833827 -0.027433762 0.0034325123 0.04369794
0.11118601 -0.02236957 0.046430476 0.16324136 0.21937774 0.17743458 0.032536834 -0.08735146
-0.113110594 0.077899165 0.046032827 -0.16174152 -0.14735217 -0.30553257 -0.14326032 0.18245712
0.39609617 0.4138544 0.01838249 0.039924894 0.061632365 -0.016101101 -0.026140349 0.049597826
0.08672057 0.028397422 -0.04509281 -0.046333767 -0.06433057 -0.03299423 -0.07662453 -0.013946159
0.020123592 -0.0207205 0.042535312 0.13496661 0.29919323 0.25212666 0.2166703 0.17780149
0.098255515 0.120356664 -0.07292384 -0.0021543978 -0.20564234 -0.16052043 0.3433552 0.22325477
0.099152796 0.15551786 0.07591958 0.065372005 -0.08259792 -0.055583205 -0.06010198 -0.044321097
-0.101492 -0.072302565 -0.058007054 0.010943365 0.012773399 0.02724288 0.07681253 0.04746859
0.17414612 0.12097276 0.014579108 0.10875245 -0.0066947234 -0.08298016 -0.0400609 0.09947716
0.1107551 0.18887132 0.089970246 0.030317068 0.0077701076 -0.058402907 -0.014645827 -0.0639948
-0.0775389 -0.049698036 0.011167867 -0.09386774 0.0062794564 0.02212905 0.052582633 -0.13170744
-0.04249905 -0.07695981 0.15345737 0.063241675 0.12441155 0.0664756 0.08034773 0.047734488
0.036348514 0.16535166 0.28265557 0.21688081 0.023316246 0.15125366 0.07870635 0.0013929813
0.08175201 -0.08191988 -0.07242884 0.033879288 -0.16307677 -0.022149935 -0.13645482 -0.1005998
0.0063929223 -0.100640886 -0.05141937 0.05782664 0.07083568 0.0210908 -0.04446288 -0.08002868
0.0976688 0.16701509 0.21167764 0.10322221 -0.20166926 0.06806793 0.143834 0.2134362
0.33423683 0.23749036 0.09704469 0.09167662 0.1025821 0.039056007 -0.04204806 -0.010094033
-0.06358743 0.017942978 0.030679043 -0.07289124 -0.051457968 -0.016800467 -0.049324833 -0.11373135

weight_hh_l0 f4 [384, 128]
00000000: 7017 d9bd cfbb d8bd 103a c9bc 368a 21bd
00000010: 0c52 003c 6167 f0bd 1be2 9fbd 0f06 953d
00000020: be14 2dbe 2b52 48bc 2408 6e3d 1267 833d
00000030: 63a6 c8bd 0120 85bd bc1e 2bbd d12d 1bbd
00000040: 4baf 0cbd a002 ad3d 0394 d93d f265 8a3b
00000050: 2746 b73c cc79 043e af30 36be 0c32 a9bb
00000060: a00e d93d c80c aa3d bc4a 4cbd 7820 f23c
00000070: cf4d 5dbd fb57 44bc 4790 91bd d5e4 19bd
00000080: 4379 f13c 5e96 16bd 430e bf3c bbbc 843d
00000090: 6b05 e8bd c8f6 0abd 8b38 013b e8ee 75be
000000a0: 8826 a63a 7c30 973d c0b7 aa3d 2403 ebbd
000000b0: e8ca 2abd 03ca f63d 18c2 0abd f805 b9bc
000000c0: eb48 643c b1bb acbd b9db e33d 8589 74bc
000000d0: cbf2 bcbd 0588 9a3d 364b 24bd 58b4 b5bd
000000e0: fd1d 923b 9d22 a4bd 5831 623d 4d7a 91bd
000000f0: ceb7 01be 9fcc f33c 4266 3e3d ec95 753d
00000100: 8ffb 40bd 9029 18be daee ca3d 90e0 8fbd
00000110: b5a2 39bd d43c afbd 69cc 5f3c b879 813d
00000120: a090 56bc d5da 8bbd dc3f e03d 93c8 43bc
00000130: ca53 81bd 22db 753d 915c 39be 1e18 fe3d
00000140: 4175 8c3d 40cb 643d e54c c73d 916f b5bd
00000150: 1fed 3fbd 5a16 0b3d 74e6 883c 5518 083e
00000160: 405a 19bd 9ce9 323e 6160 abbd 5abd d2bd
00000170: d156 08bd 3241 f63d 11d0 a73d 001f ac3d
00000180: 2c21 1cbd af22 6f3d 8193 1a3d 71dc f0bd
00000190: d9a5 2abd 4366 1e3d 8834 39be 0c9d e4bd
000001a0: dba6 fa3d 04f5 723d 81ff 223e 8402 cebd
000001b0: f9e5 cf3c c0b3 333e 04b7 5a3d 21a0 85bd
000001c0: 712a 143d dae8 c83d b0f5 12bc 50b7 5ebb
000001d0: ab47 66bc cbc2 7dbd 9dbb ee3c 5780 b7bd
000001e0: 21b7 a13d 0b15 b6bd a8d0 a2bc 7012 c9bc
000001f0: 8aa2 87bc c916 19bd d46e 573d 1007 f83c
00000200: 2374 983d e87f 54bd 6c3b 5a3d 8567 8a3d
00000210: 9046 ea3d 65f3 613d 80ed 22be e925 25bd
00000220: ca30 db3d e55b 38be fe93 133e 6841 9b3d
00000230: b3ab 71bd 0010 d43d 3432 36be 2666 81bd
00000240: 460d bc3c 844b 2abc 409c 223c d38a 89bd
00000250: e1d2 af3d d864 743d 6b08 b4bc 77b8 72bd
00000260: df40 c03c b1ea 5b3d 23a3 bc3d af7e 1abe
00000270: 41ca 3ebd 3e38 4f3e eb24 be3d 89b2 03be
00000280: 6862 64bd d976 38be 5c84 51bc 9f4f 733c
00000290: 02f6 d9bc d5c1 dcbb e4e6 523e 34c8 9c3d
000002a0: 442b 8fbd 0d54 1fbc d716 eb3d c4a0 edbc
000002b0: 7098 e2bc de6c 9a3d d48b 073e 8f3a dd3d
000002c0: bcec 103e ab99 873d d3d7 4abd 1cc0 4f3d
000002d0: 33b0 37be 2eef 41bd bdce 933d e92a c83a
000002e0: e72e dd3d 718f 113d 231e bc3d ad06 563d
000002f0: fad0 58bd 4391 29bd 1322 a4bd c354 c93b
00000300: 436e 473c 8623 823b 9586 c13d 64e6 b03d
00000310: a091 7ebb 60c8 753c 4c1b 04be 24e5 eabd
00000320: 6285 cd3d 52a2 e43d dddf 75bd 5318 55bd
00000330: db8f 473e 6c78 473d f041 31be 432e 87bd
00000340: 51cc 383d 489d c0bd f951 6abd 7881 573d
00000350: a365 83bd 1912 56bd 0433 c6bd 907c 8bbd
00000360: d0b4 2b3e e7e4 973d 1add ccbc 941d 7cbd
00000370: 2cc0 8ebd 1d4e a73d fdc7 963c 492f 30bd
00000380: 666d cc3d 2576 bf3c 5df9 f4bd 3697 083e
00000390: 97c4 363d 63f1 0d3d 5dfe ab3c 834e 98bd
000003a0: 66cb 423d 3970 c0bd 7ba4 833d 6223 b0bd
000003b0: baa8 54bd 3255 073e 47e1 303d 4135 143e
000003c0: e2f3 ddbd 2607 4abd d565 4e3b edc0 7fbd
000003d0: bbfa 623d ffd7 ef3c 5b59 2abe 5838 f53d
000003e0: 2f15 0ebe 4a82 8e3c f9c5 f43c 77bc ef3d
000003f0: f83b a73c c6be 8abd 4419 093d ad60 80bc
-0.106001735 -0.10582697 -0.02456382 -0.03943845 0.0078320615 -0.11738468 -0.07806798 0.07276546
-0.16902444 -0.012226622 0.058113232 0.064161435 -0.09797361 -0.06500245 -0.041777357 -0.03788549
-0.03434686 0.08447766 0.10623934 0.0042235786 0.022372318 0.12937087 -0.17792009 -0.0051634368
0.105984926 0.08303219 -0.04987596 0.029556498 -0.054029282 -0.011983867 -0.07107597 -0.037571747
0.029476767 -0.036764495 0.02332223 0.0648131 -0.113291584 -0.033926755 0.001971754 -0.24016917
0.0012676278 0.073822945 0.08335829 -0.114752084 -0.041697413 0.120502494 -0.03387651 -0.022585854
0.013933401 -0.08434237 0.11125893 -0.014925365 -0.092259966 0.07545475 -0.04011079 -0.088722885
0.0044591413 -0.080144145 0.05522284 -0.07103405 -0.12667772 0.029760657 0.04648424 0.05995743
-0.047114905 -0.14859605 0.099088386 -0.07025254 -0.045321185 -0.08556524 0.013659575 0.06322044
-0.013096005 -0.06828848 0.1094968 -0.011949676 -0.063148096 0.060023434 -0.18101718 0.12406944
0.06858302 0.055857897 0.09731463 -0.0885917 -0.046856996 0.033956863 0.016711451 0.13290532
-0.037439585 0.17471927 -0.08367992 -0.10290022 -0.03328592 0.12024154 0.081939824 0.0840435
-0.038117573 0.058382686 0.037738327 -0.11760796 -0.04166207 0.038671743 -0.18086445 -0.11162767
0.122388564 0.059315696 0.1591778 -0.100590736 0.025378214 0.17549038 0.053397194 -0.06524683
0.036173288 0.09810038 -0.008969709 -0.0033983774 -0.014055173 -0.061953347 0.029142195 -0.08960026
0.07896257 -0.088907324 -0.019874886 -0.024544924 -0.016556997 -0.037375245 0.05259593 0.030276805
0.07444026 -0.051879793 0.053279325 0.06758026 0.1143924 0.05516376 -0.15910912 -0.040319357
0.10702665 -0.18003805 0.14411923 0.075808346 -0.059001636 0.10354614 -0.17792588 -0.063183114
0.022955548 -0.010393981 0.009924948 -0.06715932 0.08585144 0.059666485 -0.02197667 -0.05925795
0.023468433 0.053690616 0.09210803 -0.15087388 -0.046579603 0.20236298 0.09284385 -0.12861075
-0.05575791 -0.18014087 -0.012787905 0.014850526 -0.026606563 -0.0067369738 0.2059589 0.07655373
-0.06990674 -0.009724629 0.11478966 -0.029007323 -0.027660578 0.07540296 0.13236934 0.10802185
0.14152807 0.06621107 -0.049522232 0.05072032 -0.17938308 -0.04734724 0.072171666 0.0015271577
0.107999615 0.035537187 0.091854356 0.05225246 -0.05293367 -0.041398298 -0.08014312 0.0061441376
0.012172285 0.00397152 0.094494976 0.086376935 -0.0038844123 0.015001386 -0.12901038 -0.11469486
0.100352064 0.11163773 -0.060027946 -0.05202515 0.1948847 0.048698828 -0.1731031 -0.066006206
0.045116726 -0.09404999 -0.05720708 0.052613705 -0.0641587 -0.052263353 -0.09677699 -0.06810868
0.16768193 0.074167065 -0.025007773 -0.061551645 -0.069702476 0.08169196 0.018405909 -0.043013845
0.099818036 0.023371765 -0.11961625 0.13338932 0.044621076 0.034654032 0.020995313 -0.0743685
0.047557257 -0.09396405 0.064278565 -0.08600499 -0.051918723 0.13216093 0.04318359 0.1447344
-0.108375326 -0.049323224 0.0031493802 -0.062439848 0.055414896 0.0292778 -0.16635649 0.11973637
-0.13875268 0.017396111 0.029879557 0.11705869 0.020414338 -0.067746684 0.03347136 -0.015671099

bias_ih_l0 f4 [384]
00000000: ada3 a13d d453 283d 814b f03b 08e8 6cbc
00000010: 0725 bdbd 8c21 0e3e 5d72 173e 3940 ae3d
00000020: 2a99 7cba 92a8 2f3e 84ac f33d da9f 91bc
00000030: ad98 723d 0c59 4b3e eea0 5e3e 2db9 ff3a
00000040: 379b 3b3d a5b2 253b d3bd 1d3d 245a b3bc
00000050: 0cef ea3d 15c4 973d 401c 283c 07c2 0a3d
00000060: 3ffe a43d 7f47 9bbc 0d27 a33d 4491 113e
00000070: 9c1d 043e ca51 0cbd 62bc 063e e481 2a3e
00000080: 76d1 2a3e 3680 403d 972f ec3d da02 2c3d
00000090: ce4e cf3b 3db3 ccbd bda8 073e 3d6d f63c
000000a0: 1b7c c23d d33a 4dbd a3f0 3cbd 4ba4 c73d
000000b0: 8347 0e3e b697 923e c3b4 fc3d 3fd9 ec3d
000000c0: 2f33 82bd 7e22 d0bb 5552 b0bc d04d f63a
000000d0: cff4 ce3c c43a 8f3e 6f3d 5f3a b9e5 1abc
000000e0: d653 acbb a4b7 7b3d 73a1 d63d 6663 343d
000000f0: 36c2 d23d 5167 313e fc2d 583e 750a b93d
00000100: f676 d33e 09c6 693d c1a5 733d 99b3 a23c
00000110: e395 e53d 262f 293d 838a 54bd e150 533e
00000120: 5c5b a63d 5c7e 533e 37ec 02bd dbe8 9c3b
00000130: c610 47bc 24c3 c13c 442c fcbd 5643 823d
00000140: db05 b33d 6643 493e a76a ca3d a58a 9b3d
00000150: 1cd7 cfbc 6df9 993c 8a5d bd3d bd2e 313d
00000160: 6679 123e e1ee 493d 4838 c03d b081 333e
00000170: 97de 0c3e c7e2 313e 4c24 723d 39e0 5e3e
00000180: 1c37 d63d 72cf 063e 39ec 333e c333 fc3d
00000190: 1c22 cb3d fc8e bd3c e861 943d 73ae bd3d
000001a0: 5b43 b93a e2d1 903c d1f6 e53d ea01 bc3d
000001b0: eb67 0f3e c77a 683e a27e b63d e65a 283e
000001c0: 1069 823d 4a34 c13d 1173 153d a5b8 b43d
000001d0: b4f3 4a3e 981a ba3c f4a2 143d cb90 b13d
000001e0: 098d 623d e544 223d c1a0 273d 8c7d cabc
000001f0: dbe4 0abd ddab 8b3d 7116 413d 2c26 35bd
00000200: 01f9 a33c c5c1 a53d 8a44 8d3e b0d0 533d
00000210: 7e0b e33d c3f8 2f3e bbaf 193d 37e2 3e3d
00000220: e3a5 f43e e440 943e 9d08 5e3e df39 2f3e
00000230: 7bfd 4f3f c042 fabc a18b aa3e 58b0 353e
00000240: e89f f33d fb6f fe3e bfe1 c13d a598 193e
00000250: 3269 2b3e cedb c23e a45b 623e 3bb7 063d
00000260: 9193 273e b059 fb3d 501c fd3e e776 6c3e
00000270: 9e29 c13e 251b a63d 1443 f03d 36a2 4f3e
00000280: b169 6bbc 7d8c e53d 3c6f 343d d44f 5d3e
00000290: b362 083e ebf7 a83e 2f5d c53d 9ec0 333e
000002a0: e451 933e 3a1f c13e 0f27 8e3e 88ef 223e
000002b0: 70e9 5f3e 464f cbbc b7ef bb3e 91a2 513d
000002c0: 8504 ec3d f3fd 573e 7d0d 083d 6f62 9e3e
000002d0: 56ff f93d 6989 4d3d 7fc9 f83d c920 523e
000002e0: df11 503e 475b cdbd 1426 993e b922 063e
000002f0: d90a 0b3f fd3d 7a3e f084 1b3e f2b2 8a3e
00000300: 2e6d 96bd 3c87 163e 0d43 783e 94a5 9cbd
00000310: 91b8 f43d ebca f13c 5d9e af3d 9a3a 1c3f
00000320: 7a85 ce3d 401a 433c d049 103e 6989 193e
00000330: 8906 4c3d 1826 e63d f7b9 f5bd 0014 b23d
00000340: cd2d fc3d 52f7 75bd 4ee4 0f3e ae0c 8a3e
00000350: 29f5 fa3e eda0 7b3e ebae 6f3e ff7c e93d
00000360: 3124 9a3e a716 55ba e514 ec3d 2803 8e3d
00000370: 8321 9b3e bc5d 733e 907b a83e aded 7c3e
00000380: 9266 2c3f 3766 643e df80 b03e 6860 1d3d
00000390: 0f6e ba3d a033 29bd d341 633c 8581 793e
000003a0: 7a9a 143d 4e94 8dbd 909e 2bbd 155b f53d
000003b0: ec49 0e3f 1bdc 393e c46c f13d e871 1e3d
000003c0: 39a7 74bd 0965 103e c8d1 293d 3f9e c63e
000003d0: ec7f 65bd b8d6 0b3e 19c3 023e d741 373e
000003e0: 4d97 3f3e 3379 b73e bccd 463e b41e 083b
000003f0: 86df 5a3e 2bc5 1a3e 2360 da3e 58ac d93d
0.07892547 0.04109557 0.0073332195 -0.014459617 -0.09235578 0.13879985 0.1478972 0.08508343
-0.00096358603 0.17154148 0.11898139 -0.017776418 0.059227634 0.19858187 0.21741077 0.0019510143
0.04580232 0.0025283482 0.03851111 -0.021893568 0.11471376 0.074104466 0.010260642 0.033876445
0.08056306 -0.01895499 0.07966433 0.1421557 0.1290192 -0.034257688 0.131578 0.16651112
0.16681466 0.04699727 0.115325145 0.041994907 0.006326533 -0.099951245 0.13247962 0.030081386
0.094963275 -0.050104927 -0.046127927 0.09748133 0.13894467 0.2863137 0.12339165 0.11564874
-0.06357419 -0.006351768 -0.021523634 0.00187915 0.025263218 0.27974522 0.0008515929 -0.009454184
-0.0052590175 0.06145443 0.10480013 0.044040106 0.10290949 0.17324568 0.21111292 0.09035198
0.41301697 0.057073627 0.059484247 0.01986103 0.11210229 0.04130473 -0.051889908 0.20636322
0.08122894 0.20653671 -0.031963553 0.0047885007 -0.012149995 0.02365262 -0.123131305 0.063604996
0.08741351 0.19654617 0.098836236 0.07594804 -0.025371127 0.018795693 0.09246357 0.043257464
0.14304122 0.04930008 0.09385735 0.1752994 0.13756786 0.17371665 0.059116647 0.21765222
0.1045973 0.13165072 0.1757058 0.1231456 0.09918615 0.02313947 0.07245237 0.09261789
0.0014134453 0.017678205 0.11228717 0.091800526 0.14004485 0.22703086 0.08910872 0.16440925
0.06367695 0.094338015 0.03648669 0.08824281 0.19819528 0.022717759 0.036288217 0.08670195
0.055310283 0.039616484 0.04092479 -0.024718069 -0.03390966 0.0681989 0.047140542 -0.044225857
0.020016195 0.08093599 0.27591354 0.05171269 0.11086176 0.17184739 0.037521105 0.046602454
0.47782812 0.28955758 0.21682973 0.1711192 0.81246156 -0.030549407 0.33309653 0.17743051
0.11895734 0.4969481 0.09466886 0.14999636 0.16739348 0.38058323 0.2210527 0.032889586
0.16364886 0.12272966 0.49435663 0.23092233 0.37727064 0.08110646 0.11731544 0.20276722
-0.0143684605 0.11208437 0.044051394 0.21612483 0.13318901 0.33001646 0.09636914 0.17553946
0.28773415 0.37719136 0.27764174 0.15911686 0.21866393 -0.024818074 0.36706325 0.051180426
0.115242995 0.21092968 0.03321599 0.30934474 0.122069046 0.050179873 0.12147807 0.20520319
0.20319317 -0.100271754 0.29911864 0.13099183 0.5431343 0.24437709 0.1518743 0.2708965
-0.07345043 0.14700025 0.24244328 -0.07648769 0.11949266 0.029515704 0.08575127 0.6102692
0.100840524 0.011908114 0.14090657 0.14993824 0.04981092 0.112377346 -0.119983606 0.08695221
0.12313423 -0.060050316 0.14051935 0.269628 0.49015167 0.24573107 0.2340657 0.11400794
0.30105737 -0.00081286806 0.11527423 0.06934196 0.30299005 0.23766226 0.3290677 0.24700041
0.6734401 0.22304617 0.3447332 0.03842202 0.09103023 -0.041309 0.013870674 0.24365814
0.036280133 -0.069130525 -0.041899264 0.11980263 0.55581546 0.1815037 0.117883235 0.03868285
-0.05972979 0.14101042 0.04145983 0.38792607 -0.0560302 0.13656127 0.12769736 0.1789621
0.1871006 0.35834655 0.19414419 0.0020770254 0.2137433 0.15114276 0.42651471 0.10628575

bias_hh_l0 f4 [384]
00000000: d5f7 943d 3058 ae3d ad98 07bd 035f ed3b
00000010: a2dc eebc 582c 9c3d 03e9 a73d 734a 123d
00000020: bfc1 1e3d 275b c53d b068 303e 6aa4 be3d
00000030: debf 3d3e 48c7 523e ac06 353e 10e5 583d
00000040: 22b2 03bc edc6 3d3d b1bc 02be 4a10 3e3d
00000050: e932 743e d0d3 143e b2ec 983d b9e4 abbd
00000060: 73d8 953d 6c08 3dbc 1a6a 003e d857 dd3c
00000070: eb4c 133b fd54 9c3c 7b2a 033c 6695 853e
00000080: 3361 003e 101f 453e ce6a c43c 7786 e63d
00000090: e517 be3a 1d8f abbd fd05 2d3e 12bf 87bb
000000a0: 36d2 1e3e 69f3 31be 3a6d 073d 3c93 c23d
000000b0: 88b3 513e 29d4 533e 3f97 e03d 65ed 0b3d
000000c0: b2eb 68bd 8af6 123b c89c b13c 3bcd bdbc
000000d0: 79be 4d3d f5cc 0b3e 37b5 ed3c 995a 03bd
000000e0: ce5e be3d 86e0 df3c f681 d7bc cb44 ec3d
000000f0: 862a 1fbc 7913 203e 7358 3f3e a302 993d
00000100: 6f2c d23e c4c2 2b3d 9437 d73d dbc9 9e3d
00000110: 2fc4 023d 3eb1 5f3d e7a0 ff3b 0bc4 1f3e
00000120: 4569 243e 52dc 463e 05ec 013e 8e04 7b3d
00000130: bfd5 c2bc b4e2 0d3d da8f a5bd a55e aa3d
00000140: 77db 81bb f463 473e 20cd 0d3e 73b1 313d
00000150: 6c8c 89bb f591 89ba c843 2b3e 329c c9bd
00000160: 5aeb 7c3d 448f 4dbb 0541 aebb b6bf 343e
00000170: 0a32 2d3e ebb1 2d3e bc6f e23d 8b2c 973d
00000180: 9ca7 b63d 0dd7 243e 3c62 233e 30f0 093e
00000190: bc6f a93d f14b 963d c89a 99bd debf 3a3e
000001a0: a88e c43d 1212 1b3e 5261 23bc a5b1 1a3e
000001b0: d626 4b3d a0c0 073e 5fce f7bc 5c5e 1b3e
000001c0: 003a 333c 7292 273d a387 133c 675e c23d
000001d0: 2ee2 633e d041 10bd ea89 1f3e e2b0 a83d
000001e0: 18d5 54bd 35eb 0d3e 7f26 1b3e 137e 85bc
000001f0: c759 a83d 74a8 633e 0514 7b3d 8901 9dbc
00000200: d2b0 643d 0bcc 95bd 259e 213e c4e2 273a
00000210: 4e9b 063e c06d 733e 627a ee3d 83a7 1f3e
00000220: 1d33 033f 1faf 463e c011 933e 1e97 113e
00000230: e38c 543f c24c e3bd 75cc c53e 46c8 863e
00000240: a115 293e bdde c73e bc87 473d 3239 313e
00000250: b931 543e 0637 a83e 0386 953e af47 943b
00000260: e92f 5b3e 0b93 573e ace6 093f fe16 a93e
00000270: 9c3b 8f3e e5ff c13d 6a77 703e 6986 1d3e
00000280: 18b2 74bc cc1d 5e3e 17d4 213e 8f3a 4e3e
00000290: 660d 4c3e 3d36 8f3e da20 a33d 4517 6e3e
000002a0: 2ecf a33e fabd 953e 6ead 6a3e df02 1c3e
000002b0: 9aef 163e 8728 653d 719a 993e c118 8f3d
000002c0: 5abc 833d 1ef2 303e bede 81bd c8c0 133e
000002d0: 242b d3bb b688 d73d 5b3e b8bc 3cf7 f23d
000002e0: bda0 723e f043 6fbc 1fb1 8f3e 9cd0 853d
000002f0: acdc 013f 6318 723e 8e55 893e d357 573e
00000300: cfce cfba 629c d63d 623e 3a3e ac7b 163d
00000310: 20f4 e93d 8e13 193d db35 623d 57ba 1d3f
00000320: 6d1c 183e 4335 2e3e 934d 3c3e 6732 083e
00000330: 3dde fc3d 64e1 a23d 122c 37be b372 503d
00000340: d2ce 153e cab8 363d de72 d73d 7d5e ab3e
00000350: e2ec f73e b916 da3d 9416 2f3e 6158 883e
00000360: 1099 9a3e 4ad9 cb3d 4a19 d63b c727 0c3b
00000370: 2d2f a93e 0b9f a93e 68f7 863e 9934 973e
00000380: 12e4 133f b8c8 353e cbed 943e 81fe ac3d
00000390: 4588 4e3c 29d4 373d 5c65 7a3d ff92 c63d
000003a0: 25ed ca3c a7a4 0dbe 4ce6 003e c7be 673d
000003b0: 4163 0d3f 0f99 b53d fa04 0a3e ebd8 3a3d
000003c0: ba1a 83bd 07cf 323e 0551 293d 8ed3 033f
000003d0: a092 c5bd 8ca5 be3d 3061 b23d e0de 393e
000003e0: 8436 4d3e 97c3 9c3e 5a37 503e 1ef7 813a
000003f0: 5267 023e 021a 053e e2b1 af3e 9990 8b3d
0.07273833 0.08512914 -0.033104587 0.0072439923 -0.02915794 0.076256454 0.0819874 0.03571553
0.03875899 0.096365266 0.17227435 0.09308703 0.18530223 0.20583832 0.17678326 0.052952826
-0.008038076 0.04633229 -0.12767293 0.046402253 0.23847546 0.14533925 0.07467021 -0.08393235
0.07316675 -0.011537652 0.12540475 0.027019426 0.0022476267 0.019083494 0.008005734 0.26090544
0.12537079 0.1925013 0.02397671 0.11256116 0.0014502971 -0.08376906 0.16896816 -0.0041426504
0.15509877 -0.1737801 0.03306315 0.09500739 0.20478642 0.20686401 0.10966348 0.034161944
-0.0568654 0.002242478 0.021681204 -0.02316915 0.050230477 0.13652404 0.029017074 -0.032068823
0.09295426 0.02732874 -0.026307087 0.11536559 -0.009714728 0.15632428 0.18686084 0.07471206
0.41049525 0.04193379 0.105086476 0.077533446 0.031925377 0.05461239 0.0078011635 0.15602128
0.16055782 0.19419983 0.1268769 0.06128364 -0.023783563 0.03464003 -0.08084078 0.08318833
-0.00396293 0.19471723 0.1384778 0.04338212 -0.004197648 -0.0010495769 0.16725075 -0.09844245
0.061747886 -0.003136591 -0.0053178095 0.17651257 0.1691362 0.16962402 0.11056468 0.07381543
0.08918688 0.1609766 0.15955442 0.1347053 0.08273265 0.073387034 -0.07500225 0.18237254
0.09597522 0.15143612 -0.009971933 0.15106829 0.049597584 0.13257074 -0.030249773 0.15172714
0.010939121 0.040911146 0.009004506 0.09490662 0.2225425 -0.035219014 0.15579954 0.08236863
-0.051961035 0.13859256 0.15151404 -0.016295468 0.08220249 0.22232229 0.06129839 -0.019165771
0.05583269 -0.07314309 0.15782984 0.0006404335 0.13145182 0.23772335 0.116444364 0.15591244
0.5124987 0.19402741 0.2872448 0.14217803 0.83027476 -0.11098625 0.3863255 0.26324672
0.16512157 0.39037123 0.04871343 0.17306975 0.20722093 0.3285448 0.29203805 0.004525147
0.21404995 0.21052186 0.538676 0.33025354 0.27975166 0.09472636 0.23483053 0.15383305
-0.014935039 0.21691054 0.15803562 0.20139526 0.19926986 0.27971068 0.0796525 0.23251064
0.31994003 0.29246503 0.2291772 0.1523547 0.14739838 0.055946853 0.30000642 0.06987143
0.064324096 0.1727986 -0.06341313 0.14429009 -0.0064443517 0.105241224 -0.02249067 0.118635625
0.2369413 -0.0146036 0.2806482 0.0653393 0.50727344 0.23642115 0.26823086 0.21029596
-0.001585448 0.104790464 0.1818786 0.036739036 0.11423516 0.037372164 0.05522714 0.6161246
0.14854594 0.17012505 0.18388967 0.13300477 0.12347076 0.07953146 -0.17887905 0.050890636
0.14629677 0.044609822 0.10519956 0.33470526 0.48422915 0.10648865 0.17098457 0.26629928
0.30194902 0.09953554 0.0065337764 0.0021386014 0.33043805 0.33129153 0.2636063 0.29532316
0.5776988 0.1775235 0.29087672 0.0844698 0.012605731 0.044880066 0.06113182 0.09696006
0.024771282 -0.13832341 0.12587851 0.056578424 0.55229574 0.08867084 0.13478461 0.045617025
-0.06401582 0.17461787 0.041337032 0.5149468 -0.09647107 0.09308919 0.08709943 0.18151426
0.20040327 0.30617973 0.20333615 0.0009915566 0.12734726 0.12998202 0.343154 0.06814689

weight f4 [10, 128]
00000000: fcb0 73be 64a6 b0be cbe0 653e 45b2 eb3d
00000010: f399 3b3e 2bec 1e3e fce7 043c daf8 bfbe
00000020: 4101 b53e 15f9 dd3b c25d a13d 76d2 433e
00000030: b60a b6be 8509 663d 16bc 98be df64 913e
00000040: 4fb1 e0bc a6ae b3be af9f 083f e70d a9bd
00000050: 7f64 09bf 4077 e63e 913f dcbe 6723 0b3f
00000060: 572b 023f 3060 303e 356e d93f 4d35 1b3c
00000070: fe7d 8f39 6c84 123e a893 acbe 2e10 fbbe
00000080: 004d c2be 32d7 9e3e 5e38 913d f52b 68be
00000090: d82d b9be d4ce 583e 07ed 733e e585 49be
000000a0: 6b45 fabc b0de b53d 9a0f 20bf 136f 1dbe
000000b0: 85de 0abe 9a78 013e b673 303f 8c4a aebe
000000c0: 1cae 3bbd 034a 883e 3e72 863d bab1 093d
000000d0: 93f2 52be 7a02 01be 9e7a e03c c92c 8e3e
000000e0: 440f a43e 30f0 f3bd 5c33 b3bd 5511 14be
000000f0: 3b59 063d 2bc8 56be 5c89 113d 19e0 8d3d
00000100: a760 fc3e f50b 07be 2150 0a3f 97d1 b13d
00000110: 2183 63bc 2bc9 79bc 4e5e febd 960d 74be
00000120: 9daf 323f ffd1 59bf 97a4 8ebe adc1 75bd
00000130: 8a13 003e edba 27be 3510 f9bd fdcb fc3d
00000140: 8ff2 f6bd a2f1 8a3e 69e9 b3bd f446 973e
00000150: f16a 033f bb02 2d3f 0308 1cbe 85b5 a0be
00000160: 5bed 57be 2f8e f83d b538 e63e efc3 60be
00000170: 99d8 16be 1517 8bbd 92b4 493d 74c6 383d
00000180: c7b8 f5be c9a6 c7be bece e73e 1b79 9a3e
00000190: d419 65bb e806 1a3e dd1c e23d 8eef 103e
000001a0: c976 5a3e ade1 e8bd 6285 39be 2ae6 043c
000001b0: 4fd6 ecbe 5081 073f 8817 c6bd 3928 f03e
000001c0: 9a50 64be 26dc d4bd 1e88 dfbd 585f 31bf
000001d0: c3a8 6bbe 6eef 2c3d 8b38 1f3d 5e23 f53e
000001e0: e259 193d 2d27 923d 8a82 c5bc 7b4f 623e
000001f0: c7d4 f9bc 3864 2e3f 340d 1bbe 56d7 d73d
00000200: 0ecd 543e ac23 b63d 4c8d d73e c663 7e3d
00000210: ab53 173d da55 803e 0c6d a03e f819 a9be
00000220: 6359 28be bd66 03be 49f9 fbbe cc66 c3be
00000230: 7a9e 103f 3458 a0be 40a5 873d 821d acbe
00000240: ba5f 22be 3437 d3be ef93 05be acff 143d
00000250: 2c63 05bc cdfc e5be 8b94 bb3e 2724 823d
00000260: 69c8 67be c901 f7be 0ff9 85be 8c13 4f3e
00000270: 1059 083f 8b9d 62be a98d a03e 459a 6ebf
00000280: f7aa 3dbe 66ed 933e c4f9 733b 0b14 883e
00000290: ed29 063f a516 9cbe cfd8 0bbf 4816 aa3e
000002a0: 53a3 923e 0749 3a3e 515e 9fbe 6985 2b3e
000002b0: beba 4b3f 6736 8dbe 90af 113e 0894 eabe
000002c0: 373c 91be 5db5 6a3e 8e52 0abe 0b08 7abe
000002d0: 96be d8bd 76b0 5bbe a2ef a33d 5648 313f
000002e0: 6cbb 973b 62f3 40be d2b2 a33e a574 be3e
000002f0: f124 0c3f b34a 96bd 97c1 adbe 998e b93e
00000300: d1e3 13bd 76c5 0b3f a104 07bf be7a 6fbe
00000310: 5ccf 203e c401 7aba 6a86 543e 2ea0 0f3f
00000320: 7702 50be c5ca 12bf 27a9 39be 0a0c 713e
00000330: 3c15 fbbc 9352 96be 78e3 b93d d1a7 673e
00000340: 2e88 9abd 0380 a5be 76f1 3e3d 4936 15bf
00000350: 0edb 913d 4aab 34be 504e 103d 9b83 0b3f
00000360: ac14 79bf 2a86 aebe 3e84 1d3e b5cf 91be
00000370: 708f e2bc d93b b2be 7f1f e13e 1d4a 1b3e
00000380: 5c04 833e d881 1c3f 9d49 28be 933d ca3d
00000390: f10e 9d3e 4d5b e9bd ceca 163d a354 1f3e
000003a0: 5eaa 10bf 763e ed3c a2cb a7b9 f0ea 4b3e
000003b0: f90c d3be f9f7 23bf d3ff 1c3e 5e53 8a3e
000003c0: 0fb1 6d3c f25c 5e3e 3e3c 013d f4ec 513e
000003d0: 9973 073f 5988 943e 5a43 6fbe 07be 0d3e
000003e0: a077 0dbe c986 cfbd 538e 0f3e 4c3b 32be
000003f0: b886 3f3f 3b5a 9dbd f287 8bbd d4bb a4bd
-0.23797983 -0.34501946 0.22449033 0.115086116 0.18320446 0.15519778 0.00811195 -0.37494546
0.3535252 0.0067740777 0.07879211 0.19123253 -0.35555047 0.056161422 -0.29830998 0.2839727
-0.027428297 -0.35094184 0.5336866 -0.08254605 -0.5366897 0.45012856 -0.43017247 0.54350895
0.5084738 0.17224193 1.6986758 0.009473157 0.00027368957 0.14308327 -0.33706403 -0.49035782
-0.3794937 0.31023556 0.07090829 -0.22673018 -0.36167789 0.21172649 0.23820888 -0.19679983
-0.03055068 0.08880365 -0.62523806 -0.15374403 -0.13561447 0.12643662 0.6892656 -0.3404125
-0.04582034 0.26618966 0.06564759 0.03361676 -0.20600347 -0.12598601 0.027402218 0.27768543
0.32042897 -0.119110465 -0.087500304 -0.14459737 0.03279994 -0.20974796 0.035531387 0.06927509
0.4929249 -0.13188155 0.54028517 0.08682554 -0.013886244 -0.015245716 -0.12420331 -0.23833308
0.69799215 -0.85086054 -0.27859947 -0.059999157 0.12507454 -0.163799 -0.12161294 0.12343595
-0.12057983 0.27137476 -0.08784754 0.2954632 0.51335055 0.6758229 -0.15237431 -0.31388488
-0.21086638 0.12136494 0.4496514 -0.21949743 -0.14731063 -0.06791512 0.04924447 0.045111135
-0.47992536 -0.38994434 0.4527492 0.3017052 -0.0034958022 0.15041697 0.110406615 0.14153883
0.21334375 -0.11371169 -0.18117288 0.008111516 -0.46257254 0.5293169 -0.09672457 0.46905687
-0.22296372 -0.103935525 -0.10914634 -0.6928611 -0.23013596 0.042220525 0.038872283 0.47878546
0.037439235 0.071363784 -0.024110097 0.22100632 -0.030496968 0.6812167 -0.15141755 0.10539119
0.20781347 0.088935226 0.42099988 0.06210687 0.036945026 0.250655 0.31333196 -0.33027625
-0.16440348 -0.1283216 -0.49213627 -0.38164365 0.56491816 -0.31317294 0.06623316 -0.33616263
-0.1585683 -0.41253054 -0.13044713 0.03637664 -0.00814132 -0.44919434 0.36636767 0.06354552
-0.22635044 -0.4824355 -0.2616658 0.202223 0.532609 -0.2213041 0.31358078 -0.93204147
-0.18522249 0.28892058 0.003722773 0.26577792 0.52407724 -0.30486026 -0.546277 0.33220124
0.28640231 0.1819192 -0.31126645 0.1675011 0.7958182 -0.27580568 0.14227128 -0.45816064
-0.28366253 0.22920747 -0.13508055 -0.2441713 -0.105832264 -0.21454033 0.08004691 0.69251
0.0046304967 -0.18842843 0.31972367 0.37198368 0.5474387 -0.073384665 -0.3393676 0.36241606
-0.036105935 0.54598176 -0.5274144 -0.23386666 0.15704101 -0.0009537006 0.207544 0.5610379
-0.2031344 -0.5734065 -0.18130933 0.23539749 -0.030649774 -0.29359874 0.09076589 0.2262261
-0.075455055 -0.32324228 0.046616994 -0.5828596 0.071218595 -0.17643467 0.035230935 0.5449769
-0.9729717 -0.34086734 0.15382478 -0.2847878 -0.027656287 -0.34811285 0.43969342 0.1516499
0.25589263 0.61135626 -0.16434331 0.098750256 0.30675462 -0.11394367 0.036814503 0.1555963
-0.5650996 0.028960448 -0.0003200444 0.1991384 -0.41220835 -0.6405025 0.15331964 0.2701673
0.014507546 0.21715143 0.031551592 0.20500547 0.52910763 0.29010275 -0.23365536 0.13842021
-0.13815165 -0.1013313 0.14019136 -0.17405432 0.7481494 -0.07683226 -0.06813039 -0.08043638

bias f4 [10]
00000000: 1a99 72be 5184 72be 3b70 82bd 4352 2cbd
00000010: b8ec 01be e847 e53e 40c0 2abf 12ae fd3e
00000020: 834f c0bd 8174 9d3e
-0.23691216 -0.23683287 -0.063690625 -0.04207064 -0.12687957 0.44781423 -0.666996 0.49546868
-0.09390166 0.30752948
