model/new/128_lstm.model (torch_old, 339988 bytes, 6 tensors)

weight_ih_l0 f4 [512, 28]
000000 51 33 a7 3d e2 b3 79 bc 5a c7 6b 3c 71 b5 e3 3d
       0.08164085 -0.015240641 0.014390791 0.111185916
000010 70 ab 54 3c d3 38 bd 3e 0c de 3b 3e 0d 74 a6 3e
       0.012980327 0.36957416 0.18346423 0.32510415
000020 b8 4c da 3e 3d a8 c1 3e e1 f9 b1 3e 69 ff 9c be
       0.42636657 0.37823668 0.34760955 -0.30663612
000030 48 18 f7 be ad cd 09 3e f1 fe 19 bc fc 93 1c be
       -0.48260713 0.13457365 -0.009399162 -0.15290827
000040 0b 47 d7 be 6e d3 90 bc 8c 7c da 3e 63 59 e4 3e
       -0.4204639 -0.017678943 0.42673147 0.44599447
000050 d2 bc 95 3e 66 03 3e 3e dd f2 89 3d 89 ce 68 3d
       0.2924562 0.18555984 0.067357756 0.056837592
000060 bb 95 a5 bd a8 f2 b3 bd bd d3 af 3d b8 03 af 3d
       -0.080851994 -0.087865174 0.08585308 0.08545631
000070 a5 46 c2 bd ec e6 48 3d f8 42 84 3c 1c fe 89 3d
       -0.094861306 0.04904835 0.016145214 0.06737921
000080 3d 96 80 3c 93 7e 1d be e1 69 e8 bd 17 71 76 bd
       0.01569664 -0.15380315 -0.1134832 -0.060166445
000090 24 d1 2a 3d 8e 74 9e 3d 9f d9 44 3e a1 1c a1 3d
       0.04170336 0.07737075 0.19223641 0.07866789
0000a0 8f ea 4f 3e 3e 1d 2f 3d d3 12 72 3e dd d6 26 3e
       0.20304321 0.042752497 0.23639993 0.16292901
0000b0 87 53 94 3d d9 97 79 3d 6e 1c 99 3c f7 cd 12 3e
       0.07242494 0.06093583 0.018690314 0.14336382
0000c0 e7 7d 4e bc 64 3b c5 bd 7a d9 17 be c8 1e 90 bd
       -0.01260326 -0.096304685 -0.14829054 -0.07037121
0000d0 d9 77 52 bd 22 87 f7 bd 85 02 7b 3d 4e e3 51 3d
       -0.051383827 -0.120863214 0.0612817 0.051242165
0000e0 7d 62 15 bd 84 b0 c1 bd c8 2c be 3c 5b 62 b5 3a
       -0.03647088 -0.09457496 0.023214713 0.0013838516
0000f0 f9 b5 66 bd cc 8c a2 3d 5e e1 21 3e b9 ae 4d 3e
       -0.056325886 0.07937011 0.15808627 0.20086183
000100 ea 14 01 3e 28 a0 98 3d d1 5c 12 bc ea 9c c6 bc
       0.12605634 0.074524224 -0.008933262 -0.024244744
000110 af 5b e6 bd 9b ee c3 bc 0e 6d 99 3e 45 e7 81 3e
       -0.11247956 -0.023917487 0.29966015 0.25371757
000120 fb af f2 3c 87 89 e6 3b 13 06 aa bb d3 15 b3 bd
       0.02962493 0.0070354375 -0.0051887124 -0.08744397
000130 ec 6f aa 3d 54 bc b7 3d 69 01 71 bd 43 95 3c 3d
       0.08322129 0.089714676 -0.058839235 0.046040785
000140 67 a2 91 bd 87 4f 84 bd a3 f9 b8 bc bb 36 33 bd
       -0.07111054 -0.06460481 -0.022579974 -0.043753367
000150 5c 6e 2c bb 45 c3 d3 bd 87 26 07 be 33 86 af 3c
       -0.0026310897 -0.10339979 -0.13198291 0.021426296
000160 fa bc 04 bc 44 9f a5 3e 58 e1 58 3e e2 ff 08 bd
       -0.008101696 0.32348073 0.21179712 -0.033447154
000170 d2 ec a0 bd 27 da 7a bc de 99 79 be 84 1d f2 bd
       -0.0785767 -0.015310801 -0.24375102 -0.11822036
000180 70 21 15 be 58 ce a1 be 19 f9 90 be f0 94 8e be
       -0.14563537 -0.3160274 -0.28315046 -0.27848005
000190 d9 b8 be be 67 a8 c9 be 4e cf 7b be b0 0d 15 be
       -0.37250403 -0.39386293 -0.24590799 -0.14556003
0001a0 36 71 c7 bd 3c 0f 59 be 0f 26 33 bd ed df a9 bd
       -0.0973839 -0.21197218 -0.043737467 -0.082946636
0001b0 75 29 86 3c 0b fc 1f bc b0 1a fe bc 88 78 1a 3c
       0.01637719 -0.009764682 -0.031018585 0.009428151
0001c0 54 87 7d 3d c3 5d a6 bd 38 78 97 bb 71 35 8f 3c
       0.061896637 -0.081233524 -0.0046224855 0.017481538
0001d0 27 59 5d bd 43 71 c3 3c 6e 63 d6 3d 43 2c 3a bd
       -0.0540401 0.023857718 0.104681835 -0.045452368
0001e0 bc 69 19 bf d8 43 23 bf dd 13 3e bf 6f bc 9a be
       -0.5992696 -0.63775396 -0.7424906 -0.30221888
0001f0 2b 6a 1c 3c c8 ce 7f 3e a5 43 ce 3d d1 89 e6 bd
       0.009546797 0.24981225 0.10071496 -0.11256755
000200 cb 6b af bc 27 af a2 be c7 63 77 be 4f e2 92 bd
       -0.021413704 -0.31774256 -0.24159156 -0.07172071
000210 8f 87 bb bd 7e 0a 57 be a0 e9 d6 bd e4 c3 10 3e
       -0.09156715 -0.21000096 -0.10493779 0.14137226
000220 ee 97 c7 3d e5 bc 1f 3c 93 e1 d7 bd 61 54 c4 bd
       0.09745775 0.009749626 -0.10541072 -0.095864065
000230 92 35 7f bc 36 e0 5d 3c 6b 9b d9 bc ef 91 8a 3d
       -0.015576737 0.013542226 -0.026563367 0.06766116
000240 e4 73 bc 3d 2b b5 7d 3d 6d 46 cd 3d 22 0d 6a 3d
       0.09201792 0.061940353 0.10023198 0.05714143
000250 78 59 f2 3d 7b f7 10 3e 07 53 4b bb 8a 02 0a 3e
       0.11833471 0.14156906 -0.003102483 0.13477531
000260 54 29 b6 3d 7e 5f d1 3d 1a f5 ce bd bd 01 df bd
       0.088946015 0.10223292 -0.10105343 -0.108890034
000270 52 24 9d bd 47 52 65 bd 86 25 18 3d fd be 55 bd
       -0.07672943 -0.05598667 0.03714516 -0.052184094
000280 09 d9 e2 bd 95 66 4b 3d f1 78 aa 3d ad 30 cb 3d
       -0.110765524 0.049658377 0.08323849 0.099213935
000290 5c ea 5b 3a d5 4d 77 3d 5a 4e ad ba 66 c8 b1 3b
       0.0008389109 0.06037696 -0.0013222203 0.0054255007
0002a0 54 da e7 bd 46 7c ac bd f6 aa 75 bd 2b 35 bc 3d
       -0.1132094 -0.08422141 -0.059977494 0.091898285
0002b0 5a 73 cb 3d 42 1d 37 3e 87 de 0b bd 52 c1 a9 3e
       0.09934111 0.17882255 -0.034147765 0.33155304
0002c0 65 6e bd 3d 67 f5 a5 3c b6 3e 07 be 13 f1 91 bd
       0.09249572 0.020258619 -0.13207516 -0.071260594
0002d0 32 ab 05 bf 72 da c7 be 32 7e 12 3e bf 00 84 3e
       -0.5221435 -0.39033848 0.14305952 0.2578182
0002e0 d1 0d 03 3f 6d 10 19 3e 77 12 58 be 8a 1a 85 be
       0.5119296 0.14947672 -0.21100794 -0.2599681
0002f0 fb a1 40 be b9 61 9d 3c ba 24 15 be 3d 84 b0 be
       -0.1881179 0.019211637 -0.14564791 -0.3447589
000300 5a 7b b5 be c7 43 43 be 98 94 a7 bc 0c b2 c9 bd
       -0.35445672 -0.19068824 -0.020456597 -0.09848413
000310 b0 d1 22 3d 4b 2d 6d 3d 62 c7 b9 3d 81 04 34 bd
       0.039750755 0.057904523 0.090712324 -0.043949608
000320 bb 41 4e 3d f1 2f 08 bd a7 b6 1d 3c 83 c1 46 be
       0.050355654 -0.033248845 0.009626067 -0.19409756
000330 76 8f a2 3b 94 44 64 3e 66 96 42 3e b2 67 d0 3e
       0.0049609495 0.22291785 0.19002685 0.40704113
000340 76 fb e9 3e 67 7d 7e 3e f6 e8 18 3e cd e6 73 3e
       0.45699662 0.24852525 0.14932618 0.23818512
000350 a7 10 62 3e 01 44 ad bd f8 9c f2 bd 6f 6d da bd
       0.22076665 -0.08460236 -0.11846346 -0.10665404
000360 f2 d5 12 bc 3c 2f 89 bd 51 21 ef bd 21 86 0d be
       -0.008962141 -0.06698462 -0.116762765 -0.13820697
000370 dc 73 90 be 8b f9 35 bd 7b 04 ab bd 86 1e 71 bd
       -0.28213394 -0.044427436 -0.08350464 -0.058867
000380 da 8b 20 3d 9a 8e 8b bd aa 9d da bc d0 1f 7c 3d
       0.039195873 -0.068143085 -0.026686508 0.061553776
000390 77 f2 81 3d 9f 5b 30 3d b1 55 b2 bc 70 d2 23 3d
       0.063450746 0.043056127 -0.021769376 0.03999561
0003a0 8f ab 69 3e 27 62 0c 3e 94 d8 df 3c c9 e1 c6 3d
       0.2281935 0.13709317 0.027324952 0.09711034
0003b0 6c 3f c0 3c 43 36 58 3e c4 d9 8e 3e 23 1d c7 3e
       0.023467742 0.21114449 0.27900517 0.38889417
0003c0 b5 5b b9 3e 5a 3f 51 3e cb d4 13 be da 36 61 be
       0.3620278 0.20434323 -0.14436643 -0.2199358
0003d0 70 6d 59 bd f9 5f b0 bc 22 e7 db 3b 62 1e 72 bd
       -0.053082883 -0.021530138 0.006710903 -0.059111007
0003e0 3e 7f 03 be 15 34 49 3d 90 9f 94 3d 8d de 0d bd
       -0.12841508 0.049121935 0.07256997 -0.03463607
0003f0 90 a0 9f 3c 9e 73 5b 3d b6 73 f5 3c 4b 2e 16 bb
       0.019485742 0.053577058 0.029962402 -0.0022915776

weight_hh_l0 f4 [512, 128]
000000 97 c7 e8 3c 3e 03 29 3e ae fa 80 3d ff 6b e1 3d
       0.028415484 0.16505143 0.06297813 0.11006927
000010 9f 21 82 3d c4 60 f0 bb 72 ca 82 3d 7c 65 9d 3c
       0.06354069 -0.007335754 0.0638627 0.01921343
000020 cd f1 a4 3c f7 e1 c0 3d 05 bd 9c bd 2d 9b 08 be
       0.02013483 0.094180994 -0.0765324 -0.13340445
000030 d5 25 c8 bd 43 15 b3 be 33 7b 02 be b6 49 8a bd
       -0.09772841 -0.3497716 -0.1274231 -0.067523405
000040 03 38 57 be 5e 18 43 3e e7 3c 04 be 01 ac 01 3e
       -0.2101746 0.19052264 -0.12913857 0.1266327
000050 c9 ff fa bc 7f f2 93 bd 46 6a 93 3e 48 8b b5 be
       -0.030639546 -0.07223987 0.28792018 -0.35457826
000060 83 70 e9 3d 31 89 16 be c1 c6 79 3d 43 33 e1 3d
       0.11398413 -0.14700772 0.060980562 0.109961055
000070 19 3f 2d be 23 5a 13 3d 1e db 56 3d 2c 06 32 3d
       -0.16918601 0.035974633 0.05245506 0.043462917
000080 a7 27 e8 bc 3b 99 9e bd ef a0 7b bc 1e 5d e8 3d
       -0.02833922 -0.0774407 -0.015358194 0.11345886
000090 04 f7 99 be 77 3e 4a be 47 c4 aa be cf 0a 71 bd
       -0.3007127 -0.19750391 -0.33352873 -0.0588482
0000a0 12 7f 29 be d5 3b 01 3d be df 62 3e d8 a3 2d be
       -0.1655238 0.0315512 0.22155663 -0.16957033
0000b0 ad f6 e5 3d a1 58 05 3c f6 f7 9b bd 87 89 14 be
       0.1122869 0.008138807 -0.07615654 -0.14505588
0000c0 94 c8 da 3d 7a 22 8b 3e a2 51 ad 3c 06 fe ad bd
       0.106827885 0.2717474 0.02115709 -0.08495717
0000d0 67 e1 b6 3e fe 5d 89 3d b6 ee b5 bd 79 54 58 bd
       0.35718843 0.06707381 -0.08883421 -0.052814934
0000e0 5d c0 ce 3d 85 b0 01 3e 96 f1 5f bc b0 1b 77 bd
       0.10095284 0.12664993 -0.013668438 -0.06032914
0000f0 07 96 e1 bd ae db 24 be a4 8a 24 3e 7c 74 cf 3d
       -0.110149436 -0.16099426 0.16068512 0.101296395
000100 03 f7 ea bd 83 9f c1 3b bc 9c f6 be f7 85 b6 bd
       -0.11472895 0.005908908 -0.48166454 -0.089122705
000110 23 1a 5f be 72 e9 38 3e 72 49 ac bb 36 4f df 3d
       -0.21787314 0.18057802 -0.005257779 0.1090378
000120 95 e6 b8 bd 11 2e 0a 3e b6 59 93 3d 0f 5a 1b be
       -0.09028355 0.13494135 0.071948454 -0.15171073
000130 60 8c 49 3e 09 0d c4 bd 59 e3 26 bd 4a 49 74 be
       0.19682455 -0.09572799 -0.04074416 -0.23856083
000140 f3 c3 72 bd ba 4a 52 3d fe ac d3 3c a8 81 98 3d
       -0.059268903 0.051340796 0.025839325 0.07446605
000150 35 2e 92 be 48 91 d4 3c 29 d5 18 3e 62 ef b4 bd
       -0.28550878 0.025948182 0.14925064 -0.08834721
000160 26 8f 0a 3e 91 8c 46 be b3 f8 b5 3d f6 a9 a7 bd
       0.1353117 -0.1938956 0.08885326 -0.08186714
000170 6c 1f b1 be fd 97 3f be 3b c9 47 3e 7a f2 ea bb
       -0.34594285 -0.18710323 0.19510357 -0.0071700187
000180 3c 57 d2 bd 75 9f f2 bc 33 99 c1 3d 54 9b 4f be
       -0.10270545 -0.02961705 0.094530486 -0.20274097
000190 40 fb 4a 3d 4f 16 91 3b 25 f3 ad 3e 4f 66 99 3b
       0.049556017 0.004427708 0.33974567 0.0046813856
0001a0 5b 61 17 bc 7a a1 94 be d3 f5 91 be 6b 69 bb be
       -0.00923952 -0.29029447 -0.28507861 -0.36603865
0001b0 c3 cc 66 3e 24 df 95 bd 55 70 d5 3c 00 86 74 3d
       0.22539048 -0.07317951 0.02605454 0.059698105
0001c0 6d 1f 23 3c eb 5f 89 be d4 a9 04 3e ff ea 60 3e
       0.009956223 -0.26830992 0.1295541 0.21964644
0001d0 7a 80 5b be d4 a4 be bd 3e 6d b0 3d e0 58 aa bd
       -0.21435729 -0.09308782 0.08614586 -0.08317733
0001e0 dc 57 07 be 5f b7 ff bc ab bf 8a 3d 6c e9 1e be
       -0.1321711 -0.031215368 0.06774839 -0.15518731
0001f0 d9 d6 63 3b 12 a3 3c bd 58 bf 90 3a 10 51 8d bd
       0.003476551 -0.046053953 0.0011043353 -0.06900227
000200 69 fc 13 3e f7 a8 d3 bc 9d 66 16 3e 2a 18 15 be
       0.14451756 -0.025837405 0.14687581 -0.14559999
000210 46 d4 65 3d f5 66 87 3c f4 ce a5 bd 4d 5c aa 3d
       0.056110643 0.016528586 -0.08096114 0.08318386
000220 0b 7f 16 be 9c 89 16 3e 71 1c 11 be ee 93 9a bb
       -0.146969 0.14700931 -0.14171006 -0.0047173416
000230 d8 e9 91 3b 8e a0 2b be de 93 0e 3e 11 ea b9 bc
       0.004452925 -0.16760466 0.13923594 -0.02269462
000240 12 5c 73 bd 6c 5a a5 bd 49 2d b5 3d 32 29 1f 3e
       -0.059413977 -0.08073887 0.08846528 0.15543059
000250 12 06 eb 3b 3d 66 ad bd c5 09 fb 3d 70 11 7c 3d
       0.0071723545 -0.08466766 0.12257723 0.061540067
000260 31 e9 5c be c3 d3 0b be 9f 3b 35 3e b4 c3 fe 3c
       -0.2157333 -0.13655 0.17698525 0.031099178
000270 1b 09 01 3d fe a9 aa 3d 77 a8 d1 bc cb 3b 04 3c
       0.031502824 0.08333205 -0.025593026 0.008070896
000280 36 c9 aa bd 6b a1 0d be 02 6d 8f 3d 06 5d 92 3d
       -0.08339159 -0.13831107 0.070032135 0.07146649
000290 98 3b 41 3d 81 ec 07 be 3e 0c 5d bd 1f 93 1e 3d
       0.047175974 -0.13273813 -0.053966753 0.038714524
0002a0 e7 61 03 be 13 c3 85 3d aa ea 87 3d 60 2e a6 bc
       -0.12830316 0.06531348 0.066365555 -0.020285785
0002b0 e3 58 da bd a7 c7 8b bd db 66 4f bd 6d 2a 55 bd
       -0.10661485 -0.0682519 -0.0506352 -0.052042414
0002c0 c6 9a 83 3a f6 b0 18 bc d2 70 5b bd 90 7d b0 3d
       0.0010040633 -0.0093195345 -0.05357439 0.08617699
0002d0 ad af dc 3b e4 28 6f 3c 50 48 83 3d 70 09 82 bd
       0.0067348094 0.014597151 0.06410277 -0.06349456
0002e0 65 9b aa ba 46 42 91 bd c8 1a 6a 3d 6a ae 2d bd
       -0.0013016282 -0.07092719 0.057154447 -0.042402662
0002f0 94 69 03 bd d0 51 a6 3d d2 d2 04 3e 85 89 24 bd
       -0.03208311 0.08121073 0.12971047 -0.04017021
000300 32 55 78 ba 73 b6 92 3c b0 52 41 be bf 96 4f be
       -0.00094731443 0.017909264 -0.18879199 -0.20272349
000310 e6 8a ae 3b 63 23 35 3d 30 46 b6 bc 46 67 0a 3e
       0.0053266166 0.0442232 -0.022250265 0.13515958
000320 33 5c 8b 3d d6 40 3c 3d 37 5a 3c bc bd 60 62 bd
       0.06804695 0.04596027 -0.011496118 -0.055268038
000330 9f 54 20 3e 83 57 fc bd 9e 63 a8 be 2e e2 5b 3b
       0.1565728 -0.12321379 -0.32888502 0.0033551562
000340 8f d8 91 be cd 67 f8 bc f4 41 16 3d 22 bc 57 3e
       -0.28485534 -0.030322934 0.03668399 0.2106786
000350 7a fc c1 3c b7 0e 0d 3d c5 80 05 be 83 45 0d be
       0.02367996 0.03443786 -0.13037403 -0.13796048
000360 99 9c 0f bc 82 28 1d 3d cf 36 a4 bd c9 3a 82 3c
       -0.008765363 0.03836871 -0.080182664 0.015897172
000370 aa 47 7b bc 84 de 0c be 02 36 d9 bc 01 e4 0c be
       -0.01533691 -0.13756758 -0.02651501 -0.13758852
000380 ea ea 50 3d 43 45 a1 3d 4d 8d a1 3c 99 b8 bd bd
       0.05100528 0.07874539 0.019720698 -0.09263725
000390 ba 24 ee 3d 92 ee c9 bd 9a 66 45 bd 7f 3c 79 bd
       0.11628099 -0.09859957 -0.04819355 -0.06084871
0003a0 94 0c 27 bd 02 b4 9a 3e 15 c3 01 bd ef f6 a0 3b
       -0.04078348 0.3021546 -0.031680185 0.0049122493
0003b0 3f c4 5b be 97 3b b6 3d bc 75 07 3d 50 e8 af 3d
       -0.2146158 0.088980846 0.033071265 0.08589232
0003c0 79 42 51 bd 49 3c 52 be 42 fc 5d bd 7e c0 b9 3d
       -0.051088784 -0.2053081 -0.05419565 0.09069918
0003d0 4b d8 0e 3e 55 40 09 bd ef 58 37 be 6a 66 3e 3e
       0.13949697 -0.033508617 -0.17905019 0.18593755
0003e0 98 6e 03 3d 38 d3 3a 3d 4d 18 ac 3d 7d ad a5 3d
       0.032087892 0.04561159 0.084030725 0.08089731
0003f0 53 bd bf bd 2b 05 ca bc 39 6e ea 3c c5 40 f8 3c
       -0.093622826 -0.024660667 0.028617011 0.030304322

bias_ih_l0 f4 [512]
000000 43 5a 1d bb b9 74 b1 3d 49 31 0d 3e 05 c8 28 3e
       -0.00240101 0.08664841 0.13788332 0.16482551
000010 5f b0 25 3c 65 09 80 bd ef b7 c9 3d 61 ae 8e bc
       0.010112851 -0.06251792 0.09849536 -0.017417135
000020 60 fe 04 bd 72 8e ed bc bf 3c c5 3e f6 dc a1 3d
       -0.032469153 -0.028998587 0.38522908 0.07903473
000030 b7 31 85 3e b0 ff e9 3b 25 53 46 3e 52 f4 d9 bd
       0.26014492 0.007141076 0.19367655 -0.106423035
000040 81 02 0d 3e 7f 41 9e bd f5 a8 44 3d 7b 71 f1 bc
       0.13770486 -0.07727336 0.048012692 -0.029473057
000050 24 2e 1b 3e 0c 99 0f 3e 54 bb 34 be f6 6d ee be
       0.1515432 0.14023226 -0.17649585 -0.4656827
000060 20 d0 95 3e c7 5c c0 bd 84 bc 64 3d 00 bc 26 3e
       0.2926035 -0.09392696 0.055843845 0.16282654
000070 e4 8d 0b 3e b5 90 4e bd 1e 3a d0 bc e7 69 3c bd
       0.13628346 -0.050430972 -0.025418337 -0.045999434
000080 e9 21 55 3e 5a 60 22 3d 9a f1 bb bd a4 28 ac bd
       0.20813717 0.03964267 -0.09176941 -0.08406189
000090 51 22 ca 3e 38 b5 4d 3d 8b 55 98 3d f2 85 62 bc
       0.39479306 0.05022165 0.07438191 -0.01382588
0000a0 eb 1d cf 3e 42 24 01 3e 20 5f 24 be b2 02 97 3e
       0.40452513 0.12611488 -0.16051912 0.29494244
0000b0 29 8c 33 bd b5 0a fe bb 3d df 4f 3c 62 c6 0c 3d
       -0.04383484 -0.007752741 0.0126875015 0.03436888
0000c0 ed ac 71 be 9e af 6b 3d fb 61 8e bd 17 cd 9b 3d
       -0.23601122 0.05754053 -0.06952282 0.07607477
0000d0 f4 04 b0 3c 3a 0d 1a 3d 5c 9e 61 3d a1 1a c6 bd
       0.021486737 0.03761027 0.055082664 -0.09673048
0000e0 f7 29 85 3d c7 c8 be be 7f f2 a4 bd 3e 80 99 bc
       0.06502145 -0.37262556 -0.08054065 -0.018737908
0000f0 29 aa 02 3d af 68 2d be c4 ef 96 3d 60 74 01 be
       0.03190056 -0.16934465 0.073699504 -0.1264205
000100 b8 0d 38 bd cc b5 6b bd b7 1c 62 3b a8 1d 1c 3e
       -0.04493496 -0.057546422 0.0034501979 0.15245688
000110 69 c7 ae bd b1 d7 29 be 22 1f f5 bd c0 07 0e be
       -0.08534128 -0.16586186 -0.11968829 -0.13870144
000120 af eb 60 bd 1e 0e 25 3e 42 ae 45 3e 50 96 81 bc
       -0.054912265 0.16118667 0.19304755 -0.015818745
000130 de 26 56 3d 42 9f 5f 3e bd b6 32 be 61 2a 49 be
       0.05228316 0.21838096 -0.17452522 -0.19645073
000140 7f 0b 20 3e b3 a8 f5 3d 50 68 60 be 67 a1 0c 3e
       0.15629385 0.119950674 -0.21914792 0.13733445
000150 40 46 a9 3d ce 34 1a 3e 0f ed 27 3e 2f 4c 75 bd
       0.08265352 0.15059206 0.16399024 -0.059887107
000160 8b d4 8c 3e f4 89 6d 3d 1f 65 da 3d 2f 9a 38 3e
       0.27505907 0.05799289 0.106638186 0.18027566
000170 3c cf e1 be ed e7 92 3b 57 42 12 be 55 30 90 bc
       -0.4410342 0.004483214 -0.14283119 -0.017601172
000180 78 36 b5 3d dc 07 d3 3d 4a 25 12 3e a3 c6 15 bd
       0.0884828 0.103042334 0.14272037 -0.036566388
000190 c0 25 69 3d 34 25 ab 3d e7 14 1b 3d 0a 24 10 bd
       0.056920767 0.08356705 0.03786173 -0.03519062
0001a0 76 c3 c5 3d 8b 27 0d bd a1 18 4c 3d b6 f4 89 3d
       0.09656422 -0.03446154 0.049828175 0.06736128
0001b0 85 e1 09 3e e4 87 9b be ce 33 20 bd a3 c4 c0 3d
       0.13464935 -0.30377114 -0.039111905 0.094125055
0001c0 7d 72 c5 bd c3 af 88 3c 67 23 ab 3d a4 18 ab 3d
       -0.096409775 0.016685372 0.08356362 0.08354309
0001d0 f0 f4 dd 3d e4 68 69 be b7 eb 4d 3a 71 36 34 3d
       0.10837734 -0.22793919 0.00078552536 0.043997232
0001e0 8c 87 99 bc f3 86 8d bc 8e a6 03 3e 4c cb 05 bd
       -0.018741392 -0.017276263 0.12856504 -0.032664582
0001f0 1b bb ef 3d 3d d4 cf bd 28 2a c7 3c 19 74 dc bc
       0.117056094 -0.10147903 0.024312094 -0.026910828
000200 b6 97 f7 3e 8d 67 98 3d ee cd 43 3e bf 2b 56 3e
       0.48357934 0.07441626 0.19121525 0.20915125
000210 60 91 10 3e 5a c7 44 3e 29 a3 98 3e d8 b6 3d 3e
       0.14117956 0.19216672 0.2981198 0.1852678
000220 ae 57 49 3e 12 06 19 3d b8 4e 54 3f 55 2a 90 3e
       0.19662353 0.037359305 0.82932615 0.28157297
000230 cd e3 e7 3e 8c ec 3e 3e ee e0 8c 3e ae b1 e4 3d
       0.45290986 0.18644923 0.27515358 0.11166702
000240 e8 b1 b7 3e d3 81 7d 3e 6c c3 21 3f 22 1c d8 3e
       0.3587792 0.24756555 0.63188815 0.42208964
000250 c6 02 87 3e 17 7b 84 3e f0 a5 aa 3e a6 4c c8 3e
       0.26369303 0.2587516 0.33329725 0.39120978
000260 94 91 fc 3e 56 30 18 3f 9f 14 e1 3e f2 67 59 3e
       0.49329817 0.59448755 0.43961045 0.21231058
000270 5d 75 08 3e e1 f6 4e 3d 58 bf 52 3d a9 56 25 3e
       0.1332602 0.05052841 0.05145201 0.1614634
000280 b9 8c b0 3e cd 69 15 3e 01 6c 85 3e 25 1a 89 3d
       0.34482363 0.14591141 0.26058963 0.0669444
000290 33 1a 40 3e 5d 80 4b 3e 08 ab d5 bd aa 3e 22 3e
       0.18759994 0.19873185 -0.10433012 0.15844217
0002a0 58 82 36 3e 2a bc 20 3e d4 40 9d 3e e0 c3 55 3e
       0.1782316 0.15696779 0.30713522 0.20875502
0002b0 44 2a 90 3e 2e 1a 89 3e e8 b7 af 3d 63 e1 4f bc
       0.28157246 0.26777786 0.08579999 -0.012688014
0002c0 47 5b 92 3e 41 b6 0a 3e 9c bf 63 3e 32 be 9a 3d
       0.28585264 0.13546087 0.22241062 0.07555808
0002d0 69 73 f5 3e 05 c5 83 3d 4d 9f fa bb 05 14 2b 3e
       0.47939613 0.06434063 -0.0076483847 0.16706856
0002e0 fc e7 4e 3e cc 5f 02 3f 8d 6c d5 3e cc eb 6a 3e
       0.20205683 0.50927424 0.4168438 0.22941512
0002f0 8f bf 0c 3e 64 7f f9 3d 7c 7f 43 3e f0 98 35 3e
       0.13744949 0.12182501 0.190916 0.17734122
000300 eb 91 85 3e b1 bd 08 3e 44 c9 1b 3e 6e a2 8c 3e
       0.2608789 0.13353612 0.15213495 0.27467674
000310 2b 4c 3e 3e ca c1 19 3f f2 e8 3a 3e 2b 77 92 3e
       0.18583743 0.60061324 0.18252924 0.28606543
000320 a5 2a 9e 3e 83 e2 9c 3d 47 0d 48 3e 1d ee de 3d
       0.3089191 0.07660391 0.19536315 0.1088526
000330 af c6 4e 3e 04 0a 32 3e 85 f5 ae 3e c5 ba 7f 3e
       0.2019298 0.17386633 0.34171692 0.2497359
000340 9a 23 64 3e 9a 81 a3 3d fe 5a 17 3f b6 77 c9 3e
       0.22279206 0.07983704 0.5912322 0.39349145
000350 b5 a3 32 3f ef ff 92 3e ea 58 11 3e 6c 76 85 3d
       0.6978105 0.28710887 0.14194074 0.06516728
000360 98 88 c6 3e ee 30 f9 bb 7e 1b 0a 3e 25 ad 8e 3e
       0.38776088 -0.00760471 0.1348705 0.27866474
000370 8b f1 fe 3e 26 06 d9 3e f7 fc 8d 3e 8a c8 25 3e
       0.49793658 0.42387503 0.2773206 0.16189781
000380 97 1f b0 3e 0d 0d 26 3f 22 f1 e2 3e a5 d1 6b 3c
       0.343991 0.64863664 0.44324595 0.014393245
000390 13 45 02 3e e3 bb 1b 3e f9 6e bc 3b 72 c1 0e 3f
       0.12721662 0.15208392 0.0057505337 0.55763924
0003a0 cd 60 34 3e 90 35 ec 3d 89 a0 32 3f c8 68 72 3d
       0.17615052 0.11533654 0.6977621 0.05918196
0003b0 e1 14 30 3d 66 23 cc 3e fd 35 af 3d 2b 91 3d 3e
       0.04298866 0.39870757 0.08555219 0.18512408
0003c0 d6 c8 28 3e 9a 21 4a 3d 57 08 51 3e 5b d1 cc 3d
       0.16482863 0.04934845 0.20413338 0.10000869
0003d0 7a 9e 0c 3d 41 2f 9f 3e a5 4f 9d 3e 92 97 eb 3e
       0.034330823 0.3109074 0.30724826 0.46014076
0003e0 b0 d4 cf 3d bc a1 68 3e e8 ff a3 3e dc b4 16 3e
       0.10147989 0.22717947 0.32031178 0.1471743
0003f0 57 76 51 3e f8 13 f4 3a b9 14 88 3e f8 65 e7 3d
       0.204553 0.0018621674 0.2657831 0.11298746

bias_hh_l0 f4 [512]
000000 e6 a1 bf bd e2 32 dc 3d 83 53 5e 3d 69 4e 2f 3e
       -0.093570516 0.107518926 0.05427886 0.17119755
000010 12 ae f8 bc 62 74 06 be 4f 11 96 3d eb b4 86 bd
       -0.03035644 -0.13130334 0.0732752 -0.06577476
000020 ac a2 52 bb 86 2b eb bd b7 f0 75 3e 49 ad 89 3d
       -0.0032140417 -0.11482911 0.24017607 0.06722505
000030 e8 74 02 3e 54 50 10 3e e7 a9 aa 3e f6 0a 75 bc
       0.12739909 0.14093143 0.3333275 -0.014956227
000040 55 18 85 3e 39 e0 0b be 3b ea 39 3d 76 63 d3 bd
       0.25995126 -0.13659753 0.045389395 -0.10321705
000050 be 2b 12 3e ae 20 3f 3e 89 62 97 be e2 73 f8 be
       0.14274499 0.1866481 -0.29567364 -0.48525912
000060 49 ba 8e 3e 57 3b c7 bd 8d a7 3a 3d 7f e3 73 3d
       0.278765 -0.09728115 0.045569945 0.05954313
000070 9e 61 1f 3e ef 3a df bd 63 27 6f bd 9c 2c 99 3b
       0.15564582 -0.108999126 -0.05838717 0.0046745073
000080 6a a6 24 3e a4 6a c8 3c 93 4a 78 bd c2 7c 8d bd
       0.16079107 0.024464913 -0.060617995 -0.06908561
000090 52 8a 95 3e 46 90 8a bd 0e e2 4b 3d c3 dc 24 bd
       0.29207093 -0.06765799 0.04977613 -0.040249597
0000a0 08 44 d4 3e 59 b2 0a 3e c9 06 97 be 49 39 68 3e
       0.41458154 0.13544597 -0.29497364 0.22678103
0000b0 f7 85 f6 3d a8 50 5a bd ab 4d b2 bd 39 be db 3b
       0.120372705 -0.053299576 -0.0870622 0.006706026
0000c0 82 d1 2f be fa f8 b8 bc c6 3b c9 3d a5 2c 7b 3c
       -0.17169765 -0.022579659 0.09825854 0.015330468
0000d0 d0 0c fc 3b d7 77 8c bd 72 24 8b 3a 72 17 04 be
       0.007691957 -0.06858795 0.001061572 -0.12899569
0000e0 98 3b 3f bd 23 80 a2 be a7 b6 6c bc ab 9a f9 bb
       -0.046687692 -0.31738386 -0.014447845 -0.007617315
0000f0 2e 8f 4e 3d e6 bf e9 bd 8a 75 11 3e b3 95 64 bd
       0.050429516 -0.11413555 0.14204994 -0.055806827
000100 3a e7 ac 3d 05 27 b8 bd f0 7d 3d bd b2 f7 3a 3d
       0.084425405 -0.089918174 -0.04626268 0.045646377
000110 1e 6e b2 3c 04 f9 8c bd 05 38 13 be 45 f8 3e bd
       0.021781024 -0.068834335 -0.14376839 -0.046623487
000120 19 69 91 3d dc e5 68 3e 17 79 bf 3d 0c 4e 17 3d
       0.07100124 0.22743934 0.09349268 0.036939666
000130 a6 d8 0c bd 98 df 14 3e 55 dd e2 bc 2f 33 69 bd
       -0.0343863 0.14538419 -0.02769343 -0.056933578
000140 8b 60 64 3e 8e 61 c6 3d 68 ba 47 be 50 4a 0b 3e
       0.22302453 0.09686576 -0.19504702 0.13602567
000150 83 21 ad 3d d4 38 07 3c 6d 8f 9a 3d cf 5f 86 bd
       0.084536575 0.008253295 0.075468875 -0.06561243
000160 9e 7d 09 3e f7 6f 82 3d 27 1f a0 3d d1 d9 fb 3d
       0.13426825 0.06369012 0.07818442 0.122974046
000170 04 09 c9 be 9c 86 55 3c 7c b0 52 be 07 5b 88 3d
       -0.3926469 0.013032582 -0.20575136 0.06657987
000180 fa 43 13 3e 60 07 60 3e 8d ec 09 3e 04 81 30 bd
       0.143814 0.21877813 0.13469143 -0.04309179
000190 d5 40 21 bd 5e 20 19 3d a0 18 1a 3d 6f 0b f1 bc
       -0.03936847 0.037384383 0.03762114 -0.029424397
0001a0 ad ab 12 3d 73 1f 54 bd 9c c4 dc 3d ba a0 04 3e
       0.035808254 -0.051787805 0.10779688 0.12951937
0001b0 ee c3 57 3d b1 0a 85 be ca 63 02 bb a8 b7 c9 3d
       0.052677087 -0.2598472 -0.0019895905 0.09849483
0001c0 a8 5e 5c bd 93 a9 3f bc 6d 13 83 3c 46 ea 9a bc
       -0.05380121 -0.0116981445 0.016000474 -0.018910538
0001d0 87 de 89 3d eb a7 a3 be 68 7d b0 3d 80 f5 ca 3d
       0.06731897 -0.3196405 0.08617669 0.09910107
0001e0 99 f7 03 3d 02 66 4a 3c 70 4f be 3d 57 c4 0d be
       0.03221855 0.012353422 0.09292495 -0.13844429
0001f0 07 66 2d 3e b0 b9 e4 bb a6 da af 3d 31 30 b2 bc
       0.16933452 -0.0069801435 0.08586626 -0.021751495
000200 2c 2a cc 3e 7d ba 5f 3d 8c 28 58 3e c7 0d 86 3e
       0.39875925 0.05462121 0.21109217 0.26182386
000210 54 eb 1e 3e 6c e3 6f 3e f4 fb 65 3e 98 b1 83 3d
       0.15519458 0.23426598 0.22459394 0.06430358
000220 c6 71 49 3e 1f 42 8e 3d 9b 80 3a 3f 5e 1e 94 3e
       0.19672307 0.06946205 0.72852486 0.28929418
000230 f4 be ab 3e 4d 57 c6 3d cc b3 91 3e 35 f3 19 3e
       0.33544123 0.0968462 0.28457487 0.15034182
000240 4d 72 7f 3e bf e1 84 3e 5a 29 0a 3f 9b 13 f6 3e
       0.24945946 0.2595348 0.5396935 0.48061833
000250 5e 04 6a 3e f6 4b c6 3d 8c 08 a8 3e 25 4e b7 3e
       0.22853228 0.09682457 0.3281902 0.35801807
000260 6b 71 0e 3f 78 9e 1f 3f 82 59 a1 3e a0 43 70 3e
       0.5564181 0.6235118 0.31513602 0.23463297
000270 8e d9 f5 3d 77 02 16 3e ba 94 83 3d ff 18 18 3e
       0.12004386 0.14649378 0.06424852 0.14853285
000280 5f bd a3 3e 55 8b 8b 3d 35 06 98 3e 35 32 c2 3d
       0.31980416 0.06813685 0.29692236 0.094822325
000290 5f d2 07 3e 2c 25 4b 3e 24 e5 2f be 10 76 8a 3d
       0.13263844 0.19838399 -0.17177254 0.067608
0002a0 68 91 48 3e 77 49 24 3e bf f2 94 3e f7 2c 98 3e
       0.19586718 0.1604365 0.2909145 0.29721805
0002b0 b5 8c 99 3e 78 2c 7d 3e e7 5f 4a 3e fc 19 2d 3d
       0.29990163 0.24723995 0.19763146 0.04226111
0002c0 af cc 95 3e cc 7f 1c 3e 3c 8a 3c 3e 45 2d f5 3d
       0.29257724 0.15283126 0.18412107 0.11971525
0002d0 f2 41 11 3f 9d 9c 0e 3e 96 40 58 3d b7 6b 27 3e
       0.5674125 0.1392693 0.05279597 0.16349684
0002e0 dc 95 ff 3d e3 47 c8 3e 5a b5 b1 3e 25 c6 95 3e
       0.12479755 0.39117345 0.34708673 0.29252735
0002f0 df 9f 87 3e 59 d5 5e 3d df ba 77 3e a4 fe 32 3e
       0.2648916 0.054402683 0.2419238 0.1747995
000300 1e 9b 84 3e 41 50 23 3e 62 ec 27 3e 9d 2a 58 3e
       0.25899595 0.15948583 0.16398767 0.21110006
000310 4a 5e 6a 3e 48 5a 25 3f 2f 88 18 3e cb 80 b8 3e
       0.22887531 0.64590883 0.148957 0.3603576
000320 46 0a b0 3e d7 79 9c 3d 22 01 6f 3e 15 26 06 3e
       0.34382838 0.076404266 0.23340276 0.13100465
000330 44 52 78 3e 26 8c c3 3d 7b d3 d9 3e 83 1b eb 3d
       0.24250132 0.095482156 0.4254416 0.11479857
000340 a6 d0 9d 3d c2 1c 31 3e b5 7e f3 3e 3d 20 ca 3e
       0.07705812 0.17296126 0.47557607 0.3947772
000350 95 76 34 3f 10 43 94 3e 88 a6 3b 3e bd cb 95 3d
       0.7049344 0.28957415 0.18325245 0.073142506
000360 72 45 8e 3e 0f 08 5c 3d 6e 2b 1d 3e 5f 9c 61 3e
       0.27787358 0.053718623 0.15348598 0.22032307
000370 f0 a4 11 3f 6e 79 e4 3e 3a 6e 9b 3e a1 c8 95 3e
       0.568923 0.44623893 0.30357534 0.2925463
000380 d7 22 88 3e 04 98 1a 3f f4 93 d3 3e e9 9f d9 3c
       0.2658908 0.6038821 0.41323817 0.026565509
000390 01 c6 24 3e 94 c7 bf 3d 52 69 86 3c 1c c5 ee 3e
       0.16091157 0.093642384 0.016407643 0.46634758
0003a0 39 6e 5e 3e 39 1f 7a 3e f0 86 2a 3f 14 b9 03 3e
       0.21721734 0.24425973 0.6661215 0.1286357
0003b0 2a 24 24 3e e8 e3 f1 3e 07 64 23 3e 1f 48 db 3d
       0.1602942 0.4724419 0.15956126 0.107071154
0003c0 1d e4 20 3d e3 56 0c 3d c8 d8 d6 3d 5d 54 d3 3b
       0.039280046 0.03426255 0.104905665 0.006449266
0003d0 01 2d 39 3d 8b 07 68 3e 00 c3 c2 3e fd 36 f5 3e
       0.045208935 0.22659127 0.38039398 0.47893515
0003e0 c7 5b c8 3d 21 75 a2 3e 7e 71 bc 3e 60 38 a3 3b
       0.0978313 0.31729987 0.36805338 0.0049810857
0003f0 17 0a 4f 3e e7 69 89 3c bb 65 7a 3e a6 1d a9 3d
       0.20218693 0.016774131 0.2445287 0.08257608

weight f4 [10, 128]
000000 84 31 84 3e fc be ff be 75 e3 95 3e a9 55 05 be
       0.25819027 -0.49950397 0.29275098 -0.13020958
000010 69 72 f7 3d de 03 56 be e3 5e 9c 3d b7 dd d8 3e
       0.12082369 -0.20899913 0.07635286 0.42356655
000020 c6 37 8d be 54 12 e2 3d e8 ec 01 bf b1 19 44 be
       -0.27581614 0.11038652 -0.50752115 -0.19150425
000030 d8 39 0d 3f b8 bf af 3e 8c 69 d9 3d 3e 65 8a 3e
       0.5516639 0.34325957 0.106158346 0.27030367
000040 0a 11 0d 3f a3 b8 36 bf b0 4f 42 3f ad f4 f1 be
       0.55104125 -0.71375483 0.75902843 -0.47256985
000050 e9 62 f8 3c ed aa 01 bd 86 71 a6 be b7 a0 9b be
       0.030320602 -0.03165715 -0.32508487 -0.30396053
000060 eb 78 04 bf 62 30 1b bf 8f 0d df bd 54 e5 8e 3d
       -0.51747006 -0.606207 -0.10891258 0.069773346
000070 d7 75 ae be 11 ce 9d bd 5c 81 29 be a0 fc 9f 3e
       -0.3407428 -0.0770532 -0.16553253 0.31247425
000080 20 ad a1 bd 93 2d e6 be e9 f3 11 3f 70 2d f4 3e
       -0.07894349 -0.44956645 0.570128 0.47690916
000090 5b 38 8e 3d 74 c1 c8 bd bf fe bb 3d e6 7c 7c 3e
       0.06944343 -0.09802523 0.09179448 0.2465702
0000a0 17 04 36 be ee f7 00 3f f9 01 46 3f 17 be 82 bb
       -0.17774998 0.5037831 0.7734676 -0.0039899456
0000b0 c7 f1 84 3e 51 6e e4 be 71 ed 0d bd 85 b7 62 be
       0.2596571 -0.44615415 -0.03465027 -0.2214032
0000c0 9d a6 1d be e2 ad c5 3c e6 d0 c5 3e 4d 70 15 3e
       -0.15395589 0.024130765 0.3863594 0.1459362
0000d0 99 33 fb bc 2d 9d 2e bd 0a 92 9d be 4f 11 ec 3e
       -0.030664252 -0.042630363 -0.3077548 0.46106955
0000e0 75 73 43 3e 1d 92 2a 3f c7 52 d4 3d 65 d4 be 3d
       0.19087012 0.666292 0.10367351 0.09317855
0000f0 b4 13 66 3d 27 ff 60 3e 4b 55 1d 3e e8 e6 24 be
       0.056171134 0.21972333 0.15364568 -0.16103709
000100 a0 02 bd be 6c d1 a6 be 04 7a aa be 5f f1 b0 be
       -0.36916065 -0.3258165 -0.33296216 -0.34559152
000110 a0 f1 40 bf 97 86 20 bf 8f f1 82 3d 3d 11 01 3f
       -0.7536869 -0.6270537 0.0639373 0.5041693
000120 bf eb e6 3e 96 fc a6 3e c6 9e 5f be f6 64 d5 be
       0.45101735 0.32614583 -0.21837911 -0.4167859
000130 e4 f4 27 3e 42 db 97 be f7 76 72 3e f6 d7 a6 3d
       0.16402012 -0.29659468 0.23678194 0.0814666
000140 da 74 c5 be 52 b0 9b be 5e ef 6e be dd a9 db 3e
       -0.38565713 -0.3040796 -0.23333499 0.42903033
000150 fe 4a c7 3e 17 4e 52 be a6 84 89 bd 89 10 9d be
       0.38924402 -0.20537601 -0.06714754 -0.30676678
000160 00 4b 1d 3f be 30 07 3c 64 38 37 be 64 5e b3 3e
       0.61442566 0.008251367 -0.17892605 0.35032952
000170 73 67 33 3f 14 ad 46 3f a0 c0 e9 3e bb 8b 00 bf
       0.70079726 0.77607846 0.45654774 -0.5021321
000180 5b d0 0e 3f ea 41 a0 3f 80 54 06 bf 24 bc c7 3e
       0.55786675 1.2520115 -0.52472687 0.39010727
000190 29 17 14 3f d5 23 2c be 5b 59 04 3c 44 28 20 bd
       0.5784784 -0.16810544 0.008077945 -0.0391009
0001a0 8c 8d a4 be dd f3 4c be 34 e3 91 be 05 0e c3 bc
       -0.32139242 -0.20014901 -0.28493655 -0.023810396
0001b0 be 39 ac 3c b0 72 87 3e e2 e8 de bc 38 d6 81 be
       0.021023627 0.26454687 -0.027210657 -0.25358748
0001c0 34 63 53 bd 82 2d 30 be d8 97 89 be f7 77 84 be
       -0.05160828 -0.1720486 -0.2687366 -0.25872776
0001d0 57 5f 39 3e 1d 62 47 3f d4 ed 12 be 79 5d 7d 3e
       0.18102776 0.77884084 -0.14348537 0.24742688
0001e0 52 08 ac 3e af b6 2d 3f a3 ac f3 3e 1a cd 2d be
       0.33600098 0.6785688 0.4759265 -0.16972771
0001f0 41 6f 01 be 5b 97 6a bd 7f 5f 79 bd e0 22 e9 be
       -0.12640096 -0.05727325 -0.060882088 -0.4553442
000200 f4 a3 f3 bd 75 c8 80 be 2e 10 c4 be 0f 9d ff 3d
       -0.11896506 -0.25152937 -0.38293594 0.124811284
000210 9d 6f 19 be d9 5e f8 3e 3f 59 99 3e fe f1 48 3e
       -0.14983983 0.48509863 0.29950902 0.19623563
000220 0a a4 d1 bd 2e 9f cb 3c e7 1f 95 bd a5 c2 26 bf
       -0.10236366 0.024856176 -0.072814755 -0.65140754
000230 18 e4 f4 3e 65 a9 f9 3e b8 82 f3 3e 89 92 d8 be
       0.47830272 0.4876205 0.47560668 -0.42299297
000240 23 e0 5b be e4 ee 38 3e da 8a 17 be d9 0a f5 3e
       -0.2147222 0.1805988 -0.14799061 0.4785984
000250 73 e4 42 bf 1f 12 ec 3d d1 1b 00 bf d6 25 29 bf
       -0.76129836 0.11526894 -0.50042444 -0.6607336
000260 9b 9b b5 3d 7f ee 8a 3e 5f 1d 49 3f 8b 55 ee be
       0.0886757 0.27135083 0.7856044 -0.4654964
000270 0b ca 9c 3d ea 53 ca 3d d0 d7 8b 3d f9 43 86 be
       0.07655724 0.098792866 0.06828272 -0.26223734
000280 bd 22 09 bf c8 1e 03 bd 58 cd de 3e 50 e6 8a 3c
       -0.5356863 -0.032011777 0.4351604 0.016955525
000290 c8 57 b4 be 22 8e 0c 3e 31 2d 44 be aa 7d 15 be
       -0.35223222 0.13726094 -0.19157864 -0.14598718
0002a0 b0 8f 33 3e a7 0e cd 3e 2e 57 82 be fa 23 93 3d
       0.17535281 0.4005024 -0.25457138 0.07184596
0002b0 fe e8 26 3e ee c6 ee 3e 67 22 1a 3e 74 62 67 3e
       0.16299817 0.46636146 0.15052186 0.2259615
0002c0 5a 1a f0 3e 3a 03 16 3e c5 89 ff be f7 d8 72 be
       0.46895105 0.14649668 -0.49909797 -0.23715578
0002d0 5e 02 fa 3e 94 8c fa 3e e7 ec d3 be 2b e3 f3 3d
       0.4882993 0.48935378 -0.4139168 0.11908563
0002e0 11 ff 1c 3f 24 c4 a8 3e 4a 53 56 3e 62 87 3c 3e
       0.613267 0.32962143 0.2093021 0.1841102
0002f0 94 8c 43 bd e1 fe b0 bd 57 93 9b 3e 05 eb 7e be
       -0.047741488 -0.08642364 0.3038585 -0.2489434
000300 07 78 ac 3e 55 a6 10 be 79 af 63 3e fe da d8 3e
       0.33685324 -0.1412595 0.22234906 0.42354578
000310 b1 de e0 bd 70 67 71 3f 89 3a b9 3e 70 00 07 3f
       -0.10979975 0.9429846 0.3617747 0.5273504
000320 68 e8 38 bf 6f 78 9d 3e d3 1d 24 bf 82 4f 86 3e
       -0.72229624 0.30755946 -0.6410801 0.26232535
000330 6b 25 f2 be 06 86 29 3f 98 b1 32 3e 81 c0 3a 3e
       -0.47294173 0.6622013 0.17450559 0.18237497
000340 39 81 51 be be bc bf 3e 7f be f1 be 2d d7 35 be
       -0.20459451 0.37448686 -0.4721565 -0.17757864
000350 ce eb ac bf b1 98 e8 be e0 7c 92 bd f8 f5 b1 3e
       -1.3509462 -0.45428994 -0.07152724 0.34757972
000360 f4 51 6c be 78 77 a6 be 8c 82 b3 3e 49 c9 15 bf
       -0.23078138 -0.32513022 0.35060537 -0.5851026
000370 2b a9 d4 be 5a d7 8f be 2a 44 75 bf 19 eb 38 3d
       -0.41535315 -0.28093988 -0.95807135 0.04514608
000380 32 0b 0f ba 16 7c 2a 3e f3 24 04 be 5d 69 12 3f
       -0.00054566853 0.16648898 -0.1290472 0.5719202
000390 0f 8c 22 3e 27 a7 81 3e 7c 85 30 bd a9 41 ae 3e
       0.1587374 0.2532284 -0.04309605 0.3403447
0003a0 2e 48 34 3e 62 a6 0f be cc 37 f2 bd 1f 54 c6 be
       0.1760566 -0.14028314 -0.11827049 -0.38736054
0003b0 ac 12 80 3d 8d c6 48 bf f0 f5 c7 be 5d 29 16 3f
       0.062535614 -0.78427964 -0.39054823 0.58656865
0003c0 d0 4f dd bc 22 54 a9 be ee 71 cd 3c fa c8 29 bd
       -0.027015597 -0.33072 0.02507874 -0.04145143
0003d0 9b 6e 66 3d 39 f5 e4 be 08 4a 2a bf 47 83 32 3e
       0.056257825 -0.4471834 -0.6651921 0.17432891
0003e0 a7 fd f6 3d 44 5a 05 bf 94 d1 b0 be 15 61 79 bc
       0.12060099 -0.5209086 -0.34534895 -0.0152209
0003f0 48 31 21 3d 83 4c 96 be 98 52 93 3e f5 ab 71 be
       0.03935364 -0.2935525 0.28773952 -0.23600753

bias f4 [10]
000000 7b d8 4e bd 2e 6e 18 be 6f 40 9d be 45 f6 20 be
       -0.05049942 -0.1488578 -0.3071322 -0.15718944
000010 73 d1 e6 bd 19 4c 0d 3f 96 42 1e bf 42 19 34 3f
       -0.11270418 0.5519424 -0.6182035 0.7035104
000020 75 91 34 be dc 49 02 3e
       -0.17633612 0.12723488
