model/new/12_lstm.model (torch_old, 19819 bytes, 6 tensors)

weight_ih_l0 f4 [48, 28]
0	0x3e25e4d9	0.1620058
1	0xbe548e59	-0.20757426
2	0xbd1234ad	-0.035694767
3	0x3f0559f2	0.5209037
4	0xbf5ad011	-0.85473734
5	0xc006ce8a	-2.1063561
6	0xc02be681	-2.6859438
7	0xc006562d	-2.0990098
8	0xc004db39	-2.0758803
9	0xbf839dca	-1.0282528
10	0x3dfd4544	0.12366727
11	0xbed5ee7a	-0.41783506
12	0xbefb7b97	-0.4911773
13	0x3fbb2341	1.4620134
14	0x402f2a5d	2.7369606
15	0x400f7751	2.2416575
16	0x3f861409	1.0474864
17	0xbec1c57c	-0.3784598
18	0x3fb14761	1.3849908
19	0x3f933fd3	1.1503853
20	0x3e8b57a1	0.27215293
21	0xbee25ff6	-0.44213837
22	0xbf327c76	-0.6972116
23	0xbf9b92bf	-1.2154158
24	0xbf1f8b41	-0.6232186
25	0xbd2314a6	-0.039814614
26	0x3e4edc09	0.20201124
27	0x3e4d046e	0.20021221
28	0xbf0563b9	-0.5210529
29	0xbd77843b	-0.06042884
30	0x3e0e254a	0.13881412
31	0x3f23f03e	0.64038455
32	0x3ce55fbe	0.027999755
33	0x3da846c2	0.08216621
34	0x3f666e6c	0.9001224
35	0x3e5c1e10	0.21495843
36	0xbf0781eb	-0.52932614
37	0xbfa3bb91	-1.2791616
38	0x3f1af1c2	0.60525143
39	0xbed6c1cc	-0.4194473
40	0x3cb2aa7c	0.021809809
41	0x3f962ce5	1.1732451
42	0x40037f0f	2.05463
43	0x3fa66d0b	1.3002027
44	0x3ea264d7	0.3171756
45	0x3f0f8f16	0.56077707
46	0x3fc6316a	1.548383
47	0x406882e3	3.6329887
48	0x403e7c33	2.9763305
49	0x405458b3	3.3179138
50	0x3ff27b31	1.8943845
51	0x3f14ed18	0.58174276
52	0xbc8e7b07	-0.017392648
53	0xbf32d268	-0.69852304
54	0x3d933272	0.07187356
55	0xbe0b1849	-0.13583483
56	0xbf8249ed	-1.017881
57	0xbf986651	-1.1906224
58	0xbf1ad636	-0.6048311
59	0xbec37992	-0.38178688
60	0xbdae8f95	-0.0852348
61	0x3daa64d4	0.08320013
62	0x3f9219be	1.1414106
63	0x3fcb8b33	1.5901855
64	0x401d16e5	2.4545224
65	0x409576b6	4.670741
66	0x403114b7	2.7668893
67	0x3f34919d	0.7053469
68	0xbe60e957	-0.21964012
69	0xbdb13b32	-0.08653869
70	0xc025bcdb	-2.5896518
71	0xbfaa5361	-1.3306695
72	0x3f7d73b7	0.9900469
73	0x3e9d6a7a	0.30745298
74	0xbf19cf01	-0.6008149
75	0x3f5d4169	0.8642793
76	0x3d3a7b11	0.04552752
77	0xbf01a814	-0.5064709
78	0xbf924529	-1.1427356
79	0xbfd5b6b4	-1.6696382
80	0xbf8784d6	-1.0587413
81	0xbef4fefe	-0.47850794
82	0xbf32f473	-0.6990425
83	0xbf7421c7	-0.9536404
84	0x3fe72402	1.8057864
85	0x3f79766a	0.9744631
86	0x3da8a287	0.08234125
87	0xbe51bdbe	-0.20482537
88	0x3ee456bf	0.44597432
89	0x3e72d46c	0.23713845
90	0x3e3a4c55	0.18193181
91	0x3e2d6078	0.16931331
92	0x3dd58a1a	0.104267314
93	0xbf5f8785	-0.8731616
94	0x3e75079c	0.23928684
95	0x3f96d29f	1.1783026
96	0x3f49e6b7	0.7886767
97	0x3fa162d7	1.2608289
98	0x3e79f885	0.24411209
99	0x3eafe0ad	0.34351102
100	0xbd71c4e4	-0.05902566
101	0x3bda5088	0.006662432
102	0xbe892ea3	-0.26793393
103	0xbe2cbc8b	-0.16868798
104	0xbce232c0	-0.02761209
105	0xbe148b24	-0.14506203
106	0xbd94e59a	-0.072703555
107	0xbda75bb4	-0.08171788
108	0xbc7f6bac	-0.015589636
109	0xbf057654	-0.5213368
110	0x3e9e0c74	0.30868876
111	0x3ff1c8e6	1.8889434
112	0xbf9bf8a0	-1.2185249
113	0xbfd598d3	-1.6687263
114	0xbfb39c89	-1.4032146
115	0xbf90d643	-1.1315387
116	0xbf661d6b	-0.8988864
117	0x3e1fc46c	0.15602273
118	0xbed25c60	-0.41086102
119	0xc018d15e	-2.3877788
120	0xc080dc2d	-4.026877
121	0xc000d482	-2.0129704
122	0xbf563bf9	-0.8368526
123	0x3f2dac97	0.67841476
124	0x3dfbd82e	0.122970924
125	0x3faa9a95	1.3328425
126	0xbfe9012b	-1.8203481
127	0xc010f0f8	-2.2647076
128	0x3fafadb9	1.3724891
129	0x4002f02d	2.0459092
130	0xbe3e0b70	-0.1855905
131	0x3e019515	0.12654527
132	0x3f03a275	0.51419765
133	0xbd9d9b83	-0.07695677
134	0xbf104598	-0.5635619
135	0xbf6862a4	-0.90775514
136	0xbf813dd8	-1.0096998
137	0xbf5fffa6	-0.87499464
138	0xbfd13139	-1.6343147
139	0xbfddb757	-1.7321576
140	0x3ed4af21	0.41539863
141	0x3efb859a	0.49125367
142	0x3f00aea8	0.50266504
143	0x3faf4d37	1.3695439
144	0x3f7e5930	0.9935484
145	0x3f800926	1.0002792
146	0xbd1ea8a0	-0.038735032
147	0x3ea898dd	0.32929125
148	0x3ecf997d	0.4054679
149	0xbf0e8bbb	-0.5568196
150	0x3f01a8f3	0.5064842
151	0xbecf0278	-0.4043157
152	0x3f33b7b3	0.7020218
153	0x3efa6902	0.4890824
154	0xbec9f280	-0.39442825
155	0xbf57fb73	-0.84368056
156	0xbfa2635b	-1.2686571
157	0x3d6fc20f	0.058534678
158	0xbfa1de37	-1.264594
159	0xbf153a60	-0.582922
160	0xbe442e54	-0.19158298
161	0xbe71c501	-0.23610307
162	0x3e7b0b56	0.24516043
163	0xbe1927e4	-0.14956623
164	0xbe214b33	-0.15751342
165	0xbeafdad5	-0.34346643
166	0x3f7d76d6	0.99009454
167	0x3eeaf5fb	0.45890793
168	0x3f922591	1.1417714
169	0x3f988d65	1.191815
170	0x3fe71cbf	1.8055648
171	0x400d7222	2.210091
172	0x40393c37	2.8943002
173	0x40188c9e	2.3835826
174	0x3fd6a099	1.676776
175	0x3f081ba3	0.5316717
176	0x3e4d092f	0.20023035
177	0xbf86e303	-1.0538028
178	0xbff4adc2	-1.9115527
179	0xc02c3666	-2.6908202
180	0xc084c4f9	-4.1490445
181	0xc097ca48	-4.7434425
182	0xbfd33a2c	-1.6502128
183	0xbf9bf1fe	-1.2183225
184	0x3ecab820	0.395936
185	0x3eae6a8a	0.34065658
186	0xbf200274	-0.62503743
187	0xbf272ea4	-0.6530554
188	0x3f12bb1e	0.5731677
189	0xbeb36248	-0.3503592
190	0x3e5310b3	0.20611839
191	0x3f1c4c8b	0.61054295
192	0x3f938922	1.1526225
193	0x403574b7	2.8352487
194	0x3ff6a7ab	1.9269918
195	0x3f8b4aa0	1.0882149
196	0xbf3b3bb6	-0.73137987
197	0xbf257d3b	-0.6464421
198	0xbf1ef478	-0.6209178
199	0xbf89bbf2	-1.0760481
200	0xbf4eaf3f	-0.80736154
201	0xbed4954d	-0.41520157
202	0x3e24bab8	0.16086853
203	0xbf29dc05	-0.6635135
204	0x3ed42890	0.41437197
205	0x3fb211e5	1.3911711
206	0x3fee0deb	1.8597997
207	0x3f826fda	1.0190384
208	0x3fcb5bdb	1.5887407
209	0x401b82db	2.4298618
210	0x3fbac106	1.4590156
211	0x4011b751	2.2768137
212	0x3fe34280	1.7754669
213	0x40092302	2.1427617
214	0xbf7692f1	-0.96317965
215	0xbfccf90f	-1.6013507
216	0xbf7a166b	-0.9769046
217	0xbfcae829	-1.58521
218	0xbf7f2421	-0.99664503
219	0xbfb57df1	-1.4179059
220	0xbf62c7ee	-0.8858632
221	0xbee49230	-0.44642782
222	0xbf5a7d00	-0.85346985
223	0xbf853ca0	-1.0409126
224	0xbef2cd4b	-0.4742225
225	0xbf5d0a8f	-0.86344236
226	0xbf000f6a	-0.5002352
227	0xbf11a559	-0.56892926
228	0xbec37708	-0.3817675
229	0x3f0a0dad	0.5392712
230	0x3fd4cc06	1.6624763
231	0x3fad1d7d	1.3524624
232	0x3fa0815c	1.2539477
233	0x3e1bbc3c	0.15208524
234	0xbf2834aa	-0.6570536
235	0x4029b844	2.6518717
236	0x406a01e6	3.6563659
237	0x40003351	2.003132
238	0xbf002ff6	-0.5007318
239	0x40a1a3d8	5.0512505
240	0x41153b00	9.326904
241	0x40c38ed5	6.1111856
242	0xc1376be7	-11.463843
243	0xc01d1542	-2.4544225
244	0x4018fff1	2.3906214
245	0x3fc26bba	1.5189126
246	0x3db7069a	0.08936806
247	0xbf1b2682	-0.60605633
248	0xbf493c87	-0.7860798
249	0xbd4c8db2	-0.04993982
250	0xbe528058	-0.20556772
251	0xbf38c353	-0.7217304
252	0x3e41d931	0.18930508
253	0x3ea16bd3	0.31527576
254	0x3e9d14a4	0.3067981
255	0xbf62f3da	-0.8865334

weight_hh_l0 f4 [48, 12]
0	0xbf82ab97	-1.0208615
1	0xbfa65d7e	-1.2997282
2	0xbfde19bb	-1.7351602
3	0x3fb71afa	1.4305108
4	0xbf7ce91b	-0.9879319
5	0x3e321ac8	0.17393029
6	0x407be1e9	3.9356635
7	0x3d455b54	0.0481828
8	0xbf168329	-0.58793885
9	0xbf06f8fe	-0.5272368
10	0xbd6bc320	-0.057559133
11	0x3f7c650a	0.98591673
12	0xbf088ad2	-0.53336823
13	0xc035842a	-2.8361917
14	0xbf41761d	-0.7557085
15	0x3f98a5b8	1.1925573
16	0xbe8bd50d	-0.27310982
17	0xbfaf004c	-1.3671966
18	0xc00c32de	-2.1906047
19	0x3e911799	0.28338316
20	0xbf95c061	-1.1699334
21	0x3e540869	0.20706333
22	0xbcfcd2d3	-0.030862248
23	0x3ecfa563	0.40555868
24	0x3f8b4caa	1.0882771
25	0x40278757	2.6176355
26	0xc0c6e13f	-6.214996
27	0x3fadbad0	1.3572636
28	0x3da49359	0.08035917
29	0x3f6f3a21	0.9344807
30	0xbf1bbe0d	-0.6083687
31	0x40411c3f	3.017349
32	0xbff3b591	-1.9039785
33	0xbe31c8d9	-0.17361774
34	0xbf3e509e	-0.7434176
35	0x3fc8460e	1.5646379
36	0xbc9ae7e8	-0.01890941
37	0xbf0340db	-0.51270837
38	0x3ea42069	0.32055977
39	0x40b777d7	5.733379
40	0x400ec234	2.2306032
41	0x3e2ebe18	0.17064703
42	0xbf5ce90e	-0.86293113
43	0x409279df	4.577377
44	0xc0018cad	-2.0242112
45	0x3f484f40	0.78245926
46	0xc1166022	-9.39847
47	0x3f68257c	0.90682197
48	0xbde7819e	-0.113040194
49	0x3fee7e56	1.8632305
50	0x3c002e02	0.007823469
51	0xbe83d3b9	-0.2574747
52	0xc02301ff	-2.5469968
53	0x3e948690	0.29008913
54	0xbf85d447	-1.0455407
55	0xbfec6f21	-1.8471414
56	0x3f0ae9ed	0.5426319
57	0x3f26310d	0.64918596
58	0x400fcf7e	2.2470393
59	0xbf912f77	-1.134261
60	0xc0e97c92	-7.2964563
61	0x3fbe2fb1	1.4858304
62	0x40204cc5	2.5046856
63	0x41352927	11.322547
64	0xbe6ae79f	-0.22939919
65	0x40affbf4	5.499506
66	0x400f1134	2.235425
67	0xc06c3943	-3.690995
68	0x40ac82dc	5.390974
69	0x3f48aa2a	0.7838465
70	0x40a8b892	5.2725306
71	0x3ed2a82c	0.4114393
72	0xc1447b11	-12.2800455
73	0xc01a5d89	-2.411959
74	0x40a630f4	5.1934757
75	0x3fa4b02f	1.2866267
76	0xbf824940	-1.0178604
77	0x3eea67cb	0.45782313
78	0x4137711f	11.465117
79	0xc0983086	-4.7559233
80	0x3f01e668	0.507422
81	0xc095afdb	-4.6777167
82	0xbfe5ac2f	-1.7943171
83	0x3e3e9265	0.18610533
84	0xbf70aadc	-0.9401071
85	0x4086c7aa	4.211873
86	0xbf02c836	-0.5108675
87	0xbfb71f53	-1.4306434
88	0x3ee25b3b	0.44210228
89	0x3f670084	0.9023516
90	0x3fc1d89f	1.5144233
91	0xbfe4a1d2	-1.7861884
92	0xbe2f786b	-0.1713578
93	0xbf6584dd	-0.8965586
94	0x3f7a0228	0.9765954
95	0xbf68e70f	-0.9097757
96	0xc0c2e1de	-6.0900717
97	0x40a32ea6	5.0994444
98	0x40c7cf0f	6.2440257
99	0xc059b1da	-3.4014802
100	0x401f9cb0	2.4939384
101	0x4049f055	3.1552937
102	0x3f47fd4e	0.7812089
103	0xc104d882	-8.302858
104	0x40e68358	7.203533
105	0xbf40906b	-0.75220364
106	0xbf07c25b	-0.5303094
107	0x3eae01d5	0.33985773
108	0x4057524a	3.3643975
109	0xc01396cb	-2.3060787
110	0xc0206226	-2.5059905
111	0x41006351	8.024247
112	0x40899c9f	4.300369
113	0x3ee35c2b	0.44406256
114	0xbf93638f	-1.1514758
115	0x3fbd9b96	1.4813106
116	0xbf75802b	-0.95898694
117	0xbe2111f2	-0.15729502
118	0xbe251db7	-0.16124617
119	0xbf3875f4	-0.7205498
120	0xc03a2040	-2.9082184
121	0xbec0d152	-0.376597
122	0x408965a9	4.2936597
123	0x3ebeb07f	0.3724403
124	0x405ad453	3.4192092
125	0x3fd296cc	1.645227
126	0x4124e4cb	10.305858
127	0x401a1408	2.4074726
128	0x405edb8b	3.4821498
129	0xbf434e86	-0.7629169
130	0x40997ac0	4.796234
131	0xc0cb08ff	-6.344848
132	0x3ea26257	0.31715652
133	0x3e0b826a	0.13623968
134	0xc0b11be9	-5.534657
135	0xc06b21ec	-3.6739454
136	0x4007b40e	2.1203647
137	0x401c6c9c	2.444129
138	0x40c41393	6.1273894
139	0xc048cfd5	-3.137685
140	0x3e550ad0	0.20804906
141	0x3fa9cdf6	1.3265979
142	0xc08ce37c	-4.402769
143	0xc05a7a1f	-3.4137037
144	0xbf4c440e	-0.79791343
145	0xbf92be2c	-1.1464286
146	0x3f522cd9	0.8209968
147	0xbf90ea07	-1.132142
148	0xc061dcea	-3.5291085
149	0x3f86e0f3	1.0537399
150	0x3f015dcb	0.5053374
151	0xc0455ee6	-3.0839171
152	0xbf97acfa	-1.1849663
153	0xc0458656	-3.0863242
154	0x4068ce3f	3.6375883
155	0x40a65700	5.19812
156	0xbd0a3845	-0.03374507
157	0xbf8d7d1b	-1.1053804
158	0x3f989352	1.1919959
159	0xbf0a0de2	-0.53927433
160	0x3ee35df5	0.4440762
161	0xbe309109	-0.17242827
162	0xc01a6d29	-2.4129126
163	0xbf9555b1	-1.1666776
164	0xbfb51dce	-1.4149721
165	0xbeb96672	-0.36210972
166	0x3f47273b	0.77794236
167	0x3eafee93	0.34361705
168	0x3e9430a3	0.28943357
169	0x4010a6ca	2.26018
170	0x4039d31a	2.9035096
171	0xbfdae73e	-1.710182
172	0x3f269ffb	0.6508786
173	0x402c2adc	2.690116
174	0xbf58df5b	-0.84715813
175	0x3d229040	0.03968835
176	0x3f88470b	1.064668
177	0x3e845457	0.25845596
178	0x3f451f87	0.7700123
179	0xbf97e457	-1.1866559
180	0xbe8cb4c9	-0.27481678
181	0x3fd8333d	1.6890637
182	0x3fd0bd20	1.6307716
183	0x3e08dae3	0.13364749
184	0x3fe5ba52	1.7947485
185	0xbf3a534e	-0.7278336
186	0xc0673a2d	-3.6129258
187	0x3f60229e	0.8755282
188	0xbdb68cad	-0.089135505
189	0x3f245770	0.6419592
190	0xc0064f5b	-2.0985935
191	0x3ea474bf	0.3212032
192	0xc089c908	-4.30579
193	0xc0200b60	-2.5006943
194	0x4006881d	2.1020577
195	0x3cf95f15	0.030440846
196	0x3f76a042	0.96338284
197	0x3f44ea58	0.7692008
198	0xc041513d	-3.0205834
199	0x3fe820d3	1.8135017
200	0xbf8617bb	-1.0475992
201	0xbfae8c34	-1.3636537
202	0x3fb15b7b	1.3856043
203	0xbff43af9	-1.9080497
204	0x3f091df2	0.5356132
205	0x3f36397c	0.71181464
206	0x3f85c024	1.0449262
207	0xbf97fa10	-1.1873188
208	0x3f699dca	0.9125639
209	0x4028c534	2.6370363
210	0xbf527d21	-0.8222218
211	0xbf0410f9	-0.515884
212	0x3f7ba464	0.98297715
213	0x3f1e3073	0.6179268
214	0x3e2a2700	0.1661644
215	0x3edb126c	0.42787492
216	0xbebc459d	-0.3677186
217	0xbf1d09e7	-0.61343235
218	0xbfc83bac	-1.564321
219	0xbf011215	-0.50418216
220	0x3e91e88a	0.28497726
221	0x3e41cdda	0.18926182
222	0x3f64a5d3	0.8931553
223	0x3f1bef93	0.60912436
224	0xbe01dcb3	-0.12681846
225	0x3f0010a7	0.5002541
226	0x3fb6539b	1.4244264
227	0x3f28ee57	0.6598868
228	0xbf6316a6	-0.88706434
229	0x4084804c	4.1406612
230	0x406137a5	3.5190213
231	0x4052c8d6	3.293508
232	0x3f5ae2a0	0.8550205
233	0xc01796c0	-2.368576
234	0xc03f3e4f	-2.988178
235	0xc08b4efc	-4.3533916
236	0xc0ba5b71	-5.8236623
237	0xc0365aea	-2.849299
238	0x40000d0f	2.000797
239	0x40aafad6	5.3431196
240	0x4008d295	2.137853
241	0x4099f650	4.8113174
242	0xbf641d99	-0.8910766
243	0xbfb1178f	-1.3835315
244	0xc044a584	-3.0726023
245	0x3f8ec53a	1.1153939
246	0x3fcaae0d	1.5834366
247	0xbf43daf6	-0.7650598
248	0xc0022083	-2.0332344
249	0x4034f05d	2.8271706
250	0xbf50ebda	-0.8160988
251	0xbea6b154	-0.32557166
252	0xbf40f019	-0.7536636
253	0xbf15d435	-0.5852693
254	0x3f42088f	0.7579431
255	0xbe89554b	-0.26822886

bias_ih_l0 f4 [48]
0	0xbe0ea106	-0.13928613
1	0x3ea01f57	0.3127391
2	0x401d4fca	2.457995
3	0xc08f064a	-4.4695177
4	0x4052a776	3.291471
5	0xbfaa1139	-1.3286506
6	0xc05e50ba	-3.4736772
7	0x400c4181	2.191498
8	0x3fa2440d	1.2677017
9	0xbf0175a3	-0.50570124
10	0x3f9d5e93	1.2294487
11	0x3eedf1a9	0.46473435
12	0x40780109	3.8750632
13	0xbe86f47f	-0.2635841
14	0x408c6b7e	4.3881216
15	0x4032a6b1	2.791424
16	0x3ee3f4cd	0.44522706
17	0x408d066b	4.4070334
18	0x4041c023	3.027352
19	0xc0018e66	-2.0243163
20	0x400f62ca	2.2404046
21	0x3ff7ac3a	1.9349434
22	0x4031c1a9	2.777445
23	0x3f91aeb7	1.1381444
24	0xbf0f88a5	-0.5606788
25	0xc004afa1	-2.0732195
26	0x3ffd870e	1.980684
27	0xc024610d	-2.5684235
28	0x406e9cb0	3.7283134
29	0x3fad930f	1.3560504
30	0xc05773f3	-3.366452
31	0xc130d334	-11.051563
32	0x40844b71	4.134209
33	0x4084ec4d	4.1538453
34	0xbfe6e818	-1.8039579
35	0xbf2e4fef	-0.6809072
36	0x401e6378	2.474821
37	0x40087e3c	2.1327047
38	0x4093d0d4	4.6192417
39	0x3fec65b0	1.8468533
40	0xbf82a28c	-1.0205855
41	0x401f83b5	2.4924138
42	0x40149425	2.321542
43	0x400cf049	2.2021658
44	0x4077aad9	3.8698027
45	0x3f2b94d0	0.67023945
46	0xbec63178	-0.38709617
47	0x4047b9ca	3.1207147

bias_hh_l0 f4 [48]
0	0x3e13bd01	0.14427568
1	0x3f3362cc	0.7007263
2	0x4011b7e4	2.2768488
3	0xc08df545	-4.43619
4	0x406531d3	3.581166
5	0xbf8704b3	-1.0548309
6	0xc04ffb5a	-3.2497163
7	0x3ffb4f75	1.9633623
8	0x3fcf06f0	1.6173992
9	0xbe5d3fd2	-0.21606377
10	0x3fc13cdb	1.5096697
11	0x3ed6cbde	0.41952413
12	0x406b4d7d	3.6766045
13	0xbecf6e0a	-0.4051364
14	0x40915778	4.5419273
15	0x4018a67f	2.385162
16	0xbcad1eca	-0.021132845
17	0x4081e7df	4.0595546
18	0x405684d3	3.351857
19	0xbfc20848	-1.5158777
20	0x402e98a7	2.7280672
21	0x40128e20	2.2899246
22	0x403b6318	2.9279232
23	0x3f8e8d6c	1.1136909
24	0xbe97de74	-0.29661906
25	0xc008f1e4	-2.1397638
26	0x3fe6b383	1.8023533
27	0xc0050928	-2.0786839
28	0x405d4524	3.457345
29	0x3fc9526f	1.5728282
30	0xc0512369	-3.2677863
31	0xc1332272	-11.1959095
32	0x408ab3c2	4.334443
33	0x4084136f	4.1273723
34	0xbfb9230a	-1.4463818
35	0xbedc320b	-0.4300693
36	0x40218057	2.5234582
37	0x400d497d	2.2076104
38	0x4087c4c7	4.2427707
39	0x3fca4033	1.5800842
40	0xbf9ddcc3	-1.2332996
41	0x4016c114	2.3555346
42	0x403493fe	2.8215327
43	0x400a0cb1	2.1570246
44	0x40721237	3.7823617
45	0x3eaedc23	0.34152326
46	0xbf08141d	-0.5315569
47	0x40347b1d	2.8200142

weight f4 [10, 12]
0	0x3c9e9502	0.019358162
1	0x3fbcf388	1.476182
2	0xbf1e5b92	-0.61858475
3	0xbf7453d9	-0.9544044
4	0x3f4b6f81	0.79467016
5	0x3faed732	1.3659422
6	0x3f53cd15	0.82734805
7	0x3f6e9d3d	0.93208677
8	0xbfb39947	-1.4031152
9	0x4027a618	2.6195126
10	0xc006f39a	-2.1086183
11	0x3fadb849	1.3571864
12	0x3d5479da	0.05187402
13	0xbf7649cf	-0.9620637
14	0xbfc1c8cd	-1.5139405
15	0x40a10413	5.0317473
16	0xbfd2815b	-1.6445726
17	0xbf026d52	-0.5094806
18	0x4040ea68	3.014307
19	0xbf895c46	-1.0731285
20	0x3ec7bad0	0.39009714
21	0x3f70077a	0.9376141
22	0x3efe03dc	0.4961232
23	0xbfe96a99	-1.8235656
24	0x3f9ffa9b	1.2498354
25	0xbfb95d07	-1.4481515
26	0xbf12b3d9	-0.57305676
27	0x4041fe4f	3.0311468
28	0x3f37d3a3	0.71807307
29	0x3f48fd19	0.78511196
30	0xbe40ed5a	-0.18840542
31	0xbf848698	-1.0353575
32	0xbf24449f	-0.6416721
33	0xbf888e08	-1.0668344
34	0x3f70913f	0.9397163
35	0x3f84825d	1.0352284
36	0xbe775d6c	-0.24156731
37	0x40106899	2.2563841
38	0xbe645fe3	-0.22302203
39	0x405f0090	3.4844093
40	0x3f70e2a7	0.94095844
41	0x3f398dd9	0.7248207
42	0xbf661e11	-0.8988963
43	0xbea678a1	-0.32513908
44	0xbf4ee767	-0.8082184
45	0xc0043f37	-2.0663583
46	0x3f8eadcc	1.1146789
47	0xbe336785	-0.17519958
48	0xbf63582c	-0.88806415
49	0xc0347215	-2.819463
50	0x3f23f7b8	0.64049864
51	0xc090eabf	-4.5286555
52	0xbfb57a25	-1.41779
53	0xbd258c1e	-0.04041683
54	0x3fd363f0	1.6514874
55	0xbebb0e7d	-0.3653449
56	0x3fd2ff4b	1.6484159
57	0x401e6603	2.4749763
58	0x3f28dccd	0.65961915
59	0x3f424dff	0.7590026
60	0xbec6649e	-0.3874864
61	0x40181ee1	2.3768847
62	0x3e2b4e5d	0.16729112
63	0xbfa3cd9b	-1.2797121
64	0x3fbe1c58	1.48524
65	0xbffc1682	-1.9694369
66	0xbfc09961	-1.5046808
67	0xbeccc1e7	-0.39991686
68	0xbf6c48f1	-0.922988
69	0xbe83b837	-0.25726482
70	0x3f156c52	0.5836841
71	0xbec56fd4	-0.3856188
72	0x405cb138	3.4483166
73	0xbf753c67	-0.9579529
74	0xbfb8238d	-1.4385849
75	0xc0a9d8f4	-5.3077335
76	0x3db85897	0.09001272
77	0xc01041e7	-2.2540224
78	0xbfa4efbd	-1.2885662
79	0x3f8318e7	1.0241975
80	0xbf34b13c	-0.7058294
81	0x3f35dffb	0.7104489
82	0xbf0c73f4	-0.5486443
83	0x3d91d7ef	0.07121264
84	0xbfb550cb	-1.4165281
85	0x3ec8f643	0.39250383
86	0x402cb708	2.6986713
87	0x40ae6db3	5.450891
88	0xbf9ec1dc	-1.2402911
89	0x3d680d0f	0.05665308
90	0xbfdde129	-1.7334338
91	0x3f436765	0.7632964
92	0x3fb6e8fa	1.4289849
93	0xbf088738	-0.5333133
94	0xbf3acdf3	-0.72970504
95	0x3f247919	0.6424728
96	0x3e82d13b	0.25550255
97	0x3d1163b4	0.035495475
98	0xbf29cbd4	-0.6632664
99	0xbfe1beb4	-1.7636323
100	0x3f1e91ba	0.6194111
101	0x3f588bfe	0.8458861
102	0x3fa22e4e	1.2670381
103	0xbe4a3e42	-0.19750312
104	0xbf36b925	-0.7137626
105	0xbf5f6dbf	-0.87276834
106	0xbf376a37	-0.71646446
107	0xbff6a6b7	-1.9269627
108	0xc012c8b6	-2.2935004
109	0xbf85f02e	-1.0463922
110	0x3ff7cce9	1.9359409
111	0xc061d78c	-3.528781
112	0xbf4498a1	-0.76795393
113	0x3eaa6093	0.33276805
114	0xbf9d32e1	-1.2281152
115	0x3f0bc9b3	0.54604644
116	0x3fb17176	1.386275
117	0xbf952b74	-1.1653886
118	0x3f0e1a23	0.5550863
119	0x3f28f527	0.6599907

bias f4 [10]
0	0xbfb380fc	-1.4023738
1	0x40035ca6	2.0525298
2	0x3f19b017	0.60034317
3	0x3eb644ce	0.3559937
4	0xbf83956d	-1.0279976
5	0xbebdc1f9	-0.37062052
6	0xc043f0f7	-3.0615823
7	0x404380f2	3.0547452
8	0xbdfdebe9	-0.12398512
9	0xbea81558	-0.32828784
