model/new/16_gru.model (torch_old, 20050 bytes, 6 tensors)

weight_ih_l0 f4 [48, 28]
0.8162637 0.5713505 0.5621898 0.54293746 0.058963135 0.003783045 -0.85407615 -0.40758163
-0.63956714 -1.154927 -1.3069862 -1.2105093 -0.6134617 -0.4410338 0.69257796 0.54757917
-0.62011075 -0.15679583 0.010907502 -0.19035192 -0.26171717 -0.32442927 -0.0015952677 0.40250212
0.5909705 0.73908144 0.8183267 0.76128614 0.31825644 0.68839705 0.5395399 0.5626274
0.3120434 -0.032406315 -0.5255737 -0.35929573 0.21819882 -1.3406584 -1.2644141 -1.3702334
-1.8202225 -1.7914945 1.2656963 2.197901 -0.103420295 0.29790434 -0.715524 -1.47765
-0.98701227 -0.45358658 -0.6273918 -0.72602016 0.21465527 0.4665845 0.7631361 0.61301357
-0.2828714 -0.421541 -0.07616913 -0.3249094 -0.5757042 -0.61841375 -1.4570599 -1.9101506
-1.2823955 0.102719456 -0.14176261 -0.08210041 1.371059 0.4082103 -0.025633665 -1.3367506
-0.8760245 -0.837007 0.8747106 0.75506365 0.19093212 -0.39770114 -0.7101513 -0.50480336
-0.8000772 -0.36832285 -0.19973415 -0.33194023 0.04845083 -0.2554058 -0.35155228 -0.04421141
-0.10701652 0.3114862 0.20695195 -0.25343832 -0.5422443 -0.14999361 0.053970512 0.2454051
0.2628847 -0.32309496 -0.6846347 -1.2233803 -1.9176221 -1.6500487 -1.172711 -1.3739076
-0.48458678 0.24077275 0.5349098 0.3570529 0.20797673 0.022823729 0.019024653 0.092977025
1.1898454 0.8050888 1.0967368 1.2557025 1.3508554 1.4825863 1.6548378 1.544169
1.0798595 0.74137646 1.2849005 0.86194813 1.2423636 0.75016826 0.5752585 -4.364608
-2.9319441 2.453656 2.2320244 2.3957312 2.5551863 1.8767302 1.8878092 2.1383927
1.7590322 1.2529587 0.77527326 0.7221595 -0.8516121 -0.7782532 -0.95329064 -0.11723232
1.1885102 1.6168343 1.1240727 1.4936033 2.1317215 2.426556 0.6994068 -1.2022241
1.0468513 0.619643 -1.4838704 -0.698838 -0.14880487 0.24246328 0.29032052 -0.2104602
0.52916 1.0491718 -0.03254327 -0.06733882 -0.46335945 -0.33646944 -0.8342889 -0.8018664
-0.51721734 -0.37591025 -0.22785494 0.14435676 0.30935702 0.3215855 0.039246008 -0.16837269
0.019468889 -0.66880244 0.12826146 -0.6332254 -0.4494786 0.297787 0.18709838 -0.07526804
-0.11736993 -0.24206561 -0.37496042 -0.35163212 -0.69711316 -0.41473708 -0.2902414 -1.1062
-1.7298436 -0.9988761 -0.47493616 -0.53466123 1.0302739 1.0373552 1.0660425 0.7330747
1.1071562 0.7792636 1.2077748 0.7919238 0.40182513 -0.23113431 -0.57287675 -0.17785332
-0.015416974 0.9362114 0.9887967 -2.4124844 -4.121383 -3.8521461 -0.8415848 1.8027451
0.8478598 0.7971606 0.5995963 0.86361027 0.31904137 0.97609705 0.7401995 0.8095958
0.45342723 0.15162174 0.2949869 0.64570487 0.7516328 0.49665806 -0.007539717 -0.792783
-0.7958838 -0.41574836 -0.51458025 -1.2543886 -3.6111517 -1.8424549 -0.44903827 -0.5803711
0.7537529 1.9276205 2.252015 2.6357894 2.0723689 2.4013414 1.0728979 0.8787689
0.0060832296 0.9392725 1.0275741 0.4168405 -0.38571343 -0.2975244 -0.36928222 -0.29237953
00000000: a8f6 503f 0744 123f aceb 0f3f f3fd 0a3f
00000010: 5483 713d f7ec 773b bca4 5abf 8aae d0be
00000020: acba 23bf a6d4 93bf 534b a7bf f8f1 9abf
00000030: d30b 1dbf 2fcf e1be ca4c 313f 262e 0c3f
00000040: 94bf 1ebf 168f 20be 61b5 323c 9deb 42be
00000050: cbff 85be 981b a6be 4d18 d1ba c214 ce3e
00000060: d849 173f 7134 3d3f dc7d 513f a6e3 423f
00000070: 82f2 a23e ca3a 303f 491f 0a3f 5908 103f
00000080: 27c4 9f3e 7cbc 04bd ff8b 06bf 9cf5 b7be
00000090: 836f 5f3e b29a abbf 52d8 a1bf cf63 afbf
000000a0: 0dfd e8bf b14f e5bf 5602 a23f 69aa 0c40
000000b0: 05ce d3bd eb86 983e 952c 37bf a323 bdbf
000000c0: d6ac 7cbf 803c e8be c09c 20bf 75dc 39bf
000000d0: 97ce 5b3e 2ae4 ee3e e35c 433f 75ee 1c3f
000000e0: 85d4 90be 39d4 d7be 90fe 9bbd 865a a6be
000000f0: 5a61 13bf 5d50 1ebf f080 babf d17f f4bf
00000100: 8925 a4bf 945e d23d 382a 11be 4224 a8bd
00000110: dc7e af3f f100 d13e b1fd d1bc a51a abbf
00000120: 2443 60bf 1746 56bf 09ed 5f3f da4b 413f
00000130: b683 433e 7c9f cbbe 7acc 35bf cb3a 01bf
00000140: dcd1 4cbf d094 bcbe 1c87 4cbe 12f4 a9be
00000150: 6174 463d 8dc4 82be a9fe b3be 0617 35bd
00000160: 7a2b dbbd 1f7b 9f3e 36eb 533e abc2 81be
00000170: 86d0 0abf ed97 19be 2f10 5d3d 794b 7b3e
00000180: d398 863e b46c a5be 3844 2fbf ba97 9cbf
00000190: a474 f5bf cc34 d3bf 651b 96bf 34dc afbf
000001a0: c21b f8be 228d 763e d9ef 083f a3cf b63e
000001b0: daf7 543e d4f8 ba3c 97d9 9b3c bd6a be3d
000001c0: db4c 983f 4d1a 4e3f df61 8c3f dcba a03f
000001d0: d4e8 ac3f 63c5 bd3f bad1 d33f 54a7 c53f
000001e0: d638 8a3f d9ca 3d3f 9f77 a43f a2a8 5c3f
000001f0: c505 9f3f 070b 403f 2444 133f deaa 8bc0
00000200: f9a4 3bc0 b308 1d40 7dd9 0e40 a953 1940
00000210: 2c88 2340 b238 f03f bba3 f13f 6ddb 0840
00000220: f827 e13f f360 a03f 4f78 463f 72df 383f
00000230: 4003 5abf 9a3b 47bf db0a 74bf 8017 f0bd
00000240: 1a21 983f 6df4 ce3f 9de1 8f3f 652e bf3f
00000250: 206e 0840 b24c 1b40 530c 333f 7be2 99bf
00000260: 39ff 853f eca0 1e3f 77ef bdbf 0ce7 32bf
00000270: 4e60 18be 4b48 783e e4a4 943e e182 57be
00000280: 0877 073f 434b 863f 184c 05bd efe8 89bd
00000290: 733d edbe b945 acbe f593 55bf 1e47 4dbf
000002a0: 5b68 04bf 4f77 c0be ce52 69be 42d2 133e
000002b0: 0b64 9e3e dba6 a43e 6cc0 203d e469 2cbe
000002c0: 387d 9f3c a336 2bbf f956 033e 0f1b 22bf
000002d0: 0f22 e6be 8a77 983e b896 3f3e 2126 9abd
000002e0: a55f f0bd 0ce0 77be d0fa bfbe 2009 b4be
000002f0: 0276 32bf 6b58 d4be 859a 94be f697 8dbf
00000300: 846b ddbf 58b6 7fbf d52a f3be 8fdf 08bf
00000310: 04e0 833f 0ec8 843f 1574 883f c9aa 3b3f
00000320: 4bb7 8d3f d27d 473f 5d98 9a3f 85bb 4a3f
00000330: 06bc cd3e 79ae 6cbe 0da8 12bf 2e1f 36be
00000340: 7a97 7cbc 8dab 6f3f c821 7d3f 2566 1ac0
00000350: 5fe2 83c0 9089 76c0 1a72 57bf 5ac0 e63f
00000360: 570d 593f b812 4c3f 257f 193f 9015 5d3f
00000370: 6459 a33e 7fe1 793f b77d 3d3f ac41 4f3f
00000380: 9d27 e83e bb42 1b3e 8608 973e ea4c 253f
00000390: 026b 403f f749 fe3e bb0f f7bb d4f3 4abf
000003a0: 0abf 4bbf f8dc d4be 88bb 03bf ce8f a0bf
000003b0: 1c1d 67c0 90d5 ebbf 58e8 e5be 3393 14bf
000003c0: f3f5 403f 45bc f63f 0421 1040 c6b0 2840
000003d0: b1a1 0440 94af 1940 b854 893f 00f7 603f
000003e0: d455 c73b 2a74 703f 8c87 833f 1e6c d53e
000003f0: 3b7c c5be 1e55 98be 8f12 bdbe c5b2 95be

weight_hh_l0 f4 [48, 16]
-2.1075578 -1.2560695 1.2571284 -0.4624368 -1.4540441 0.9947119 -0.80084985 0.45386514
-0.3682515 -0.33205786 -0.22000957 -0.40069792 -1.363715 -1.369459 -0.29986927 -1.574598
-0.4248538 0.41801792 0.08742101 1.0323478 0.18645272 1.8150958 -0.6940213 -0.182815
-0.74549794 0.97049135 1.2260635 -2.5947483 -0.9929053 -0.068435915 0.21989046 -1.4328712
-2.0387578 0.9546363 0.068364084 0.08687078 2.3925927 -1.430408 0.6488854 -0.5266136
0.41812158 -1.8446398 -0.7271133 1.838871 3.1176078 -0.92617995 1.1539118 0.76556796
-1.2077575 -0.44591537 0.2847397 0.31996956 -1.4371017 0.83143336 -0.43814096 -0.15637034
0.2438155 0.01898341 -0.09562663 -0.43390495 -1.3376082 0.38031703 -0.13891818 0.43196923
-4.5790114 2.4379983 0.113047756 2.2958498 -3.235653 1.4217209 -1.1950042 0.51689446
-2.4891872 -0.7546071 -1.9054687 1.8274903 0.6991061 0.9326869 1.7733704 -1.1794467
-0.8393381 0.32828894 -0.11801817 -1.8180078 0.1540046 0.44502372 -0.043000795 0.4454578
-2.3926706 1.6000468 -2.0009487 1.1167054 0.67781186 0.40861538 -0.5224004 1.0003856
2.5863166 0.8288262 -0.7703955 0.6505547 -0.87931263 2.670666 -1.9165579 0.26105782
0.57809305 1.5114235 -0.09080041 -1.540984 1.1900305 -0.02601308 -0.55682594 -0.8501012
0.87796 -1.129763 -1.029609 1.9520946 -1.2278512 2.5619528 -0.1953109 2.040896
3.1338983 -0.5336267 3.2303843 -2.0009475 -3.1152015 -1.293199 1.2111003 -2.0636601
0.5949224 -0.96059 0.09017726 -2.6014092 1.4532306 0.9112756 0.10570117 0.048792116
0.6796617 -0.09561567 1.6854626 -0.62186134 0.15767018 0.3133617 -0.45389745 -0.017855732
-0.19176415 0.13649394 0.1390967 0.30422953 -0.03815846 -0.29909238 -0.18744932 -0.21748042
0.25334725 0.13612093 0.0064203846 -0.077578515 0.055490445 -0.26733875 0.16799282 -0.1183688
-1.781106 0.54191154 -0.5286162 -0.35873634 0.451998 0.14897202 -0.41316876 -0.02439111
-0.4982376 0.46736974 0.29040676 0.40002558 0.5231478 -0.9550021 0.74289304 0.3714218
-1.3169296 0.1722655 -0.11627029 -0.5414683 -0.018490793 -0.13506736 0.3572281 -0.09691242
0.90802115 1.1800026 0.7930848 -0.14614941 0.9962489 -1.837746 0.25501868 1.7600125
0.21916135 -0.059748765 0.06447838 0.38274094 1.0539651 -0.20477709 0.5133697 0.9636545
1.5285199 -1.2390865 0.8081889 -0.9964583 1.0851786 -0.014393452 0.76890236 1.4913255
-3.082207 0.22604196 -2.0521674 0.6830556 1.5648841 -1.6157062 0.34708804 -0.8055991
0.60468584 2.9216561 -1.0223374 -0.43738514 0.07787312 -0.77918875 2.2967591 -0.24701577
-1.1027979 -0.14866215 -0.6425941 2.2117639 -0.22975108 1.2670826 0.31971958 -0.3993779
1.6059483 4.610863 1.9584519 -0.5638738 0.2934118 -0.26192197 3.9003875 0.16946085
0.22536568 0.5792943 -1.3176254 0.035555296 0.004722158 1.555344 -0.23370722 0.19316235
1.4413867 0.44341412 2.622179 -1.8916067 -0.74081564 0.23919512 1.5205058 -1.5957532
00000000: 3ae2 06c0 e3c6 a0bf 95e9 a03f 84c4 ecbe
00000010: 1e1e babf 70a5 7e3f 7f04 4dbf 0361 e83e
00000020: 768b bcbe 7d03 aabe 304a 61be 4728 cdbe
00000030: 378e aebf 6f4a afbf 7788 99be 6d8c c9bf
00000040: 7086 d9be 7206 d63e c909 b33d f923 843f
00000050: 76ed 3e3e 0f55 e83f 61ab 31bf db33 3bbe
00000060: f4d8 3ebf 1f72 783f a6ef 9c3f 5b10 26c0
00000070: 0b2f 7ebf 2128 8cbd f72a 613e 5368 b7bf
00000080: 027b 02c0 0b63 743f 7802 8c3d 4fe9 b13d
00000090: 3d20 1940 9c17 b7bf 5b1d 263f 26d0 06bf
000000a0: 0814 d63e 281d ecbf 1924 3abf 2060 eb3f
000000b0: e386 4740 211a 6dbf 62b3 933f 43fc 433f
000000c0: cc97 9abf 054f e4be 67c9 913e 0dd3 a33e
000000d0: f3f2 b7bf d1d8 543f 0354 e0be 8c1f 20be
000000e0: c5aa 793e 1983 9b3c e5d7 c3bd ca28 debe
000000f0: bf36 abbf eab8 c23e 9140 0ebe 122b dd3e
00000100: 4387 92c0 2a08 1c40 9585 e73d 34ef 1240
00000110: f014 4fc0 f3fa b53f e6f5 98bf 3253 043f
00000120: d84e 1fc0 ee2d 41bf 66e6 f3bf 34eb e93f
00000130: 9ef8 323f 92c4 6e3f cdfd e23f 1cf8 96bf
00000140: ddde 56bf 7d15 a83e 83b3 f1bd 7bb4 e8bf
00000150: 62b3 1d3e 26da e33e 9a21 30bd 0b13 e43e
00000160: 8421 19c0 55ce cc3f 8b0f 00c0 34f0 8e3f
00000170: 1485 2d3f 0936 d13e 08bc 05bf a30c 803f
00000180: 3686 2540 f42d 543f a438 45bf c18a 263f
00000190: a21a 61bf 31ec 2a40 c551 f5bf 5fa9 853e
000001a0: e8fd 133f 5376 c13f 91f5 b9bd f73e c5bf
000001b0: eb52 983f 6219 d5bc 258c 0ebf 3ba0 59bf
000001c0: fdc1 603f 139c 90bf 3aca 83bf 3cde f93f
000001d0: 3a2a 9dbf 09f7 2340 95ff 47be 0a9e 0240
000001e0: ca91 4840 c29b 08bf 9ebe 4e40 860f 00c0
000001f0: 765f 47c0 8b87 a5bf 5605 9b3f 0213 04c0
00000200: d64c 183f 3ae9 75bf dbae b83d 7d7d 26c0
00000210: 7603 ba3f 5c49 693f db79 d83d 3eda 473d
00000220: 4ffe 2d3f 26d2 c3bd 3dbd d73f 4e32 1fbf
00000230: 4b74 213e f270 a03e 3f65 e8be 2f46 92bc
00000240: d25d 44be 11c5 0b3e 5e6f 0e3e f9c3 9b3e
00000250: 0c4c 1cbd a322 99be b7f2 3fbe 30b3 5ebe
00000260: bbb6 813e 4963 0b3e 1762 d23b 7ce1 9ebd
00000270: f349 633d a0e0 88be 4f06 2c3e 576b f2bd
00000280: 48fb e3bf b7ba 0a3f 6453 07bf 4aac b7be
00000290: 486c e73e 1f8c 183e db8a d3be ddcf c7bc
000002a0: 0019 ffbe 164b ef3e 32b0 943e 27d0 cc3e
000002b0: 04ed 053f 057b 74bf 3d2e 3e3f 002b be3e
000002c0: 2691 a8bf 5e66 303e 1e1f eebd ab9d 0abf
000002d0: 017a 97bc 194f 0abe 9ae6 b63e 057a c6bd
000002e0: 1374 683f 530a 973f 9b07 4b3f 31a8 15be
000002f0: 2b0a 7f3f 433b ebbf cf91 823e 1748 e13f
00000300: d56b 603e 1fbb 74bd 3e0d 843d 9ff6 c33e
00000310: 54e8 863f 16b1 51be 326c 033f 10b2 763f
00000320: 8aa6 c33f 639a 9ebf 78e5 4e3f e417 7fbf
00000330: 22e7 8a3f 83d2 6bbc c9d6 443f c1e3 be3f
00000340: e142 45c0 8b77 673e b656 03c0 bbdc 2e3f
00000350: 1f4e c83f 76cf cebf 86b5 b13e be3b 4ebf
00000360: b1cc 1a3f 6afc 3a40 f4db 82bf f2f0 dfbe
00000370: f17b 9f3d ea78 47bf 1afe 1240 b4f1 7cbe
00000380: 7b28 8dbf e43a 18be 0c81 24bf 8a8d 0d40
00000390: de43 6bbe c32f a23f 49b2 a33e 437b ccbe
000003a0: b78f cd3f 318c 9340 8dae fa3f 095a 10bf
000003b0: 123a 963e a31a 86be f39f 7940 2587 2d3e
000003c0: 43c6 663e a24c 143f f3a7 a8bf 6ea2 113d
000003d0: 55bc 9a3b 8315 c73f f250 6fbe 5acc 453e
000003e0: 5c7f b83f 2d07 e33e c8d1 2740 2b20 f2bf
000003f0: 18a6 3dbf 91ef 743e ef9f c23f a441 ccbf

bias_ih_l0 f4 [48]
-1.4391242 -1.4978428 0.6350096 0.028473558 -2.0561557 1.7517612 0.861238 -2.3456435
-0.759458 0.85932726 0.5847029 1.6282183 1.5304496 0.80916524 1.5320603 -0.37621078
-3.1704514 -3.4568954 0.18119976 -2.3128586 0.9347429 1.2884268 2.0242593 4.5632734
0.32651308 7.0900187 0.21293297 -1.549982 3.0414515 2.9590077 0.26106066 1.8348627
1.9851843 2.4516463 0.49012357 -0.023587711 -0.7856933 1.4404482 2.0923173 -5.082213
5.405887 0.12431678 4.9042735 -1.3391923 -1.6225702 -0.05376868 0.83529943 1.0619817
00000000: 3935 b8bf 50b9 bfbf fd8f 223f 6141 e93c
00000010: 0e98 03c0 b639 e03f 187a 5c3f 061f 16c0
00000020: d76b 42bf dffc 5b3f 17af 153f 7569 d03f
00000030: c6e5 c33f 7425 4f3f 8d1a c43f b39e c0be
00000040: ade8 4ac0 c63d 5dc0 6e8c 393e e005 14c0
00000050: 504b 6f3f 2beb a43f 778d 0140 5606 9240
00000060: b92c a73e 6fe1 e240 1a0b 5a3e cf65 c6bf
00000070: 24a7 4240 6260 3d40 bea9 853e c8dc ea3f
00000080: 851a fe3f c6e7 1c40 7af1 fa3e 043b c1bc
00000090: 3223 49bf 9b60 b83f 87e8 0540 7da1 a2c0
000000a0: 07fd ac40 cc99 fe3d cfef 9c40 a76a abbf
000000b0: 61b0 cfbf 8c3c 5cbd 2fd6 553f 04ef 873f

bias_hh_l0 f4 [48]
-1.7559148 -1.3407633 0.51172525 0.16454872 -2.331991 1.9560769 0.7318439 -1.907151
-0.97456944 0.5102991 0.4438953 1.4943137 1.4742012 0.7080404 1.5202007 -0.27379775
-3.1022143 -3.0998101 0.3200385 -1.9845718 0.73303825 1.1381805 2.0907874 4.6794786
0.36962345 7.140762 -0.020291114 -1.451455 2.9644964 2.8134618 0.25711977 1.8852506
0.056943964 -2.6439996 2.6829095 -0.20341255 -0.5296093 -2.420005 2.126303 -3.6697419
3.118498 -0.020651499 -0.63113844 -2.830387 -0.30397975 1.0076525 -1.4964813 3.3534958
00000000: d1c1 e0bf 229e abbf 6d00 033f 767f 283e
00000010: 573f 15c0 ba60 fa3f 1f5a 3b3f 861d f4bf
00000020: 627d 79bf f6a2 023f 3f46 e33e ac45 bf3f
00000030: a0b2 bc3f 2342 353f f095 c23f 382f 8cbe
00000040: ae8a 46c0 4a63 46c0 16dc a33e 7306 febf
00000050: 65a8 3b3f e6af 913f 76cf 0540 4abe 9540
00000060: 493f bd3e 1f81 e440 8d39 a6bc 47c9 b9bf
00000070: 4fba 3d40 c20f 3440 34a5 833e e44f f13f
00000080: 133e 693d 4a37 29c0 cab4 2b40 614b 50be
00000090: 7a94 07bf 5de1 1ac0 5915 0840 0ddd 6ac0
000000a0: 7995 4740 552d a9bc 4a92 21bf 1025 35c0
000000b0: 3ca3 9bbe c2fa 803f b38c bfbf ad9f 5640

weight f4 [10, 16]
-0.29625976 0.48822388 -1.2180874 0.8505414 2.0538778 2.4830074 4.261751 -1.106341
-0.61045974 -0.857527 -0.38548654 1.2699468 2.7142966 1.0864449 -0.37649515 -1.9689158
-0.12642327 -0.62017536 0.31597885 -2.1625333 1.1523055 -1.2826003 0.35493925 2.2979043
-0.3397522 -2.087381 0.36833614 0.6843639 -1.3998933 1.1466793 -0.32896635 2.3684597
1.2296734 0.38490725 -1.0859133 0.046728596 -0.5793065 -1.4564631 1.0636619 -1.7675173
-1.8844453 1.9340518 -1.041712 -0.14872721 1.5583029 0.12909411 -1.3367245 1.2415712
0.65168023 -0.21216957 -0.6175424 0.30431563 -1.3511469 -1.2606529 -2.3716347 -1.5232418
0.15225667 0.83710253 0.81931347 -0.088783845 0.84055233 -2.9036655 1.8834906 1.8819008
-0.3557159 0.41970253 2.499515 -1.8162433 -1.1290494 0.89051956 -0.41556135 5.1185207
0.72709996 -0.7270588 -1.0945282 -0.03259106 1.8973367 0.07202113 -0.7723927 -1.379742
0.53404045 -0.56700677 -0.45447996 1.550797 -1.4337679 0.33604714 -1.3402528 -1.6201833
-0.42020538 -0.6204282 0.46048164 -0.5063371 -4.394693 -2.1168778 1.466004 0.22313115
-0.90280986 0.889249 -2.832179 0.91867125 2.4669478 0.5099322 0.53979707 2.746605
-3.1975293 1.3210536 0.3711158 0.605627 -4.9022756 0.8172962 0.17733057 -1.562327
-0.09620588 0.37353504 2.7298925 0.29470044 -1.896598 -1.7930989 0.35822573 -1.4896005
2.1271741 1.5828844 0.78724366 -1.1606256 2.797569 0.3379422 -0.17970851 1.0204848
0.19932799 -0.97770137 -0.7811215 -0.052129608 0.34344226 0.41988668 -1.3074899 -1.1376687
0.354482 0.35966057 -0.64907926 0.34092334 0.05122388 2.5029838 -0.30888242 -0.25953817
-0.12584017 0.39471245 2.114593 0.024919283 0.024099384 0.94258225 -1.1097453 -1.8577139
2.637165 -1.152877 0.34146547 -0.53873944 0.5755847 -1.6471324 -0.45306775 -1.592669
00000000: 5caf 97be 7bf8 f93e 4aea 9bbf 15bd 593f
00000010: bc72 0340 98e9 1e40 4460 8840 959c 8dbf
00000020: 1747 1cbf e486 5bbf 7e5e c5be 9e8d a23f
00000030: 09b7 2d40 a010 8b3f f9c3 c0be 6f05 fcbf
00000040: 1a75 01be d0c3 1ebf fbc7 a13e f266 0ac0
00000050: bf7e 933f 3f2c a4bf 99ba b53e dd10 1340
00000060: 00f4 adbe a697 05c0 8e96 bc3e 7932 2f3f
00000070: b42f b3bf 63c6 923f 476e a8be d894 1740
00000080: f065 9d3f 9012 c53e 35ff 8abf 7c66 3f3d
00000090: 6e4d 14bf 626d babf 1326 883f 023e e2bf
000000a0: 8135 f1bf 028f f73f d256 85bf f24b 18be
000000b0: 7876 c73f 3f31 043e ca19 abbf ceeb 9e3f
000000c0: 84d4 263f fb42 59be 4217 1ebf 42cf 9b3e
000000d0: 62f2 acbf 135d a1bf ddc8 17c0 96f9 c2bf
000000e0: 2ce9 1b3e 5a4c 563f 87be 513f 4ed4 b5bd
000000f0: 702e 573f a8d5 39c0 3816 f13f 20e2 f03f
00000100: 6520 b6be 40e3 d63e 0ef8 1f40 a97a e8bf
00000110: b184 90bf 17f9 633f 75c4 d4be ecca a340
00000120: 3923 3a3f 8720 3abf 8019 8cbf 347e 05bd
00000130: eedb f23f d07f 933d 87bb 45bf 639b b0bf
00000140: e0b6 083f 5b27 11bf 99b1 e8be 8480 c63f
00000150: b585 b7bf 5f0e ac3e 678d abbf 2b62 cfbf
00000160: 2925 d7be 62d4 1ebf 40c4 eb3e 4f9f 01bf
00000170: 53a1 8cc0 ed7a 07c0 05a6 bb3f 7e7c 643e
00000180: 8c1e 67bf d3a5 633f 6c42 35c0 0a2e 6b3f
00000190: 79e2 1d40 eb8a 023f 2430 0a3f 60c8 2f40
000001a0: 52a4 4cc0 4918 a93f e402 be3e 5f0a 1b3f
000001b0: 71df 9cc0 533a 513f 2596 353e 55fa c7bf
000001c0: 9707 c5bd fc3f bf3e 8fb6 2e40 fae2 963e
000001d0: b9c3 f2bf 4484 e5bf 5d69 b73e 3bab bebf
000001e0: 9f23 0840 f59b ca3f cd88 493f 618f 94bf
000001f0: 5f0b 3340 c306 ad3e 8205 38be 3f9f 823f
00000200: a31c 4c3e a34a 7abf 94f7 47bf db85 55bd
00000210: aad7 af3e 63fb d63e d45b a7bf 219f 91bf
00000220: aa7e b53e 6e25 b83e 0f2a 26bf 818d ae3e
00000230: 22d0 513d e330 2040 d625 9ebe 30e2 84be
00000240: 3fdc 00be c017 ca3e 7e55 0740 8623 cc3c
00000250: 126c c53c 124d 713f 220c 8ebf 92c9 edbf
00000260: 50c7 2840 7991 93bf 90d4 ae3e d4ea 09bf
00000270: 8559 133f 3cd5 d2bf 7ff8 e7be 94dc cbbf

bias f4 [10]
-0.308122 1.5513921 0.04087396 -1.8166735 1.7421452 -0.2849226 -1.1050066 -0.33452943
-0.030956814 0.8448785
00000000: 2bc2 9dbe 0494 c63f 746b 273d c288 e8bf
00000010: 9dfe de3f 60e1 91be db70 8dbf 7147 abbe
00000020: 2599 fdbc f549 583f
