model/new/16_lstm.model (torch_old, 23691 bytes, 6 tensors)

weight_ih_l0 f4 [64, 28]
0	0x3f38bb4f	0.7216081
1	0x3ee39722	0.44451243
2	0x3ec73b6f	0.38912532
3	0x3d221a4c	0.03957586
4	0x3ea5259b	0.32255253
5	0xbea061d9	-0.31324652
6	0xbeb2410e	-0.34815258
7	0xbd559965	-0.05214824
8	0xbe9bec18	-0.30453563
9	0xbeb98c3e	-0.3623981
10	0xbee40c8f	-0.4454083
11	0x3d50e6a8	0.05100122
12	0x3e1caf9c	0.15301365
13	0x3f1c67a3	0.6109564
14	0x3fbc598e	1.471483
15	0x3ec81918	0.39081645
16	0x3d514f52	0.051101036
17	0x3ea286c3	0.3174344
18	0xbde7d0b0	-0.11319101
19	0x3e5e5eaa	0.21715799
20	0xbe050ba8	-0.12992728
21	0xbf2be9aa	-0.6715342
22	0xbeae583f	-0.340517
23	0xbf467e8b	-0.7753684
24	0xbfb95f46	-1.44822
25	0x3f2edd8d	0.6830681
26	0x3f168be4	0.58807206
27	0x3f57ca40	0.84292984
28	0x3f2eb2c2	0.6824151
29	0x3f89ad71	1.0756055
30	0x3f2f0070	0.6836004
31	0x3f0b5835	0.5443147
32	0xbf1f5ea6	-0.622538
33	0xbed7ec21	-0.4217234
34	0xbee4570b	-0.4459766
35	0x3e1b67e4	0.1517635
36	0x3d54af4e	0.051924996
37	0x3d2b9828	0.041893154
38	0x3e24c262	0.16089776
39	0x3da5f4ca	0.081033304
40	0xbc2b6578	-0.010461204
41	0xbdd846c2	-0.10560371
42	0xbe1eb81b	-0.15499918
43	0xbed75a7d	-0.42061225
44	0xbf08fde9	-0.53512436
45	0xbf6d534c	-0.92705226
46	0xbe62ec17	-0.22160374
47	0x3ed60f79	0.4180868
48	0xbf486b1e	-0.7828845
49	0xbe024f6c	-0.1272561
50	0xbf271011	-0.6525889
51	0xbe6d0225	-0.2314535
52	0xbf22317b	-0.6335675
53	0xbf83c6f6	-1.0295093
54	0x3f4b917d	0.7951887
55	0x3f806bea	1.0032933
56	0xbd926ccd	-0.07149658
57	0xbe856ea2	-0.2606097
58	0x3b55945a	0.0032589645
59	0xbf136226	-0.5757164
60	0xbf818d8c	-1.0121322
61	0xbf4b2836	-0.7935823
62	0xbf7fb79c	-0.9988954
63	0xbf8db857	-1.1071881
64	0xbfbc2896	-1.4699886
65	0xc004e0d4	-2.0762224
66	0xbf4ea679	-0.8072277
67	0xbf8b7f61	-1.0898248
68	0xbe9fd5de	-0.31217855
69	0xbdccbcde	-0.09996961
70	0x3e5282cb	0.20557706
71	0xbeafa8bb	-0.3430842
72	0x3e266822	0.16250661
73	0xbe7b7e4b	-0.24559896
74	0xbe3975ca	-0.18111339
75	0xbf24b94a	-0.6434523
76	0xbed53cae	-0.41647857
77	0xbf158dba	-0.5841938
78	0xbf9549fd	-1.1663204
79	0xbf864bae	-1.0491846
80	0xbf871df7	-1.055602
81	0xbec0d235	-0.37660375
82	0xbe8207e9	-0.2539666
83	0xbe081993	-0.13291006
84	0xbd4e0fc1	-0.050307993
85	0xbeacd2e1	-0.33754638
86	0xbeb07c29	-0.34469727
87	0x3d9cc231	0.076542266
88	0x3e99cf3c	0.3004092
89	0x3f9f2c86	1.2435462
90	0x3faefcc5	1.3670889
91	0x40876110	4.2305984
92	0x408cc9aa	4.399617
93	0xbf71a28d	-0.9438866
94	0xc0027f38	-2.0390148
95	0xbfc5d636	-1.5455997
96	0xbe829662	-0.25505358
97	0xbe95df65	-0.29272
98	0xbf73206d	-0.9497135
99	0x3ee867dd	0.4539174
100	0x3eab39e8	0.33442616
101	0x3e8de32b	0.27712378
102	0x3f12b920	0.5731373
103	0x3c8ee52a	0.017443258
104	0xbede4a5c	-0.43416107
105	0xbecda495	-0.4016463
106	0xbec0780c	-0.37591588
107	0xbe9fe536	-0.31229562
108	0x3f13a30f	0.5767068
109	0x3f4d0dbd	0.8009909
110	0x3e6f0be7	0.23344384
111	0x3e163be5	0.14671285
112	0x3f7fa8d7	0.99867004
113	0x3f141e4d	0.57858735
114	0x3f557586	0.8338245
115	0x3eebc80a	0.46051055
116	0x3e8f6441	0.28006175
117	0xbf47c100	-0.7802887
118	0xbf9f3ac2	-1.2439806
119	0xbf971a9e	-1.1804998
120	0xbfb3e257	-1.4053448
121	0xbeb4de80	-0.35326004
122	0xbf235c90	-0.63813114
123	0xbf9da4d7	-1.231593
124	0xbf7cc3da	-0.98736346
125	0xbf73b980	-0.95204926
126	0xbe5a6a70	-0.21329665
127	0xbfad494a	-1.3537991
128	0xc121233d	-10.071103
129	0xc0ab2a99	-5.34895
130	0x3f9855b8	1.1901159
131	0x3f89b0c0	1.0757065
132	0xbf622bbf	-0.88348
133	0xb9f825c7	-0.00047330392
134	0x3ef21c7a	0.4728735
135	0xbdda373f	-0.106550686
136	0x3e6c33d6	0.23066649
137	0x3eee32dc	0.46523178
138	0x3f3acf6d	0.72972757
139	0x3f12c38d	0.57329637
140	0xbf21cf11	-0.63206583
141	0xbf1fe9d4	-0.6246617
142	0xbf39bfda	-0.7255837
143	0xbebf3e5c	-0.37352264
144	0xbf45bb1b	-0.77238625
145	0xbea2bdb2	-0.3178535
146	0x3ee5c729	0.4487851
147	0xbebb1cdc	-0.36545455
148	0xbd334d4e	-0.043774895
149	0x3d8e2060	0.06939769
150	0xbf86fc4c	-1.0545745
151	0x3da77882	0.08177282
152	0x3f1a80c0	0.60352707
153	0x3dfd6e0c	0.123745054
154	0xbee98f90	-0.45617342
155	0xc00e4b3b	-2.2233417
156	0xbfa111fe	-1.2583616
157	0xbf9bce5e	-1.2172353
158	0x3f7bdbe1	0.98382384
159	0x3f8818ce	1.063257
160	0x3ea92571	0.33036378
161	0xbe828a2b	-0.2549604
162	0xbd42ad74	-0.0475287
163	0xbece3eba	-0.40282232
164	0xbdacebb2	-0.08443393
165	0x3ecd94e3	0.40152654
166	0xbed5ab1f	-0.41732118
167	0xbf13ea09	-0.57778984
168	0xbe9ad7b9	-0.30242708
169	0xbe806fb4	-0.25085223
170	0xbe70aefa	-0.23504248
171	0x3df61a4e	0.12016736
172	0x3ea5bab8	0.32369018
173	0xbecdc01f	-0.4018564
174	0xbf9d786c	-1.2302375
175	0xbfa623d7	-1.2979687
176	0xbf0aec63	-0.5426695
177	0xbf80d549	-1.006509
178	0xbfcb58d5	-1.5886484
179	0xc0063e49	-2.0975516
180	0xc0054cd9	-2.0828154
181	0xc00d2d33	-2.2058837
182	0xbff0903f	-1.879402
183	0xc0137aa5	-2.3043606
184	0x3f5022cb	0.8130309
185	0x3f55adf8	0.8346858
186	0x3eeb369f	0.4594011
187	0x3ee2b57b	0.44279084
188	0x3fad49a5	1.35381
189	0xbe866e4f	-0.26256034
190	0x3f8013f5	1.000609
191	0x3ea384da	0.31937295
192	0x3ec462c0	0.3835659
193	0xbd4d5acd	-0.050135422
194	0x3dfc3f04	0.12316707
195	0xbeb88c30	-0.36044455
196	0x3e024fd3	0.12725763
197	0x3e33b209	0.17548384
198	0x3dd3b518	0.10337275
199	0xbf11c36a	-0.56938803
200	0x3e9a5fdf	0.3015127
201	0x3ed35d7f	0.4128227
202	0xbe56e16e	-0.20984432
203	0xbd4ac903	-0.049508106
204	0xbf8ae6a0	-1.0851631
205	0xbf2fad43	-0.6862375
206	0xbf057c03	-0.5214235
207	0xbee231c3	-0.4417859
208	0xbf45082f	-0.7696561
209	0xbeed4768	-0.4634354
210	0x3f113492	0.5672084
211	0x3f4836de	0.7820872
212	0x3e2caffa	0.16864005
213	0x3fd17077	1.6362447
214	0x4047da36	3.1226935
215	0x3f363688	0.7117696
216	0xbf491325	-0.7854484
217	0xc00a12ad	-2.1573899
218	0xbfc937d1	-1.5720159
219	0xbfd3ea47	-1.6555871
220	0xbf1b505c	-0.60669494
221	0x3e6799ac	0.22617215
222	0xbe07a75f	-0.13247441
223	0xbe24b134	-0.16083223
224	0x3f2db076	0.67847383
225	0x3ebe26cf	0.37138984
226	0x3eb572ce	0.35439152
227	0x3ebc4598	0.36771846
228	0x3d63ed32	0.05564613
229	0xbdd6d864	-0.10490492
230	0xbf04f113	-0.5193035
231	0xbf3b846b	-0.7324893
232	0xbdc0317f	-0.09384441
233	0xbed39dbb	-0.41331276
234	0xbf178fac	-0.592036
235	0xbf32fd3c	-0.69917655
236	0x3eaf51f1	0.34242204
237	0x3fa2d418	1.2720976
238	0xbe294102	-0.16528705
239	0xbb881e42	-0.0041539976
240	0x3d711d10	0.058865607
241	0x3eb21d12	0.34787804
242	0xbe7c97a9	-0.24667229
243	0x3e50ffc0	0.20410061
244	0xbead67b3	-0.3386818
245	0x3e3bcc0d	0.18339558
246	0xbf184ac9	-0.59489113
247	0xbed3f282	-0.41395956
248	0x3e5591ba	0.20856372
249	0x3e3d09b6	0.18460736
250	0x3ed7e711	0.42168477
251	0x3efaf97d	0.4901847
252	0xbeb9d4a0	-0.36295033
253	0xbe986f0c	-0.29772222
254	0xbf06c024	-0.52636933
255	0xbf1dd6b9	-0.61655766

weight_hh_l0 f4 [64, 16]
0	0xc0ed877e	-7.4227896
1	0xbfa7c9ce	-1.3108461
2	0xc03a02dd	-2.9064248
3	0x3fc79c0c	1.5594497
4	0xbece362d	-0.40275708
5	0xbf5f989a	-0.87342227
6	0x3fe4b1ce	1.7866762
7	0xbfa2c22c	-1.2715507
8	0xbf7fa0a3	-0.9985449
9	0x3f3a560b	0.7278754
10	0xbf2ecc2b	-0.68280286
11	0xbfa4e493	-1.2882255
12	0x3f2fc59b	0.68660897
13	0xbfd8381a	-1.6892121
14	0xbff314b5	-1.8990694
15	0xc00697b3	-2.103009
16	0xbfba0aea	-1.4534581
17	0x400deb5a	2.2174897
18	0xbf5afbd4	-0.8554051
19	0x401a8ce8	2.4148502
20	0xbf1c9540	-0.6116524
21	0x3f8fb838	1.1228094
22	0xbf914d03	-1.1351627
23	0xbf3d8260	-0.7402706
24	0x3df0a85c	0.11750862
25	0x3fa8876f	1.3166331
26	0x3f519bba	0.81878245
27	0x3ddaf8b4	0.106919676
28	0xbda0ddee	-0.0785483
29	0xbf6de103	-0.92921466
30	0xbe252be0	-0.16130018
31	0xc038115b	-2.8760593
32	0xbf24b818	-0.64343405
33	0x40672547	3.6116502
34	0xc009c368	-2.1525517
35	0xbf3d082a	-0.7384058
36	0x401ef33c	2.4835958
37	0xc02f1176	-2.7354407
38	0xbfd95851	-1.6980077
39	0xbf202cc8	-0.6256833
40	0x3fd8316f	1.6890086
41	0xbedccd34	-0.43125308
42	0xbf856349	-1.0420924
43	0xbdf6fbf7	-0.12059777
44	0x3ff35c5b	1.901256
45	0xbedfb92e	-0.43695968
46	0xbf9dcb17	-1.2327603
47	0x40030424	2.0471277
48	0xbf20f177	-0.62868446
49	0x3ca907c3	0.020633584
50	0xbfcf316c	-1.6186957
51	0x4045e076	3.091825
52	0xbfcbf043	-1.5932697
53	0xbf17ee9d	-0.5934847
54	0xbf277683	-0.6541521
55	0xc00560f8	-2.0840435
56	0xbf66067d	-0.8985365
57	0xbe2b7d57	-0.16747032
58	0x3f82fa4e	1.0232637
59	0xbff0a4ea	-1.8800328
60	0x3feedc16	1.8660915
61	0xbe87acc1	-0.26498988
62	0x3fc5c81c	1.5451694
63	0x40138cb0	2.305462
64	0x4019a365	2.4005978
65	0x3f747139	0.95485264
66	0xbfd7a885	-1.6848303
67	0xbfaaf825	-1.3356978
68	0xc0b846c6	-5.7586393
69	0x408623d1	4.191872
70	0xc02fb052	-2.7451367
71	0x3f59224b	0.8481795
72	0x3e2b865a	0.1675047
73	0xc0647165	-3.569421
74	0x40cb17c0	6.346649
75	0x4047d27e	3.1222224
76	0xc0142aa6	-2.315103
77	0xbf54ab79	-0.83074147
78	0xbf4e9a70	-0.807044
79	0x3eade9c9	0.33967426
80	0xc03633c9	-2.8469107
81	0x3e8ca5c6	0.27470225
82	0xbff2829f	-1.8946112
83	0x3ff9e6a1	1.9523507
84	0xbfc18019	-1.5117217
85	0x3fe14c45	1.7601401
86	0xbecb456c	-0.39701402
87	0xc053e9e3	-3.3111503
88	0x3fea7365	1.8316466
89	0x4012cf75	2.2939122
90	0x3db711ee	0.08938967
91	0x3ef5f48e	0.48038143
92	0xc00f96f7	-2.2435892
93	0x3ff265cb	1.8937315
94	0xbfa88da6	-1.3168228
95	0xbe94c540	-0.2905674
96	0x3e177c7f	0.14793585
97	0x3f93d6a5	1.1549879
98	0x3ed022e5	0.40651622
99	0x400db4ee	2.214168
100	0xbfe587de	-1.7932088
101	0x3f8e0dfe	1.109802
102	0xbf81ef96	-1.0151241
103	0xbf386800	-0.7203369
104	0xbdce1a08	-0.10063559
105	0x3e2a76a9	0.16646828
106	0x3f3ba6ae	0.7330121
107	0x3f9be5d4	1.2179513
108	0xbf8448f7	-1.0334767
109	0x3f76e6d4	0.96445966
110	0x4000b724	2.011178
111	0x3f02f06f	0.5114812
112	0xbfde2f1a	-1.7358124
113	0x3f6a45cb	0.91512746
114	0xbf401bcd	-0.7504242
115	0x402ddd35	2.7166264
116	0xc01e0cb5	-2.4695256
117	0x4058ea11	3.3892863
118	0xbf6aec13	-0.9176647
119	0xbf43b68c	-0.7645042
120	0xbf8d60d7	-1.1045178
121	0x3ea63151	0.324595
122	0xbff11b55	-1.8836466
123	0x3c8c733d	0.017144794
124	0xbef98fcf	-0.4874253
125	0xbfe320bb	-1.7744364
126	0xbfa90f14	-1.3207726
127	0xbb93c0f5	-0.0045090863
128	0xc0080339	-2.1251967
129	0x3ee3d74c	0.44500196
130	0xbf8ac24c	-1.0840545
131	0x3fabe7a1	1.3430063
132	0xbfc00364	-1.5001035
133	0xbe7a2a5c	-0.24430221
134	0xbf159c7c	-0.584419
135	0x3fba556c	1.4557319
136	0xbfcc39b9	-1.5955116
137	0xc015c0d4	-2.3398943
138	0x3fb8bb52	1.4432166
139	0x3f28c9bc	0.6593282
140	0x3f03bcdb	0.51460046
141	0xbf70db8e	-0.94085014
142	0xbdde7b37	-0.10863345
143	0xc018004b	-2.375018
144	0x3fad7fcf	1.3554629
145	0x3f4ebf7c	0.8076093
146	0x3e9cac6b	0.30600294
147	0xbeafdeda	-0.3434971
148	0xbfe91174	-1.8208451
149	0x4041d4fa	3.028624
150	0xc01ad4eb	-2.4192455
151	0x40273596	2.6126456
152	0x3d3c2d7d	0.04594182
153	0xc0bacb0f	-5.8372874
154	0x401ef3b4	2.4836245
155	0x4087d31f	4.2445216
156	0xc00cf89d	-2.2026742
157	0x408f2389	4.473088
158	0x408dc062	4.429734
159	0xc0b65616	-5.6980085
160	0x3fcc6fbe	1.5971601
161	0x3fcea938	1.6145391
162	0x4065cd49	3.5906546
163	0x3e0367d3	0.12832575
164	0xc0990964	-4.7823963
165	0x4005ba03	2.0894783
166	0x3e1d2eb7	0.15349852
167	0x40180ea0	2.3758926
168	0xbe9d1912	-0.3068319
169	0x3d697274	0.056993917
170	0x408ec506	4.4615507
171	0x40a6bbc5	5.210421
172	0xbfb26eb1	-1.394003
173	0x3f1644d7	0.5869879
174	0x3f70a895	0.94007236
175	0x3fa373b8	1.276969
176	0x4004fd48	2.077959
177	0xbee3d48b	-0.44498095
178	0x3f1c7518	0.6111617
179	0xbf34ebef	-0.70672506
180	0xbfc30892	-1.523699
181	0x3fab86b2	1.3400481
182	0xbefe41bb	-0.49659523
183	0xbf28d3c2	-0.65948117
184	0x3f61cd34	0.8820374
185	0x3dd302cc	0.10303268
186	0x405fc56d	3.496425
187	0x3ded0c71	0.11574639
188	0x3f2a1f94	0.66454434
189	0xbfc29772	-1.5202467
190	0x3f18ed53	0.5973713
191	0xbf0c012a	-0.54689276
192	0x3f2cd8d3	0.6751835
193	0x3eae2fcb	0.34020838
194	0x3e8fd201	0.28089908
195	0xbf9e7534	-1.2379518
196	0xbf7fef63	-0.9997465
197	0x3f18d12a	0.5969416
198	0x3e3d422b	0.18482272
199	0x3ebcc26f	0.3686709
200	0xbecf2b42	-0.4046269
201	0xbf0e4812	-0.5557872
202	0x3ec40d4e	0.382914
203	0x4082a868	4.0830574
204	0xbfdd6f84	-1.7299657
205	0x40f31838	7.5967064
206	0xbe416bae	-0.18888733
207	0xbfad9174	-1.3560014
208	0xbf650ac9	-0.8946958
209	0x3ff733cf	1.9312686
210	0xbf733b8d	-0.9501274
211	0x3ef9119d	0.4864625
212	0xbe8b2b8e	-0.27181667
213	0x3f81fd7b	1.0155481
214	0x3ed63d58	0.41843677
215	0x3ff488d6	1.9104259
216	0x3f8ccbe9	1.0999728
217	0xbd976682	-0.07392599
218	0x3ed5afd7	0.41735718
219	0x3fd6d6ba	1.6784279
220	0x40275401	2.6145022
221	0xc00e8893	-2.2270858
222	0xbf9d1e02	-1.2274783
223	0xbf566717	-0.8375105
224	0xbdf5b828	-0.11998016
225	0x3d5425e8	0.051793963
226	0x3f2ead02	0.6823274
227	0xbf4d2a87	-0.80143017
228	0xbf4d3128	-0.8015313
229	0x3e379485	0.1792775
230	0xbf9868b8	-1.1906958
231	0x404f1d73	3.2361724
232	0xbba74357	-0.005104463
233	0xbe81fae8	-0.2538674
234	0x3efb654a	0.49100715
235	0x40491357	3.1418054
236	0xbfb5da5d	-1.4207264
237	0x3fff94b4	1.9967256
238	0x3e7ab4ad	0.24482985
239	0xbf3d0381	-0.7383347
240	0xbfe57694	-1.7926812
241	0xbe4f5866	-0.20248565
242	0x3d1f709f	0.038925763
243	0x3f780a9f	0.96891207
244	0x3e4d0589	0.20021643
245	0xbf898d4c	-1.0746245
246	0xbf8657e6	-1.0495574
247	0xbf87d924	-1.0613141
248	0xbe80ab2b	-0.2513059
249	0x3f85b9e6	1.0447357
250	0xbff6a691	-1.9269582
251	0x3dfdbd8d	0.123896696
252	0x3fe93953	1.8220619
253	0x3ec21b8a	0.37911636
254	0x3eaeba88	0.34126687
255	0x4023b80f	2.558109

bias_ih_l0 f4 [64]
0	0xbfa1116f	-1.2583445
1	0xc0065e3c	-2.0995016
2	0x3d89bf0e	0.06725894
3	0x3f14eae7	0.5817093
4	0xbfcd993f	-1.6062392
5	0x3f90cc98	1.1312437
6	0x3ec51675	0.38493696
7	0x3e0c574b	0.13705175
8	0xbf8993cb	-1.0748228
9	0x3f33bfee	0.70214736
10	0x4005ddc9	2.0916617
11	0x3fc759c9	1.5574275
12	0xbe9098e9	-0.2824166
13	0x402f8009	2.7421896
14	0x3e8d09ac	0.27546442
15	0xbf920e12	-1.1410544
16	0x4033b880	2.808136
17	0x40106e59	2.256735
18	0x4023ad38	2.5574474
19	0x3f93e9f6	1.1555774
20	0x3fdd659f	1.7296637
21	0x3ed890e6	0.4229805
22	0x3fb011b9	1.3755409
23	0x3f635aa1	0.88810164
24	0x3dae2b88	0.08504397
25	0x404b9675	3.1810582
26	0x3fa22f12	1.2670615
27	0xbebec03a	-0.37256032
28	0x3ffebe41	1.9901811
29	0x3e0602c6	0.13086995
30	0x3f38e72c	0.7222774
31	0x40bc76d2	5.8895044
32	0x3eb36552	0.3503824
33	0x3fa9bc21	1.3260537
34	0x3ecb4786	0.39703006
35	0xbf40ac55	-0.7526296
36	0xc0293f08	-2.6444721
37	0x3fc1336a	1.5093815
38	0x3f9b9502	1.2154849
39	0x3f7e7b5c	0.9940698
40	0xbde47ace	-0.11156236
41	0x405c26b5	3.4398625
42	0x40138943	2.3052528
43	0xbff842b6	-1.9395359
44	0xbf94ea91	-1.1634084
45	0xbf4c9387	-0.7991261
46	0x3fc11c6c	1.5086799
47	0xbfec7c8a	-1.8475506
48	0x3fb99565	1.4498717
49	0x3ef81bb9	0.4845865
50	0x3f9f8be0	1.2464561
51	0x40140e7c	2.313384
52	0x3fa1947a	1.2623436
53	0x3f509ec4	0.8149226
54	0x405072ac	3.256999
55	0xbe8fdf85	-0.2810022
56	0x3f9035be	1.1266401
57	0x3f0576c1	0.5213433
58	0x3fa2c510	1.2716389
59	0x3fd7cff2	1.6860335
60	0x3f5f4089	0.8720785
61	0xbcfc654e	-0.030810025
62	0x3f84475c	1.0334277
63	0x40048df0	2.0711632

bias_hh_l0 f4 [64]
0	0xbf9bef74	-1.218245
1	0xc01b1154	-2.4229326
2	0x3d3c9eac	0.04604976
3	0x3ef32baa	0.4749425
4	0xbfc6bb3b	-1.5525888
5	0x3fba5eab	1.456014
6	0x3d9c79d9	0.07640428
7	0xbe3c008b	-0.18359582
8	0xbf893b13	-1.0721153
9	0x3f5df86b	0.8670718
10	0x3fdf8301	1.7461854
11	0x3fb6ecea	1.429105
12	0xbe1d70c2	-0.15375045
13	0x40397b4a	2.89815
14	0x3f25b708	0.6473241
15	0xbf8cdd81	-1.1005098
16	0x403bee4e	2.93642
17	0x4011c31c	2.2775335
18	0x402dbf9e	2.7148204
19	0x3f8e30dc	1.1108661
20	0x3fe141bd	1.7598187
21	0x3efd02a4	0.49416077
22	0x3f9d30df	1.2280539
23	0x3fac0ec6	1.3442008
24	0x3b756ec4	0.0037450055
25	0x403933ae	2.8937793
26	0x3fbe14c5	1.4850088
27	0xbd85f2e9	-0.06540472
28	0x4013fc6d	2.3122818
29	0xbc04273c	-0.008065995
30	0x3f86fec3	1.0546497
31	0x40b2b8ee	5.5850744
32	0x3f10cd13	0.5656292
33	0x3f899569	1.0748721
34	0x3f23b85b	0.6395318
35	0xbf6a6ba1	-0.9157048
36	0xc026ae01	-2.6043704
37	0x3fd14385	1.634873
38	0x3fc10b32	1.5081542
39	0x3f868d8e	1.0511949
40	0xbed87c3a	-0.42282277
41	0x405834ac	3.3782148
42	0x401cb30d	2.4484284
43	0xc019258b	-2.3929164
44	0xbf6f456d	-0.9346531
45	0xbf594e50	-0.8488512
46	0x3fdec9b3	1.7405304
47	0xbfedbf94	-1.857409
48	0x3fe1dbd1	1.7645208
49	0x3f4675ec	0.77523685
50	0x3faae8eb	1.3352331
51	0x401a2745	2.4086468
52	0x3f5cbe84	0.86228204
53	0x3f2c0942	0.67201626
54	0x404bba56	3.183248
55	0xbdbdeb81	-0.092734344
56	0x3f8843fc	1.0645747
57	0x3f5f0eca	0.8713194
58	0x3fcba35b	1.5909227
59	0x3fde4711	1.7365438
60	0x3f18443d	0.59479123
61	0xbd832f13	-0.06405463
62	0x3f8f8206	1.1211555
63	0x4006009b	2.093787

weight f4 [10, 16]
0	0xbde2ea9e	-0.11079906
1	0x400f7cc4	2.24199
2	0xc00e03a4	-2.2189722
3	0x3f9fa276	1.2471454
4	0xbda34621	-0.079723604
5	0xbfbd942a	-1.4810841
6	0x3f30ffc3	0.6914026
7	0x3eba69e1	0.36408904
8	0xbe4fdb28	-0.20298445
9	0xc0258bbf	-2.5866544
10	0x3f095885	0.53650695
11	0xbee31c96	-0.44357747
12	0xc000ca88	-2.0123615
13	0x3e75f543	0.24019341
14	0xbf6e953a	-0.9319645
15	0xbf4935d0	-0.78597736
16	0xc0199d94	-2.4002428
17	0xbfa97e8c	-1.3241744
18	0x4009fedf	2.156181
19	0x3f90b4dc	1.1305194
20	0x3ea33955	0.31879678
21	0x3f0937b0	0.536006
22	0x3f3dd68c	0.741555
23	0xbe17274f	-0.14761089
24	0xbf32cc46	-0.69842947
25	0xbf5000ec	-0.81251407
26	0xbf19a661	-0.600195
27	0xbf8c685e	-1.096935
28	0x3fe30b2d	1.7737786
29	0xbf304572	-0.68855965
30	0x3f98de8d	1.1942917
31	0xc0293452	-2.6438184
32	0xbf8b19dd	-1.0867268
33	0x3fbc4121	1.4707376
34	0xbf65efe6	-0.8981918
35	0xbb7e6af3	-0.003882107
36	0x3ee604b1	0.44925454
37	0xbfd27e76	-1.6444843
38	0x3cd71fe2	0.02626032
39	0xbffe74a4	-1.9879346
40	0xc0559461	-3.3371813
41	0x3f069818	0.52575827
42	0x3f2897a2	0.65856373
43	0xbf429cef	-0.7602071
44	0x3ea927ad	0.33038083
45	0x3e9dfb7c	0.3085593
46	0x3f5626d9	0.83653027
47	0xc0269589	-2.602877
48	0x3f784a36	0.96988237
49	0x3f49cb26	0.78825605
50	0x3c64c99a	0.013964081
51	0xbfb53412	-1.4156516
52	0x3d22499e	0.039620988
53	0x3e8e207b	0.27759156
54	0x3f2c8bc8	0.6740079
55	0x3eeafef9	0.45897654
56	0xbf425638	-0.7591281
57	0x3f3d1236	0.7385591
58	0xbbd9b5a8	-0.0066439696
59	0x3d9dc175	0.077029146
60	0x3fd37bd7	1.6522168
61	0x3f97a800	1.1848145
62	0xc01e233a	-2.4709
63	0xc04952ad	-3.1456711
64	0xc00b64d2	-2.1780286
65	0x3f21f2ed	0.632613
66	0x3eb16fcc	0.34655607
67	0xbdc53e84	-0.096310645
68	0xbf47eff0	-0.7810049
69	0x3f26e6f8	0.6519618
70	0x3ef675c6	0.4813673
71	0x3d0bd7ce	0.034141354
72	0x403e8406	2.976808
73	0xbe5670fc	-0.20941538
74	0xbfe180b0	-1.7617397
75	0x3f3dc228	0.74124384
76	0xbf456e90	-0.7712183
77	0xbcebc082	-0.028778318
78	0x401c3c93	2.4411972
79	0x40583122	3.3779988
80	0x3f3140fe	0.69239795
81	0xc06724a4	-3.6116114
82	0xbf9124bb	-1.1339334
83	0xbfc352b8	-1.5259619
84	0xbec0fad4	-0.37691367
85	0x3e8af469	0.27139595
86	0xbeb37650	-0.35051203
87	0x3fade7a0	1.3586311
88	0x3edda0b9	0.43286684
89	0x3f4dbb88	0.80364275
90	0x3fb013d8	1.3756056
91	0x3fbb6d46	1.4642723
92	0x3faf9515	1.3717371
93	0xbe2953b8	-0.16535842
94	0xc017f32f	-2.3742177
95	0x3ff21cdc	1.8915057
96	0xbf8bb3f0	-1.0914288
97	0xc0522a29	-3.2838233
98	0xbfc9104b	-1.5708097
99	0x3ec7fa2c	0.39058053
100	0x3fc5145b	1.5396837
101	0xbff39e72	-1.9032729
102	0xbf94d986	-1.1628883
103	0xbf466984	-0.77504754
104	0xbf3cef47	-0.7380261
105	0xbf721d30	-0.94575787
106	0xbf99ac77	-1.2005757
107	0xbf5e3f3f	-0.86815256
108	0xbedd8986	-0.43268985
109	0xbe95963b	-0.2921618
110	0xbddf87bb	-0.109145604
111	0x401658b7	2.3491647
112	0x3fcd9d41	1.6063615
113	0x3f9ff4f6	1.2496631
114	0x3fce7a3b	1.6131052
115	0xbfbb7558	-1.4645185
116	0xbf421ae2	-0.7582227
117	0x3fbb492b	1.4631704
118	0xc0081b0d	-2.126651
119	0xbee88d16	-0.4542014
120	0x400b564e	2.1771426
121	0x3f0cd32c	0.5500972
122	0x3f37f21a	0.7185379
123	0x3f92dcb4	1.1473603
124	0xbefdb8fb	-0.4955519
125	0xbf773d19	-0.965776
126	0x3fddd4d0	1.733057
127	0xc0806a2f	-4.012962
128	0x3f67254d	0.9029129
129	0x3f03449e	0.51276577
130	0xbf9c3c21	-1.220585
131	0x3fc540d9	1.5410415
132	0x3f2b5986	0.66933477
133	0x3f8c356d	1.0953804
134	0x3f091f47	0.5356335
135	0x3f63ace6	0.889357
136	0xbff836fd	-1.9391781
137	0x3fa0eaba	1.2571633
138	0xbf4a7bd9	-0.79095227
139	0xbdb2e86f	-0.087357394
140	0xc0101280	-2.2511292
141	0xbf700ec2	-0.9377252
142	0xbf3e55ae	-0.74349487
143	0x3fa65ee4	1.2997708
144	0x40392b04	2.8932505
145	0x3f97f77e	1.1872404
146	0x3ff8d05a	1.9438584
147	0xbdf96e16	-0.121792
148	0xbf9a38b1	-1.2048551
149	0x3f8fa2c8	1.1221552
150	0x3d03c64d	0.032171536
151	0xbce90c7b	-0.028448334
152	0x4027622c	2.615367
153	0x3dc34dfd	0.095363595
154	0x3eb12474	0.34598124
155	0xbe62e04d	-0.22155876
156	0x3f391b9b	0.7230775
157	0x3d2f4a40	0.04279542
158	0x3f0c29a6	0.5475105
159	0x409330ce	4.5997076

bias f4 [10]
0	0xbfc2df6a	-1.522443
1	0x3df5b232	0.11996879
2	0xbd92e3a7	-0.071723275
3	0xc0130184	-2.2969675
4	0x3f78adf6	0.97140443
5	0x3f19563a	0.59897196
6	0xbf2a335d	-0.66484624
7	0xbf0143d0	-0.504941
8	0x4008b336	2.1359382
9	0x3fd17bba	1.6365883
