model/new/256_gru.model (torch_old, 899415 bytes, 6 tensors)

weight_ih_l0 f4 [768, 28]
0	0x3d03a1be	0.03213667
1	0xbce62ac5	-0.028096566
2	0xbc7ae98c	-0.015314471
3	0x3ced489b	0.028965285
4	0xbd69aaa2	-0.057047494
5	0x3d06ab40	0.03287816
6	0xbcb0781a	-0.021541644
7	0x3c7c4421	0.015397103
8	0xbd1ee653	-0.038793873
9	0xbd870b90	-0.06594002
10	0xbd18b2d8	-0.037279934
11	0xbaea2c1e	-0.0017865931
12	0x3d9689e2	0.07350518
13	0x3d373cac	0.044735596
14	0x3c903674	0.01760409
15	0x3c261e9a	0.010139132
16	0x3d70b0ed	0.05876248
17	0x3da7ba81	0.0818987
18	0x3e05340d	0.13008137
19	0x3da1134e	0.0786501
20	0xbcb6cb87	-0.022313846
21	0xbd84c276	-0.06482403
22	0xbc898465	-0.016786763
23	0xbbf7290a	-0.007542734
24	0xbae88065	-0.001773846
25	0x3bf178ed	0.007369152
26	0x3d156407	0.036472347
27	0x3d0dfd39	0.03466532
28	0xbd92719a	-0.07150574
29	0x3cdeb386	0.027185213
30	0x3b5fd8fe	0.0034156437
31	0x3c8dadcf	0.017294792
32	0xbd020948	-0.031747133
33	0xbddb1afe	-0.10698508
34	0xbdbc2e88	-0.09188563
35	0xbd6af15d	-0.05735909
36	0x3d188114	0.037232473
37	0xbce63445	-0.028101096
38	0x3b017ab0	0.0019756965
39	0xbda86a6c	-0.08223423
40	0x3d871a0b	0.06596764
41	0xbbb63c77	-0.005561407
42	0x3d99674c	0.074904054
43	0x3d4bb86e	0.049736433
44	0xbcc519b6	-0.024060111
45	0x3cfcd477	0.03086303
46	0xbd2552e1	-0.040362243
47	0x3bf225d7	0.0073897648
48	0xbd166a82	-0.036722668
49	0xbc2fb448	-0.010724135
50	0xbc67a208	-0.014137752
51	0x3c824878	0.015903696
52	0x3d0a04e2	0.033696063
53	0xbce18ea5	-0.027533839
54	0x3d4ebffb	0.050476056
55	0x3d210a67	0.03931656
56	0xbcbb1b7e	-0.022840258
57	0xbd7b95bb	-0.06142209
58	0x3c9da7c8	0.019245043
59	0x3b35020b	0.0027619626
60	0xbd4eae9b	-0.050459486
61	0x3d30f66c	0.043203756
62	0x3d577b61	0.052607898
63	0x3d854fe9	0.06509382
64	0xbd20df29	-0.039275322
65	0x3b1d14cd	0.0023968697
66	0x3cf07ddf	0.029356895
67	0x3c16a02f	0.009193464
68	0xbd8df945	-0.0693231
69	0xbd6dc900	-0.058053017
70	0x3d81ce06	0.06338124
71	0x3cecb602	0.028895382
72	0x3d3b67b0	0.04575318
73	0xbb2efc04	-0.0026700506
74	0x3c1279ad	0.008940143
75	0x3d1a54fa	0.037678696
76	0x3d60f25b	0.05491863
77	0x3d84988d	0.06474409
78	0xbc3496cf	-0.011022284
79	0x3d85da37	0.06535762
80	0xbd066af2	-0.032816835
81	0xbd58f865	-0.052971262
82	0xbc53de9c	-0.012931492
83	0xbcfc9e79	-0.030837284
84	0x3cbd11c8	0.023079768
85	0xbd4a9af0	-0.049464166
86	0xbd894856	-0.0670325
87	0x3d1cf050	0.038315117
88	0xbcedff51	-0.029052408
89	0x3c172c4a	0.009226868
90	0x3cb2dfa8	0.021835163
91	0xbcb27820	-0.021785796
92	0x3d2c5800	0.04207611
93	0x3cf77d39	0.030211078
94	0xbc5b1646	-0.01337201
95	0x3cb8f4b7	0.022577627
96	0x3d8930f3	0.066987894
97	0x3d81c04b	0.06335505
98	0x3d65002f	0.05590838
99	0x3d8b0780	0.0678854
100	0x3e396213	0.18103819
101	0x3da088de	0.07838605
102	0x3d2a2e34	0.04154797
103	0xbd07d0e1	-0.033158187
104	0xbdfd81ee	-0.12378298
105	0xbde5ece6	-0.112268254
106	0x3d07e446	0.033176683
107	0xbd0c330a	-0.034228362
108	0x3cca45f6	0.024691563
109	0xbb85cace	-0.004083014
110	0x3b856f01	0.0040720706
111	0x3d06c6c9	0.03290442
112	0x3d4f4bb1	0.050609294
113	0xbd4bdf69	-0.049773607
114	0xba2380df	-0.000623716
115	0x3d2c3e8c	0.042051837
116	0x3d5d0756	0.053962074
117	0x3d9d71d0	0.07687724
118	0x3a27d362	0.0006402043
119	0xbd06f274	-0.032946065
120	0xbd28004c	-0.041015908
121	0x3c950371	0.018190118
122	0x3dce5ef1	0.100767024
123	0x3d19bd6f	0.037534174
124	0x3d3bef44	0.04588248
125	0xbd89f7b4	-0.06736699
126	0xbd393197	-0.04521331
127	0x3d82ebf7	0.06392663
128	0x3de1aabe	0.110188946
129	0x3dde71d4	0.10861555
130	0xbc66be8e	-0.014083518
131	0xbb91bece	-0.0044477945
132	0x3d913675	0.07090465
133	0x3d6feade	0.058573596
134	0x3d41f248	0.047350198
135	0x3d3a5932	0.04549522
136	0x3d4e92d2	0.050432988
137	0x3c9b1f08	0.018935695
138	0xbd51c6fb	-0.051215153
139	0xbd7cc5ec	-0.06171219
140	0xbd544378	-0.051822156
141	0xbcf51af0	-0.029920071
142	0xbd843049	-0.06454522
143	0xbc559027	-0.013034857
144	0xbcd672e0	-0.026177824
145	0xbd2a1329	-0.04152218
146	0xbb82ada5	-0.003987985
147	0x3c2c7943	0.010526958
148	0xbc43e209	-0.011955746
149	0xbd7f372b	-0.06230847
150	0xbdcef7a1	-0.10105825
151	0x3df0789c	0.117417544
152	0x3e10f92e	0.14157555
153	0x3ded9ab3	0.11601772
154	0x3d5a3189	0.053269897
155	0xbd49ce50	-0.04926902
156	0xbe1d85b9	-0.15383042
157	0xbdc15b01	-0.09441186
158	0x3d20e599	0.03928146
159	0xbd28a154	-0.04116948
160	0xbe1db92d	-0.1540267
161	0xbb4f52cc	-0.0031635044
162	0xbbf1fb83	-0.007384719
163	0xbc7fa48c	-0.015603196
164	0xbdc86c81	-0.097863205
165	0xbccbc6e2	-0.024875108
166	0xbd52e53b	-0.051488142
167	0xbd18cf03	-0.037306797
168	0xbd37c133	-0.044861984
169	0xbcbf850b	-0.02337887
170	0xbc511c58	-0.012763105
171	0x3d07b387	0.033130195
172	0x3c474ca6	0.0121642705
173	0x3cdce89d	0.026966387
174	0x3d81a0b4	0.0632948
175	0x3d461222	0.048357137
176	0x3d4dc8aa	0.050240196
177	0x3d210505	0.039311428
178	0x3ca9649d	0.020677859
179	0x3dd670cd	0.10470734
180	0x3c39235b	0.011299933
181	0x3d2daadf	0.042399283
182	0x3c0149a5	0.007891093
183	0x3d6361f7	0.05551335
184	0xbc7ad824	-0.015310321
185	0x3d493c04	0.0491295
186	0xbdb1340e	-0.08652507
187	0xbd9c5000	-0.07632446
188	0xbc38437f	-0.011246561
189	0xbce22e01	-0.027609827
190	0x3d0dae00	0.034589767
191	0xbc8d43ae	-0.017244186
192	0xbd03d33c	-0.03218387
193	0x3b30a2f7	0.0026952603
194	0x3d47e8fd	0.04880618
195	0xbd1e9033	-0.038711738
196	0x3d15693e	0.03647732
197	0x3d413da7	0.047177937
198	0x3d819b98	0.06328505
199	0xbcedfea8	-0.029052094
200	0x3d3349c4	0.04377152
201	0x3c657428	0.014004745
202	0x3e0a2da9	0.1349398
203	0x3db886f0	0.09010112
204	0x3dfac1fd	0.122440316
205	0x3ca7cb63	0.020482725
206	0xbd2e4ae6	-0.042551897
207	0xbcd69c09	-0.02619745
208	0x3da018dc	0.078172415
209	0x3e3db1a0	0.1852479
210	0x3d94d298	0.0726673
211	0xbd1dbe16	-0.03851136
212	0xbddcfd06	-0.10790448
213	0x3d6176ed	0.055045057
214	0x3d18fadc	0.037348613
215	0x3d9926c1	0.07478095
216	0x3ddb295c	0.10701248
217	0x3bb4c9c2	0.0055172155
218	0x3d142f27	0.03617778
219	0x3db4759a	0.08811493
220	0xbd125743	-0.03572775
221	0x3d8835de	0.06650899
222	0xbd2c8b9d	-0.042125333
223	0xbd1a4d95	-0.037671644
224	0x3ce2944f	0.02765861
225	0xbd43dc34	-0.047817424
226	0xbc8ec539	-0.017428027
227	0x3d31d030	0.043411434
228	0x3cf8e211	0.030381234
229	0x3cb09b74	0.0215585
230	0xbcc3a615	-0.023882905
231	0xbcb8a3ed	-0.022539103
232	0x3dab22f7	0.083562784
233	0xbc8e7dd0	-0.017393976
234	0x3c8170d6	0.015800875
235	0x3dad7d0f	0.08471119
236	0x3c3a353a	0.011365229
237	0x3dbd1a1a	0.09233494
238	0x3d8a1e46	0.067440554
239	0xbc2733b0	-0.010205194
240	0x3ca12d6a	0.019674975
241	0x3dbb44b2	0.09143962
242	0x3deae140	0.11468744
243	0x3da772aa	0.08176167
244	0x3d2a4b54	0.041575745
245	0x3d8930be	0.0669875
246	0xbce7e6ea	-0.02830835
247	0xbd420e9a	-0.047377206
248	0xbd585a4e	-0.052820496
249	0x3d376ae2	0.044779666
250	0x3d48c9bc	0.049020514
251	0xbccca36c	-0.02498027
252	0xbbc5429b	-0.006019903
253	0x3ca335a8	0.019923046
254	0xba07447b	-0.00051600457
255	0xbd646baf	-0.055766758

weight_hh_l0 f4 [768, 256]
0	0xbcf0c418	-0.02939038
1	0xbccc3238	-0.02492629
2	0x3d25b304	0.040453926
3	0xbd0f4c2b	-0.03498475
4	0xbc04502b	-0.008075754
5	0xbc18cd6b	-0.009326319
6	0xbcebaa68	-0.02876778
7	0x3d6d9e9e	0.058012597
8	0xbd073483	-0.033009063
9	0x3d24ae27	0.040205147
10	0x3d4fb0f2	0.050705858
11	0x3c2c2019	0.0105057
12	0x3d478026	0.048706196
13	0x3d4c82df	0.049929496
14	0xbd319cb8	-0.04336235
15	0x3cee77d2	0.02910987
16	0xbcea0db1	-0.028570982
17	0x3d55d795	0.05220755
18	0xbd331cb6	-0.043728553
19	0x3d900d0e	0.0703374
20	0x3ceb6cdf	0.028738437
21	0x3d223335	0.039599616
22	0xbd07844b	-0.03308515
23	0xbc9c7068	-0.019096568
24	0x3d88d352	0.06680931
25	0x3d62ead5	0.055399735
26	0xbd4dee1e	-0.050275914
27	0x3c47bd4d	0.012191129
28	0x398a2d4b	0.00026355157
29	0x3d038463	0.032108676
30	0xbc52159c	-0.012822535
31	0x3da27a7e	0.0793352
32	0xbbd2b48f	-0.0064302157
33	0xbd317be9	-0.04333106
34	0x3d61fab2	0.055170722
35	0xbd9fa039	-0.07794232
36	0xbc16d83e	-0.00920683
37	0x3b46ed0a	0.0030353689
38	0x3dd5267f	0.10407733
39	0xbdce817d	-0.10083292
40	0x3bbca8a0	0.0057574064
41	0x3d803041	0.06259204
42	0xbcd4f959	-0.025997804
43	0xbd5299a8	-0.05141607
44	0x3b916b76	0.004437859
45	0xbd28aedd	-0.041182388
46	0xbbdc16a5	-0.0067165666
47	0xbd565601	-0.052328113
48	0x3ccdee3b	0.025138011
49	0x3cbf2159	0.023331331
50	0x3d0a8f1c	0.033827886
51	0x3b877d71	0.004134827
52	0xbd081b6b	-0.033229273
53	0xbcbdb386	-0.023156893
54	0x3c82077f	0.015872715
55	0x3cde100a	0.027107257
56	0x3c9df7b1	0.019283148
57	0x3cf30c9f	0.029669104
58	0xbde87c2f	-0.11351811
59	0xbd382e59	-0.044966076
60	0xbd1bfe03	-0.03808404
61	0xbced13b0	-0.028940052
62	0x3c2824c9	0.0102626765
63	0x3d6f4911	0.05841929
64	0x3d265870	0.040611684
65	0xbd014a01	-0.031564716
66	0x3d015bdd	0.03158175
67	0xbd01e915	-0.031716425
68	0xbcf4c3f7	-0.0298786
69	0x3c8fabfe	0.017538067
70	0xbcf95fa4	-0.030441113
71	0x3e08b8f6	0.13351807
72	0xbc9724e1	-0.018450202
73	0xbc3eb290	-0.011639252
74	0x3cd50a7f	0.026005981
75	0xbcc267d1	-0.023731144
76	0xbc29c5e4	-0.010362122
77	0xbc01ab38	-0.007914357
78	0xbc3fac2b	-0.011698763
79	0xbc397fb4	-0.011321951
80	0x3cdc6325	0.026902745
81	0x3c42ed9e	0.011897473
82	0xbcb1729c	-0.021661095
83	0xbcf05092	-0.029335294
84	0x3d577748	0.05260399
85	0xbc70ebb3	-0.014704633
86	0x3dbaae39	0.091152616
87	0x3d02a9f1	0.03190035
88	0xbd9d40c4	-0.07678369
89	0xbd2dce20	-0.042432904
90	0xbd144a18	-0.036203474
91	0x3bcaa0d4	0.006183723
92	0xbd8a00e6	-0.067384526
93	0x3d3ced51	0.04612476
94	0x3d8feb7d	0.07027338
95	0x3d289284	0.041155353
96	0x3d725f4a	0.059172906
97	0xbd308910	-0.043099463
98	0xbce81722	-0.028331343
99	0xbb0cab71	-0.0021464492
100	0xbc90b03d	-0.017662162
101	0xbd8d11ed	-0.06888185
102	0xbd228243	-0.03967501
103	0xbd1f1204	-0.03883554
104	0x3d3823ee	0.04495614
105	0x3d78b3d4	0.060718372
106	0xbd26bec1	-0.04070926
107	0x3d06c5c1	0.032903437
108	0xbdd5efcb	-0.104461275
109	0x3d1c425c	0.038149223
110	0xbd3f386b	-0.046684664
111	0x3d918dbb	0.07107111
112	0x3d310225	0.043214936
113	0x3ceb7e5a	0.028746773
114	0xbd0dadf8	-0.034589738
115	0xbd6d439b	-0.0579258
116	0xbc84cb39	-0.016210185
117	0xbbe9040d	-0.0071110786
118	0x3d4036c7	0.04692724
119	0xbd3dac2f	-0.046306785
120	0x3972c20b	0.00023151205
121	0xbd9dadbd	-0.076991536
122	0x3d33f51e	0.043934934
123	0x3d2e002b	0.04248063
124	0x3d81bdb9	0.06335015
125	0xbc8bb5d4	-0.017054476
126	0xbda85673	-0.08219614
127	0xbce2ec40	-0.027700543
128	0x3d0f6419	0.03500757
129	0x3d1cf9e4	0.03832425
130	0xbcc7a92a	-0.024372656
131	0xbd178b87	-0.036998298
132	0xbd73bb61	-0.05950487
133	0x3d18e8cd	0.03733139
134	0x3d2d57f7	0.042320218
135	0xbd375934	-0.044762805
136	0x3d466a28	0.048441082
137	0x3d2d51bd	0.04231428
138	0x3c64d95e	0.01396784
139	0xbd4952de	-0.049151294
140	0x3d97fe0b	0.07421502
141	0x3d438ea8	0.04774347
142	0xbd67261f	-0.05643284
143	0x3dafab6a	0.085776165
144	0x3cc9f3aa	0.02465232
145	0xbcd29f0a	-0.025710601
146	0x3d6b5d79	0.05746219
147	0xbcbf138b	-0.023324749
148	0xbcd6f1fe	-0.026238438
149	0xbc5e6171	-0.0135730365
150	0xbb673674	-0.003528026
151	0x3c755c8f	0.014975681
152	0x3c6dc055	0.014511188
153	0xbd3f7057	-0.046737995
154	0x3c938b80	0.018010855
155	0xbd15f360	-0.036609054
156	0x3da8f6e1	0.082502134
157	0x3c31f50f	0.010861649
158	0xbaac69da	-0.0013154105
159	0x3d6cfa2c	0.05785577
160	0xbd19adf3	-0.037519407
161	0x3d3ff716	0.0468665
162	0xbd8ee766	-0.069777295
163	0x3d872ae0	0.06599975
164	0x3ce6676d	0.02812549
165	0x3d15d3b0	0.036578834
166	0xbd36b385	-0.044604797
167	0xbd2374a1	-0.039906148
168	0x3cd71468	0.026254848
169	0x3d839d86	0.064265296
170	0x3c8bc5bc	0.01706206
171	0xbab2fafb	-0.001365512
172	0x3d31135c	0.043231353
173	0x3d4845f3	0.048894834
174	0x3d209d12	0.039212294
175	0x3cf3afe2	0.029746953
176	0x3d0f6408	0.035007507
177	0xba1f79da	-0.0006083526
178	0x3a09306c	0.00052333507
179	0x3c2b6520	0.010461122
180	0x3d92ecff	0.0717411
181	0xbc873324	-0.016503878
182	0x3c8b199a	0.016979981
183	0xbc5db889	-0.013532766
184	0x39805e5f	0.00024484374
185	0xbd7d7e50	-0.06188804
186	0x3bf4a1a0	0.0074655563
187	0x3cdb2a64	0.026753612
188	0x3d30695f	0.04306924
189	0xbb395cbf	-0.002828404
190	0x3dc80b7c	0.097678155
191	0xbcbdf25f	-0.02318686
192	0xbc8ea924	-0.017414637
193	0xbd1413cc	-0.036151692
194	0x3caf2f75	0.021384934
195	0xbd6e5bfa	-0.058193184
196	0x3c4a6a2f	0.012354418
197	0xbd572a6f	-0.052530702
198	0xbd8bf524	-0.06833866
199	0x3d0898dd	0.033348907
200	0xbd4c4262	-0.049867995
201	0x3cc04699	0.023471164
202	0xbda336e8	-0.07969457
203	0x3d28c97d	0.04120778
204	0x3ce85dc0	0.028365016
205	0x3bb707cb	0.005585646
206	0xbd226287	-0.039644744
207	0xbcd4780c	-0.025936149
208	0xbbffed95	-0.0078103044
209	0x3d0fe1ea	0.035127558
210	0x3ce31e9b	0.027724555
211	0xbcfe261d	-0.031024033
212	0xbd9b851e	-0.075937495
213	0x3d5eb151	0.05436832
214	0xbdbdf20d	-0.09274683
215	0x3cb674f5	0.022272566
216	0x3d410bbb	0.047130328
217	0x3ce8446b	0.028352937
218	0xbd84b933	-0.064806364
219	0x3da27485	0.079323806
220	0x3d0054e1	0.031330947
221	0x3d66af88	0.056319743
222	0x3c825e02	0.015913967
223	0x3cb4a404	0.022050865
224	0x3ccf8256	0.025330704
225	0xbcaa374d	-0.020778323
226	0xbd89a8b6	-0.06721632
227	0xbd336634	-0.04379864
228	0xbd8ba4ff	-0.0681858
229	0xbdbd40c9	-0.092408724
230	0xbd0dcb72	-0.03461785
231	0xbc9a34c4	-0.018823989
232	0xbcb0481c	-0.02151876
233	0x3cca586b	0.024700364
234	0x3cdfc5e9	0.02731605
235	0xbd11428e	-0.035463862
236	0xbc988aa8	-0.018620804
237	0xbcd35b00	-0.025800228
238	0xbd31825f	-0.043337222
239	0xb9a4a28c	-0.00031401624
240	0x3d6e99aa	0.058252014
241	0xbce0c0ae	-0.027435627
242	0xbd354f19	-0.044264887
243	0xbd118b8f	-0.035533484
244	0x3da15bb5	0.0787882
245	0x3cf5ecb0	0.030020088
246	0x3d9880d8	0.0744645
247	0xbd3e3f8c	-0.04644732
248	0xbd829c76	-0.06377499
249	0x3d894a75	0.06703655
250	0x3d75cd55	0.060010273
251	0xbd31a86a	-0.043373503
252	0x3d36dd60	0.044644713
253	0x3bd47b7f	0.0064844484
254	0x3d10af46	0.035323404
255	0xbc160595	-0.009156604

bias_ih_l0 f4 [768]
0	0xbd09a1c6	-0.033601545
1	0x3d38e795	0.04514273
2	0x3d79c24f	0.060976323
3	0x3cfcb21c	0.030846648
4	0xbc4984ee	-0.012299759
5	0x3c5023dd	0.012703863
6	0xbd469b15	-0.04848774
7	0x3c97f1f9	0.018547999
8	0x3ca5d684	0.02024389
9	0x3d741e59	0.059599254
10	0xbd534a0c	-0.05158429
11	0x3c430c5f	0.011904805
12	0x3d7606e0	0.06006515
13	0x3d6e4202	0.05816842
14	0x3d3e5111	0.04646403
15	0x3da8362a	0.08213456
16	0x3db36106	0.0875874
17	0x3dbebae8	0.09312993
18	0x3d9965f3	0.074901484
19	0xbc6a910d	-0.014316809
20	0x3d29f223	0.041490685
21	0x3d9bbc0e	0.07604228
22	0x3cd733a2	0.026269738
23	0x3c84d9ec	0.016217194
24	0x3d5e577e	0.054282658
25	0x3c837175	0.016045311
26	0x3d8e0567	0.06934624
27	0xbcd26cd5	-0.02568666
28	0x3c2778b2	0.010221647
29	0xbc734a14	-0.014849205
30	0xbc60347a	-0.013684386
31	0x3cf2df73	0.029647565
32	0x3c33b2dd	0.010967937
33	0x3d821b2b	0.06352838
34	0x3d0118c7	0.03151777
35	0xbd3d255f	-0.046178218
36	0x3d041a51	0.03225166
37	0x3d67e5e0	0.05661571
38	0xbd20b637	-0.039236274
39	0xbcf0a6fe	-0.029376503
40	0xba5537d5	-0.0008133625
41	0xbd30daab	-0.043177288
42	0x3da88b30	0.08229673
43	0xbd46d9fc	-0.04854773
44	0x3b100a31	0.002197873
45	0xbd2e59de	-0.042566173
46	0x3b3b7d93	0.0028608784
47	0xbd1a70c4	-0.037705198
48	0x3c918973	0.017765736
49	0xbd50a48a	-0.050938167
50	0x3c78013e	0.015137015
51	0x3ced164a	0.028941292
52	0xbbc0a3be	-0.0058788946
53	0x3d37e164	0.044892684
54	0x3d174460	0.03693044
55	0xbd0d3686	-0.034475826
56	0x3d978533	0.073984526
57	0xbc91a0ed	-0.01777693
58	0x3c962598	0.018328473
59	0x3d12dd5a	0.03585563
60	0x3dd0f74c	0.10203418
61	0x3d69495b	0.056954723
62	0xbda502b7	-0.080571584
63	0x3dd70824	0.104995996
64	0xbb581175	-0.003296939
65	0x3d4b4cfa	0.049633957
66	0x3cb649e9	0.02225204
67	0xbc9748ce	-0.018467333
68	0xbccf410e	-0.025299575
69	0x3d42e97d	0.047585953
70	0x3d2e405f	0.042541858
71	0xbdcaf7bb	-0.09910532
72	0x3a277db6	0.0006389277
73	0x3d744730	0.059638202
74	0xbcbd8b9e	-0.023137864
75	0xbcfac8c6	-0.030613314
76	0x3d7c5083	0.06160022
77	0xbca66058	-0.020309612
78	0x3e1a1024	0.1504522
79	0x3de22fff	0.11044311
80	0xbd55d28e	-0.052202754
81	0x3e0f8e9f	0.1401925
82	0x3dc1a3a9	0.09455044
83	0x3c9e1d9c	0.019301228
84	0x3d611881	0.05495501
85	0x3d731da5	0.059354443
86	0x3da8f6b0	0.08250177
87	0x3d21453c	0.039372668
88	0x3d232f6e	0.039840154
89	0x3c4ee276	0.012627235
90	0x3c623ce3	0.013808462
91	0xbd072114	-0.03299053
92	0xbc1432c6	-0.009045308
93	0x3d5a585f	0.053306933
94	0xbdb0c9be	-0.08632229
95	0x3cb3cd08	0.021948352
96	0x3d3c6a24	0.04599966
97	0x3d666b65	0.056254763
98	0x3cba709c	0.022758774
99	0x3c183460	0.009289831
100	0x3d994a43	0.074848674
101	0x3d3c17dd	0.045921195
102	0x3dc70ae8	0.09718877
103	0xbd8d8cae	-0.06911598
104	0x3b34bc1a	0.0027577938
105	0xbd1d84d9	-0.03845677
106	0xbdac9d25	-0.084284104
107	0xbbfa0259	-0.0076296744
108	0x3d95fb5c	0.073233336
109	0x3b2a8626	0.00260199
110	0x3da5ddd2	0.080989495
111	0x3d961e2d	0.07329974
112	0x3d2b9d60	0.04189813
113	0x3d332987	0.043740775
114	0x3c814935	0.015781978
115	0x3e0ccec1	0.13750745
116	0xbba3e9ab	-0.0050022206
117	0x3dbfff9e	0.09374927
118	0x3d7e4bfb	0.06208418
119	0x3c27eba6	0.010249054
120	0x3d0fb63a	0.035085894
121	0x3d9bb36f	0.076025836
122	0x3dae2646	0.08503394
123	0x3dbbaa23	0.091633104
124	0x3b3debef	0.0028979739
125	0x3d20765f	0.039175387
126	0x3d8e2319	0.06940288
127	0xbca88a87	-0.020573867
128	0x3dd8de73	0.10589304
129	0x3c5407fa	0.012941355
130	0x3d94766f	0.07249152
131	0xbce10333	-0.027467346
132	0xbcc2ce33	-0.023779964
133	0x3dad24e9	0.08454306
134	0xbd69d087	-0.057083633
135	0x3dadf493	0.084939145
136	0x3d19dea5	0.037565846
137	0x3dccd2f9	0.10001177
138	0xbd0cf4e7	-0.034413245
139	0x3b8eb0a4	0.0043545533
140	0xbdb952c3	-0.09048989
141	0xbb94b9e1	-0.00453876
142	0xbce37d16	-0.027769607
143	0xbce8cd50	-0.028418213
144	0x3d8e8b34	0.06960145
145	0x3d3729c7	0.044717576
146	0x3caa19b6	0.020764213
147	0x3d942cfd	0.07235143
148	0xbc6d379b	-0.014478589
149	0x3cd09693	0.025462424
150	0xbd1d6ce7	-0.038433935
151	0x3c1c4293	0.009537357
152	0x3d04ba34	0.03240414
153	0x3dc7feec	0.09765419
154	0xbcf96436	-0.030443292
155	0x3e000644	0.1250239
156	0x3dbce952	0.0922419
157	0x3db6a5ac	0.08918318
158	0x3d49ee58	0.049299568
159	0xba99a00e	-0.0011720674
160	0xbbcafade	-0.0061944565
161	0x3de7c50d	0.11316881
162	0xbd5c4beb	-0.05378334
163	0xbc846a1d	-0.01616388
164	0xbd6edb1e	-0.058314435
165	0x3d51c461	0.051212672
166	0xbccf7521	-0.025324406
167	0x3d5f578e	0.054526858
168	0xbcd74c54	-0.026281513
169	0x3ccf2ac9	0.025288956
170	0x3cf9340b	0.030420324
171	0x3d47849f	0.04871046
172	0x3dd51cf7	0.10405915
173	0xbd988482	-0.07447149
174	0x3da500b8	0.08056778
175	0x3d3cf284	0.04612972
176	0x3c910c81	0.017706158
177	0xbc7d217f	-0.015449881
178	0x3c8141be	0.015778419
179	0xbca87f5d	-0.020568544
180	0xbd948f16	-0.07253854
181	0xbc4a18db	-0.012335028
182	0xbd1ae538	-0.037816256
183	0x3d5ae7b0	0.05344361
184	0xbafede6c	-0.0019444949
185	0x3d90f707	0.07078367
186	0xbd029adc	-0.031885967
187	0x3d0aaf2e	0.03385847
188	0xbbff1372	-0.0077843005
189	0x3c95cd20	0.018286288
190	0xbd949ad4	-0.072560936
191	0x3c9cf68f	0.019160537
192	0x3af1fb2c	0.0018461696
193	0x3dab444d	0.08362637
194	0x3d5e312f	0.054246124
195	0xbc41b31a	-0.011822486
196	0xbbc45977	-0.0059921104
197	0xbd12aa58	-0.035806984
198	0x3cfae5d4	0.030627169
199	0x3c84f4a4	0.016229935
200	0x3d775002	0.060379036
201	0x3c8492e9	0.016183333
202	0xbd3c25a3	-0.04593433
203	0xbd0afe8b	-0.033934157
204	0xbc196cb7	-0.009364299
205	0x3db09cc0	0.08623648
206	0x3d818b8e	0.06325446
207	0x3d405e47	0.04696491
208	0x3da0626a	0.07831271
209	0xbd95f585	-0.0732222
210	0xbc619463	-0.013768288
211	0x3cf3bc3a	0.02975284
212	0x3df79ec2	0.120908275
213	0x3d187701	0.037222866
214	0x3d23fc2e	0.04003542
215	0x3d18377f	0.0371623
216	0x3b623bc4	0.0034520486
217	0x3c81df3d	0.015853519
218	0x3c1c4f3f	0.009540378
219	0x3ddd9653	0.10819688
220	0x3c98c95f	0.018650709
221	0x3c9e0543	0.019289618
222	0x3dc1599d	0.094409205
223	0x3d177377	0.03697535
224	0x3c8501c7	0.016236199
225	0x3d5038b3	0.050835323
226	0x3d048036	0.032348834
227	0x3ccde123	0.025131768
228	0x3d145cfb	0.036221486
229	0x3d18fe5f	0.037351962
230	0x3c9c6a02	0.019093517
231	0xbd96e429	-0.07367737
232	0x3d9e26dc	0.077222556
233	0x3ca6e7a1	0.020374121
234	0x3d1364f2	0.03598494
235	0x3d863d03	0.06554606
236	0x3dab3b24	0.083608896
237	0x3d5ca844	0.053871408
238	0x3d8980c6	0.06714015
239	0x3da91da4	0.082576066
240	0xbdb666c0	-0.08906317
241	0xbca63653	-0.020289576
242	0x3e12d241	0.14338018
243	0xbd9bb54c	-0.07602939
244	0x3da9c0b0	0.08288705
245	0x3d0ef8ad	0.034905124
246	0xbd3cc777	-0.046088662
247	0x3dc5d87b	0.09660431
248	0x3d362785	0.044471283
249	0x3c8d3632	0.017237756
250	0xbc3cd1b3	-0.011524606
251	0x3c5908e0	0.013246745
252	0x3c89e387	0.016832126
253	0x398db483	0.00027028107
254	0x3d3bf414	0.045887068
255	0xbd1bd0e2	-0.038041003

bias_hh_l0 f4 [768]
0	0xbd2eafab	-0.042648
1	0xbc86f2e7	-0.016473247
2	0xbb8027b4	-0.003910983
3	0x3b994e78	0.0046785437
4	0x3d146433	0.03622837
5	0x3d9013fe	0.07035063
6	0xbd90fe42	-0.07079746
7	0x3d0ea603	0.03482629
8	0x3d0317ab	0.032004993
9	0xbb12c157	-0.0022393072
10	0x3ca0b466	0.01961727
11	0xbbf351ed	-0.007425538
12	0x3a4d4922	0.0007831027
13	0x3d5390ed	0.051651884
14	0x3d82a95d	0.0637996
15	0x3bf5778a	0.007491057
16	0x3e046013	0.12927274
17	0x3d4e43e6	0.05035772
18	0x3de0f0e2	0.10983445
19	0xbd5d4396	-0.054019533
20	0xbb865d34	-0.004100466
21	0xbc91d7e5	-0.017803142
22	0xbbeba396	-0.007191132
23	0xbc979976	-0.018505793
24	0xbbad227a	-0.005283651
25	0x3c8c0734	0.017093278
26	0xbadf6083	-0.0017042313
27	0xbc6bc447	-0.014390058
28	0x3d05bc91	0.032650534
29	0xbd5da76a	-0.054114737
30	0xbc50fc80	-0.012755513
31	0xbc88e5b0	-0.016711086
32	0x3d5ab68e	0.053396754
33	0xbce364a4	-0.02775795
34	0xbcd02b8b	-0.025411388
35	0xbd2c4e89	-0.042067084
36	0x3d73a91b	0.059487443
37	0x3dd48764	0.10377386
38	0xbd2ce4f6	-0.04221054
39	0xbdaa6045	-0.08319143
40	0x3cb23f03	0.021758562
41	0x3cca9924	0.024731226
42	0x3d8db118	0.069185436
43	0x3d05cc4f	0.032665547
44	0x3ccacda1	0.024756255
45	0x3d2709ef	0.040780958
46	0xb99135b0	-0.00027696555
47	0xbd5699cb	-0.052392762
48	0xbc7f85d0	-0.015595868
49	0xbd111083	-0.035416137
50	0x3c22b19c	0.009930041
51	0xbd1ba960	-0.038003325
52	0x3bd6b485	0.0065522813
53	0xbcf19497	-0.029489798
54	0x3d0a611b	0.033784013
55	0x3c99a589	0.018755691
56	0x3be5a042	0.0070076296
57	0xbc8013fb	-0.015634527
58	0x3da1b00b	0.07894906
59	0x3d18cfb4	0.037307456
60	0x3daea361	0.08527256
61	0xbd0f2f63	-0.0349573
62	0xbdb12aa1	-0.08650709
63	0x3e042adf	0.12906979
64	0xbce23e00	-0.027617455
65	0xbd0c0565	-0.034184832
66	0xbda23b63	-0.07921483
67	0x3d84a1c3	0.06476166
68	0x3ca47a2c	0.020077787
69	0x3c85f47f	0.016351936
70	0xbd82ea85	-0.06392387
71	0xbd0563e4	-0.032565966
72	0x3cca273c	0.024676912
73	0x3da98fde	0.082793936
74	0xbc2f5569	-0.010701516
75	0x3cec3fac	0.028838955
76	0xbc8ce5b2	-0.017199371
77	0xbce9f673	-0.028559899
78	0x3de59edf	0.11211943
79	0xbb2f2d64	-0.0026729936
80	0x3ca49767	0.020091726
81	0x3d9377a0	0.07200551
82	0xbb77feec	-0.0037841154
83	0x3d47dfc7	0.048797395
84	0x3dbbf365	0.09177283
85	0x3c97a791	0.01851252
86	0x3db42fd8	0.08798188
87	0x3cd8e1ab	0.026474794
88	0x3b51025e	0.003189228
89	0x3c4baaff	0.012430905
90	0x3d260912	0.040535994
91	0xbd6fba8e	-0.05852752
92	0xbc8ed623	-0.017436093
93	0xbcda56b0	-0.026652664
94	0xbc964f2b	-0.018348297
95	0xbcc3f289	-0.02391936
96	0xbb6f2954	-0.003649314
97	0x3cd9052b	0.026491722
98	0x3d523e64	0.05132903
99	0xbb84b866	-0.0040503023
100	0x3d8beef5	0.06832687
101	0x3d19baef	0.03753179
102	0x3d7bbe43	0.061460745
103	0x3baf61fb	0.0053522564
104	0x3dea5da7	0.11443644
105	0xbb43b7f1	-0.0029864276
106	0xbda1880e	-0.078872785
107	0xbd156a39	-0.036478255
108	0xbd06b5b0	-0.032888114
109	0xbc0f08a4	-0.008730087
110	0x3cc6cc86	0.024267446
111	0xbadf6b2e	-0.0017045492
112	0xba9aafbd	-0.0011801642
113	0x3b8995b4	0.004198754
114	0x3cf613e3	0.03003878
115	0x3e0bf7ce	0.13668749
116	0xbd5a1b2b	-0.053248566
117	0x3d6f29ad	0.058389354
118	0xbc640bad	-0.013918799
119	0xbc9f8799	-0.019473838
120	0x3d25e300	0.040499687
121	0x3c79e711	0.015252844
122	0x3d8c4182	0.06848432
123	0x3e09a968	0.1344353
124	0x3d969d97	0.073542766
125	0x3d9befe9	0.076141186
126	0xbc3bd5f1	-0.011464582
127	0x3ca7bfcd	0.0204772
128	0x3d4841af	0.048890766
129	0xbc865d90	-0.016402036
130	0xbc868b85	-0.01642395
131	0x3d5a72e7	0.053332236
132	0x3d2b37ef	0.04180139
133	0x3cfa137f	0.030526875
134	0x3d1dd1f3	0.0385303
135	0x3db7c668	0.0897339
136	0x3d3b0702	0.04566098
137	0x3e189845	0.14901836
138	0xbc57e4d1	-0.013177113
139	0xbd44aed7	-0.048018303
140	0xbb72547a	-0.0036976621
141	0x3cfc8acf	0.030827908
142	0xbda52a71	-0.08064736
143	0xbd4e2a6d	-0.05033343
144	0x3d51dc96	0.051235758
145	0xbc038e5d	-0.0080295475
146	0x3d00e5af	0.031469043
147	0xbcb8e44f	-0.022569804
148	0x3d9ec40d	0.077522375
149	0x3d6b2a3a	0.057413317
150	0xbb475419	-0.0030415116
151	0x39d94e93	0.00041448008
152	0xbc15577e	-0.009115098
153	0x3db33fca	0.08752401
154	0xbd830e7e	-0.063992485
155	0x3d128d4d	0.035779286
156	0xbca2fa4d	-0.019894743
157	0x3de7dbf1	0.11321247
158	0x3d37a107	0.044831302
159	0xbd99ef8c	-0.07516393
160	0x3d3ab43d	0.045582045
161	0x3de61ae3	0.11235597
162	0xbcbf1943	-0.023327475
163	0x3b20a0bf	0.0024509875
164	0xbbb25842	-0.00544265
165	0x3c2c6ca2	0.010523947
166	0xbd3d0438	-0.0461466
167	0x3d68d8be	0.056847326
168	0x3c5ef4f9	0.013608211
169	0xbd46669d	-0.048437703
170	0x3d0551b0	0.032548606
171	0x3d659356	0.056048714
172	0x3d6c1547	0.05763748
173	0xbdba58b4	-0.0909895
174	0x3d0f581d	0.03499614
175	0xbcbe5a96	-0.023236554
176	0x3d603d3c	0.054745898
177	0xbc3f1a7f	-0.011664032
178	0x3c5f4faa	0.013629833
179	0xbca71f11	-0.020400556
180	0xbd257da3	-0.04040302
181	0x3b4ed7fc	0.0031561842
182	0xbc33f913	-0.010984677
183	0x3c6728bc	0.014108833
184	0x3d10f7e7	0.035392668
185	0x3d5ef207	0.054430034
186	0x3d76d529	0.06026188
187	0x3daa3fe6	0.08312969
188	0x3c9f9f84	0.019485243
189	0x3d8296e5	0.06376437
190	0x3c66bb43	0.014082733
191	0x3c5b2e05	0.013377671
192	0x3d535c47	0.051601674
193	0x3d9b45d7	0.0758168
194	0x3cce7734	0.025203325
195	0x3ce8338c	0.028344892
196	0x3d459162	0.04823435
197	0xba2ea5e7	-0.00066622946
198	0x3d5df140	0.054185152
199	0x3d3f4b59	0.046702716
200	0xbc37ab9e	-0.01121035
201	0xbcbbef59	-0.022941278
202	0x3cd632ea	0.026147325
203	0x3d94af89	0.07260043
204	0x3d84bf58	0.064818084
205	0x3d410963	0.047128092
206	0x3cd44298	0.02591066
207	0x3d08b547	0.033376005
208	0x3bdd52f4	0.0067542735
209	0xbd133d47	-0.03594711
210	0x3d0faed7	0.03507885
211	0x3a0710d3	0.00051523483
212	0x3dd0f843	0.10203602
213	0x3d0690a8	0.0328528
214	0x3d9ea08e	0.07745467
215	0x3d56ea24	0.052469388
216	0x39899b73	0.00026246495
217	0x3c6c496e	0.014421804
218	0x3d03494f	0.032052334
219	0x3c811e88	0.015761629
220	0x3d56792e	0.05236166
221	0x3d7ff122	0.06248582
222	0x3dbd57a7	0.09245234
223	0x3d49f7ad	0.049308468
224	0xbd241622	-0.04006017
225	0x3cf76ca6	0.030203175
226	0x3dbdb97d	0.09263895
227	0x3c9ce744	0.019153245
228	0xbca6eb36	-0.02037583
229	0xbb07f290	-0.0020743944
230	0x3ca2f9d9	0.019894527
231	0xbd5ea2d1	-0.054354493
232	0xbcf4df81	-0.029891731
233	0xbca356bd	-0.019938821
234	0x3d153c75	0.03643461
235	0x3d884a3e	0.066547856
236	0x3d253a6a	0.04033891
237	0x3d8a64c7	0.06757503
238	0xbc127843	-0.008939805
239	0x3d167f45	0.036742467
240	0xbc273a56	-0.010206779
241	0x3d360d95	0.044446547
242	0x3df0d819	0.11759967
243	0xbd4f0201	-0.05053902
244	0x3da20dd8	0.07912797
245	0x3dd16970	0.10225189
246	0x3c44e4e3	0.0120174615
247	0x3dabcdfb	0.08388897
248	0xbc116c65	-0.008875941
249	0x3d26a65c	0.040685996
250	0x3d970d83	0.07375624
251	0xbd0b852b	-0.034062546
252	0x3cda8e78	0.026679263
253	0xbcc36854	-0.023853458
254	0x3d54a762	0.05191744
255	0xbd1f8a09	-0.03895

weight f4 [10, 256]
0	0x3e8c62a0	0.27418995
1	0xbe8a9ff4	-0.2707516
2	0xbdfcafd2	-0.123382226
3	0x3d19e236	0.037569247
4	0xbdc6ccef	-0.09707057
5	0xbea31db0	-0.31858587
6	0x3e33c600	0.17556
7	0x3e6c999a	0.2310547
8	0xbde3384f	-0.110947244
9	0x3e34e2f6	0.17664704
10	0x3d97b6cd	0.07407913
11	0xbe4137a4	-0.18868881
12	0x3e1c7595	0.15279229
13	0x3e8e5c1f	0.27804658
14	0x3bde4edc	0.006784303
15	0x3dc2d6e9	0.09513647
16	0xbec3625e	-0.38160986
17	0x3e88c7d5	0.2671496
18	0x3e0aa639	0.13539971
19	0x3e3f679e	0.1869187
20	0xbddf9073	-0.109162234
21	0x3cb1bc03	0.021696096
22	0xbe53e7a2	-0.2069383
23	0x3e11f30e	0.14252874
24	0x3d187a8e	0.037226252
25	0xbdd34174	-0.103152186
26	0x3db8c630	0.09022176
27	0xbdee8c7e	-0.116478905
28	0x3e195e45	0.14977367
29	0x3d34a203	0.04409982
30	0xbeb419f7	-0.3517606
31	0x3d77c844	0.060493723
32	0x3d56490c	0.052315757
33	0x3cc2d232	0.02378187
34	0x3e940be2	0.28915316
35	0x3d24c274	0.040224507
36	0xbdd47c3f	-0.103752606
37	0xbe09cfa5	-0.13458116
38	0x3f621c7d	0.8832472
39	0xbf63d068	-0.8898988
40	0xbde00b5d	-0.109396674
41	0x3dd74387	0.10510927
42	0x3d5bb940	0.053643465
43	0xbecbac52	-0.39779907
44	0x3e97f501	0.2967911
45	0x3d2941ef	0.041322645
46	0xbe13cbc4	-0.14433199
47	0x3d775fe4	0.060394183
48	0xbe2db58e	-0.16963789
49	0x3e7022bf	0.23450755
50	0xbcbe58dc	-0.02323573
51	0x3d7e0dca	0.06202487
52	0xbdf36f6c	-0.118864864
53	0xbd8b5249	-0.06802804
54	0x3e10ee6c	0.1415345
55	0xbe471fdd	-0.19445749
56	0xbdaec590	-0.08533776
57	0x3d9c3f93	0.07629313
58	0xbdcedf74	-0.10101214
59	0x3d74f68c	0.059805438
60	0x3de4d11f	0.11172699
61	0xbcc8f0c6	-0.024528872
62	0x3cbe93d7	0.023263855
63	0xbe3d6648	-0.18496048
64	0xbd833247	-0.06406074
65	0x3bf9cc07	0.007623199
66	0x3d0d1787	0.034446266
67	0x3e5dca90	0.21659303
68	0x3df5b1c9	0.119968005
69	0x3df31d2c	0.118707985
70	0xbc8eb977	-0.01742242
71	0x3dc1cd57	0.094629936
72	0xbe53419c	-0.20630497
73	0x3e87db64	0.2653457
74	0x3d989892	0.074509755
75	0xbc746f3e	-0.0149191
76	0xbcf8e605	-0.03038312
77	0x3e916bbb	0.28402504
78	0xbe465b09	-0.19370665
79	0x3e688dd4	0.22710353
80	0x3cda86a2	0.026675526
81	0xbf3860fb	-0.7202298
82	0x3d8f677f	0.07002162
83	0x3e03e33b	0.1287965
84	0xbe428fee	-0.19000217
85	0xbd2802a8	-0.04101816
86	0xbeec51e4	-0.46156228
87	0xbe0320aa	-0.12805429
88	0x3e81dbfe	0.25363153
89	0xbdbc5ab2	-0.09196986
90	0xbdc3f730	-0.09568632
91	0x3d40b027	0.047042992
92	0xbe2a9da0	-0.16661692
93	0x3cf0fb63	0.029416746
94	0x3dcd9e4c	0.10039958
95	0xbd5df026	-0.0541841
96	0xbe24ba66	-0.1608673
97	0x3d295edb	0.041350227
98	0xbcba4069	-0.022735791
99	0x3e3c9394	0.18415672
100	0x3e6c1950	0.23056531
101	0x3ddf578d	0.10905371
102	0x3d7b6563	0.061375987
103	0x3d0591eb	0.03260986
104	0x3ddac3d2	0.10681881
105	0x3d9afd4b	0.07567843
106	0xbe126d83	-0.14299588
107	0x3cd0270b	0.025409242
108	0xbe9f8d98	-0.31162715
109	0x3c7923e3	0.01520631
110	0xbe31a2cd	-0.1734726
111	0x3e0f2211	0.13977839
112	0x3a208b6d	0.00061242917
113	0x3cd1e77a	0.025623072
114	0x3c88f03a	0.016716111
115	0xbb3bbb44	-0.0028645555
116	0x3e9e021f	0.30860993
117	0x3d974944	0.07387021
118	0x3dd8e050	0.10589659
119	0xbd70bb5b	-0.058772426
120	0xbe1ea52c	-0.15492696
121	0xbe7f1c20	-0.24913073
122	0xbd938e21	-0.07204843
123	0x3e233b30	0.15940547
124	0x3e032b9e	0.12809607
125	0x3d34fe53	0.044187855
126	0xbe414f9d	-0.18878026
127	0x3e57bab7	0.2106732
128	0x3d05dfcf	0.032684144
129	0x3d5146e1	0.051092986
130	0xbeaa105e	-0.33215612
131	0xbd7a2eaa	-0.06107966
132	0x3d1245b9	0.035711024
133	0xbd5037f3	-0.050834607
134	0xbd2e6bde	-0.04258334
135	0xbd863726	-0.065534875
136	0xbb72d1ac	-0.0037051244
137	0x3eb80fdf	0.3594961
138	0x3da007ae	0.07813965
139	0xbe0bfa9c	-0.13669819
140	0xbec8d5af	-0.39225528
141	0x3d4789c7	0.04871538
142	0xbe11dd58	-0.14244592
143	0x3df125b6	0.11774771
144	0xbe3ca506	-0.18422326
145	0x3d30f19a	0.04319916
146	0x3db9124a	0.090366915
147	0x3dae53e7	0.08512097
148	0xbe89bf66	-0.26903838
149	0xbe865eed	-0.26244298
150	0x3e127f72	0.14306429
151	0xbe3156b0	-0.17318225
152	0x3d867cc3	0.06566765
153	0xbde6650f	-0.11249744
154	0x3df99310	0.12186253
155	0xbe95e23f	-0.29274175
156	0xbea92840	-0.3303852
157	0x3ce184f4	0.027529217
158	0xbdda62a7	-0.10663348
159	0x3e177758	0.1479162
160	0xbdf2cd2a	-0.11855538
161	0xbe30b158	-0.17255151
162	0x3d7ae024	0.061248913
163	0xbcf41eeb	-0.0297999
164	0xbdf4de77	-0.11956494
165	0xbe2e6969	-0.17032398
166	0x3e7dada6	0.24773273
167	0x3d28e7ed	0.041236807
168	0x3d9200ff	0.07129096
169	0xbdc144aa	-0.09436925
170	0x3dc6b420	0.09702325
171	0xbdffb36b	-0.12485393
172	0x3e665dfc	0.2249679
173	0x3d873215	0.06601349
174	0x3dcde080	0.100525856
175	0xbe19d483	-0.15022473
176	0x3e45cd05	0.1931649
177	0xbea0906c	-0.31360185
178	0xbd8b0322	-0.06787707
179	0xbe595fb4	-0.21227914
180	0x3c422ddd	0.011851755
181	0x3e18f7d6	0.14938292
182	0xbe66f988	-0.22556126
183	0xbcf056ad	-0.029338205
184	0x3e07eeb0	0.13274646
185	0x3e664c56	0.22490057
186	0xbe235058	-0.15948617
187	0xbe101139	-0.1406907
188	0xbe5733f3	-0.21015911
189	0x3e87aced	0.2649912
190	0x3e91dc55	0.28488412
191	0xbd899192	-0.067172185
192	0x3cc601b8	0.024170741
193	0xbdece51f	-0.11567139
194	0x3ca5521d	0.020180756
195	0xbc1e7bfa	-0.009673113
196	0xbe11e9d0	-0.14249349
197	0x3d30780a	0.04308323
198	0x3b6111b5	0.003434283
199	0x3e4be856	0.19912848
200	0x3e75b071	0.23993088
201	0xbc19e18c	-0.0093921535
202	0xbd6c31e6	-0.057664774
203	0xbe770b7a	-0.24125472
204	0xbe8c70eb	-0.274299
205	0x3d324b96	0.043529116
206	0x3e323c48	0.17405808
207	0xbe9374c3	-0.2880002
208	0xbd52709d	-0.051376928
209	0x3e9fdee2	0.31224734
210	0x3d11509c	0.035477266
211	0x3e65acc8	0.22429192
212	0xbea75069	-0.32678536
213	0x3e7c076b	0.24612205
214	0xbd43852c	-0.047734424
215	0x3e22ea36	0.15909657
216	0x3d3367a3	0.043800008
217	0x3dc91974	0.09819308
218	0x3da49415	0.08036057
219	0x3d275ee5	0.040861983
220	0x3d0a6f57	0.03379759
221	0x3d2b07d0	0.041755497
222	0xbe324462	-0.17408898
223	0x3e79030c	0.24317569
224	0xbdf7de94	-0.12103
225	0x3e4ed8d9	0.20199908
226	0xbecc8f32	-0.39953
227	0x3e9071a8	0.28211713
228	0xbe000955	-0.1250356
229	0xbdf50d0b	-0.119653784
230	0x3dd4b2b1	0.10385645
231	0xbd6692d0	-0.056292355
232	0xbe4e3096	-0.20135722
233	0x3e25255f	0.16127537
234	0xbd738b27	-0.059458878
235	0x3b13a157	0.0022526586
236	0x3dedd3f2	0.11612691
237	0xbe4c0c51	-0.19926573
238	0xbde07fdb	-0.109618865
239	0x3df153e9	0.11783583
240	0xbe050c16	-0.12992892
241	0xbd9b1a4e	-0.075733766
242	0xbe5ba720	-0.21450472
243	0xbcf57386	-0.029962312
244	0xbbb5e2a6	-0.0055507002
245	0xbe6b67a0	-0.22988749
246	0xbd2bb9ef	-0.041925367
247	0x3ea3ff96	0.32030934
248	0x3c704bb0	0.014666483
249	0x3db28578	0.087168634
250	0x3e9a3dd2	0.3012529
251	0xbdd3a50f	-0.10334217
252	0x3e217cfb	0.15770333
253	0x3d00cbc6	0.031444333
254	0x3f14b9de	0.5809611
255	0xbc38b704	-0.011274103

bias f4 [10]
0	0xbe841767	-0.25799105
1	0xbe8ee9e0	-0.27912807
2	0x3d2a2d7e	0.04154729
3	0x3ddb3520	0.10703492
4	0xbe6b4c84	-0.22978407
5	0x3ed796a1	0.42107108
6	0xbf0897b5	-0.53356487
7	0x3eeb6b25	0.45980182
8	0xbdd1c20a	-0.10242088
9	0x3ea17338	0.31533217
