model/new/32_gru.model (torch_old, 35652 bytes, 6 tensors)

weight_ih_l0 f4 [96, 28]
0	0xbd77e709	-0.060523067
1	0xbe73615b	-0.23767607
2	0xbdd694a9	-0.104775734
3	0x3e61ac4d	0.22038384
4	0x3ee799ad	0.45234433
5	0x3f7b2828	0.9810815
6	0x3f84755d	1.0348316
7	0x3f98b11f	1.1929053
8	0x3f3334ac	0.70002246
9	0xbe3f4c8c	-0.18681544
10	0xbed0e30a	-0.40798217
11	0xbe27a060	-0.16369772
12	0xbf6dc9ff	-0.92886347
13	0xbea1b6c0	-0.3158474
14	0xbfa1c563	-1.2638363
15	0xc005a3f6	-2.0881324
16	0xc0108bcb	-2.2585323
17	0xbfea8410	-1.8321552
18	0xbe2e301a	-0.17010537
19	0xbed98cee	-0.42490333
20	0xbf804923	-1.002232
21	0xc0192ec9	-2.3934805
22	0xc05447c2	-3.3168797
23	0xc024f6a3	-2.5775535
24	0xbfc7d661	-1.5612298
25	0xbec4499d	-0.38337412
26	0x3df2d12e	0.11856304
27	0xbd04bfc3	-0.03240944
28	0xbf1c434e	-0.610402
29	0xbe80a4f8	-0.2512586
30	0xbe535736	-0.20638737
31	0x3dd9b6d7	0.10630577
32	0xbdd7bc66	-0.10533981
33	0xbf29d251	-0.6633654
34	0xbf61ea5d	-0.88248235
35	0xbf6b329a	-0.91874087
36	0xbee3c1a3	-0.4448367
37	0xbf066461	-0.52496916
38	0xbe007585	-0.1254483
39	0x3ed1de0f	0.4098973
40	0x3ff3b600	1.9039917
41	0x3f9c02c9	1.218835
42	0xbda0098a	-0.078143194
43	0xbd268193	-0.040650915
44	0xbec60bde	-0.3868093
45	0x3dc44ceb	0.095849834
46	0x3dd6fb97	0.10497206
47	0x3eddb569	0.43302467
48	0x3e8c80f4	0.27442133
49	0x3da72e4c	0.08163127
50	0xbe6a04c2	-0.22853377
51	0xbeb884bc	-0.36038768
52	0xbdbe4b9c	-0.09291765
53	0xbf17c4b0	-0.59284496
54	0xbea1ced7	-0.3160312
55	0xbea2352c	-0.31681192
56	0xbf5234af	-0.8211164
57	0xbf6d8646	-0.9278301
58	0xbf38b891	-0.72156626
59	0xbf494d5a	-0.78633654
60	0xbf5fbbf1	-0.8739615
61	0xbf61eba2	-0.8825017
62	0xbf3ec102	-0.74513257
63	0xbfb32beb	-1.3997778
64	0xbf9f67ec	-1.245359
65	0xbf233739	-0.6375614
66	0xbecda81a	-0.40167314
67	0xbf04cf31	-0.5187865
68	0xbf07cb9f	-0.53045076
69	0x4000270c	2.0023832
70	0x4032ba55	2.7926228
71	0x3e6bbbb1	0.23020817
72	0xbdda2b30	-0.106527686
73	0x3f64f78d	0.8944023
74	0x3e61460b	0.21999376
75	0x3e5e8e60	0.21733999
76	0xbca1cb01	-0.01975012
77	0x3d6fa690	0.058508456
78	0xbd204dfd	-0.039136875
79	0xbef544c7	-0.47904035
80	0xbf8e752d	-1.1129509
81	0xbf85c1f4	-1.0449815
82	0xbf6206ef	-0.8829183
83	0xbf4ffbcd	-0.8124359
84	0x3df30e4a	0.1186796
85	0xbdc299a4	-0.09501961
86	0xbe1b5e77	-0.15172754
87	0x3dc231a1	0.09482122
88	0x3e663b36	0.22483525
89	0x3f797b00	0.9745331
90	0x3f3e4bd8	0.7433448
91	0x3f1b2b78	0.60613203
92	0x3f301f8e	0.6879815
93	0x3f1316f3	0.5745689
94	0x3e92b28e	0.2865185
95	0x3e0c8ced	0.13725634
96	0xbde32b88	-0.11092287
97	0xbd9d05ef	-0.07667147
98	0xbc99a6c3	-0.018756276
99	0x3d3ea969	0.04654828
100	0x3ecd3e13	0.4008642
101	0x3ec6b072	0.38806492
102	0x3f150b14	0.5822003
103	0x3f124429	0.57135254
104	0x3db003ff	0.08594512
105	0x3f024ed6	0.50901544
106	0x3f601c11	0.87542826
107	0x3f0ad11f	0.54225343
108	0x3eacd30c	0.33754766
109	0x3e620287	0.22071277
110	0x3d4e4943	0.050362837
111	0x3e09dbf6	0.13462815
112	0xbd7caecb	-0.061690133
113	0xbeb27234	-0.34852755
114	0xbeb50fa7	-0.35363504
115	0x3d713db8	0.05889675
116	0x3e8cb912	0.27484947
117	0x3e7577fa	0.23971549
118	0xbda18bd2	-0.07887997
119	0x3c626569	0.013818123
120	0x3e6a3544	0.22871882
121	0x3ffb0655	1.9611307
122	0x401e0117	2.4688165
123	0x3ffa8361	1.9571344
124	0x3edd2829	0.43194702
125	0xbeecbac0	-0.4623623
126	0xbf0cbd7f	-0.5497665
127	0xbef35600	-0.4752655
128	0xbf0022ae	-0.50052917
129	0x3ec7e062	0.39038378
130	0x3f303efd	0.6884611
131	0xbee8f167	-0.45496675
132	0xbe75dcd1	-0.24010016
133	0x3ea33f4e	0.31884235
134	0x3dbe50a8	0.09292728
135	0xbe71ffc3	-0.23632722
136	0xbe8167c0	-0.25274467
137	0xbe5fde16	-0.21862063
138	0xbeb314ae	-0.34976715
139	0xbec1a796	-0.3782317
140	0xbe02d5ec	-0.12776917
141	0xbd8dca96	-0.06923406
142	0xbe160e65	-0.14653929
143	0x3d9f03ca	0.077643946
144	0x3e08f865	0.13376005
145	0x3f1bdcad	0.608836
146	0x3f4b1d48	0.79341555
147	0x3f276e08	0.6540227
148	0xbf3cc179	-0.73732716
149	0xbf9f7de8	-1.2460299
150	0xbfbe6405	-1.4874274
151	0xbf785764	-0.9700835
152	0xbffd05b3	-1.9767364
153	0xc012de0d	-2.294803
154	0xbf563bf3	-0.83685225
155	0x3e7dd1df	0.2478709
156	0x3efc91bb	0.49329934
157	0x3fcdf9c8	1.6091852
158	0x3ff4df03	1.9130558
159	0x3fa9d441	1.32679
160	0x3f7e8b5a	0.99431384
161	0x3f6bd875	0.9212716
162	0x40087b80	2.1325378
163	0x403bccc2	2.9343724
164	0x4010fe4f	2.2655218
165	0x3d20ef55	0.039290745
166	0xbdaf02b1	-0.08545435
167	0xbd98a16a	-0.07452662
168	0xbc062de7	-0.008189655
169	0x3d32df5d	0.043670047
170	0xbcc0b21d	-0.023522431
171	0x3e8b0721	0.27153876
172	0x3f060254	0.523473
173	0x3e9dc59e	0.30814832
174	0x3f1e42a4	0.61820436
175	0x3fd499bf	1.660942
176	0x4015d1e7	2.3409364
177	0x3f8d8ccb	1.1058592
178	0x3ea0133e	0.3126468
179	0xbee96e43	-0.45591936
180	0xbf314cd9	-0.69257885
181	0x3fc5786c	1.5427375
182	0x3f97e6c3	1.1867298
183	0x3f99dac9	1.2019893
184	0x3fd43ab0	1.658041
185	0x4021dc1a	2.529059
186	0x4039e72f	2.9047353
187	0x3fea97ff	1.8327636
188	0x3f8ffe1e	1.1249425
189	0x3fbe2755	1.4855753
190	0x3f6ee5e8	0.9331956
191	0xbde79da7	-0.11309367
192	0x3e087882	0.1332722
193	0xbd5021a2	-0.050813325
194	0x3e356429	0.1771399
195	0xbd7f73ec	-0.06236641
196	0xbe2f9d68	-0.1714989
197	0xbe16ef36	-0.14739689
198	0xbdae4c40	-0.08510637
199	0xbef273bc	-0.47353923
200	0xbf1c9afb	-0.6117398
201	0xbed96d66	-0.42466277
202	0xbe102e29	-0.14080109
203	0xbf08642e	-0.5327786
204	0xbf20b19c	-0.6277101
205	0x3ed01d98	0.40647578
206	0x3ed7134f	0.4200692
207	0xbf1cbbf6	-0.61224306
208	0x3e8e6391	0.27810338
209	0x3fae25dd	1.3605305
210	0x3fad161b	1.3522371
211	0xbdf74595	-0.120738186
212	0xbfa37fc3	-1.2773365
213	0xbf714d5f	-0.94258684
214	0xbc884070	-0.016632289
215	0x3f54b07f	0.8308181
216	0x3f914edb	1.135219
217	0x3f78e265	0.9722045
218	0x3f179a96	0.59220254
219	0x3e35b714	0.1774562
220	0xbdeb1aa0	-0.11479688
221	0xbd27029d	-0.040773977
222	0xbec7585a	-0.38934594
223	0xbec24e1b	-0.37950215
224	0x3d84a630	0.0647701
225	0xbe3bc3c0	-0.18336391
226	0xbe9cac0f	-0.3060002
227	0xbf23aac4	-0.6393244
228	0xbfca425e	-1.5801504
229	0xbf44584d	-0.76697236
230	0x3ddf7bae	0.10912262
231	0x3d8fd7d2	0.07023586
232	0x3ee70e0a	0.45127898
233	0x3eece3cd	0.46267548
234	0x3ed46b8a	0.41488296
235	0x3f1fdb1f	0.6244373
236	0x3f75a610	0.95956516
237	0x3f25bc01	0.64739996
238	0x3f6840a1	0.90723616
239	0x3fa6e880	1.3039703
240	0x3f906070	1.127943
241	0x3ef7303b	0.48278984
242	0xbe11caf2	-0.14237574
243	0xbe6e9c9b	-0.23301928
244	0x3dd2e548	0.10297638
245	0xbf30b207	-0.6902165
246	0xbff6bb80	-1.927597
247	0xbfd545df	-1.6661948
248	0xc00fcc8b	-2.2468593
249	0xbfc59b26	-1.5437973
250	0xbf6e099e	-0.92983425
251	0xbee9f485	-0.45694366
252	0xbf0e57bf	-0.5560264
253	0xbee859c5	-0.4538099
254	0xbf19b583	-0.6004259
255	0xbf140726	-0.5782341

weight_hh_l0 f4 [96, 32]
0	0x3eda3de1	0.42625335
1	0x3f987e47	1.1913537
2	0x3f8c5539	1.0963508
3	0xbf05b64f	-0.52231306
4	0xbf5c0eb5	-0.8595994
5	0xbe9b7fff	-0.3037109
6	0xbf87e099	-1.0615417
7	0xbf981800	-1.1882324
8	0x3f82b3a1	1.0211068
9	0xbe59b73e	-0.21261308
10	0x3e44d5c8	0.19222176
11	0xbf00c158	-0.5029502
12	0xbf34aaf9	-0.70573384
13	0xbeb6b587	-0.3568537
14	0xbe956fd4	-0.2918688
15	0x3ed34b1d	0.41268244
16	0xbd6f11a4	-0.058366433
17	0x3f8f3911	1.118929
18	0x3f026b25	0.5094474
19	0x3e86cfc4	0.26330388
20	0x3f65ee10	0.8981638
21	0x3ce527da	0.027973104
22	0x3f0e18e4	0.5550673
23	0xbf7301fe	-0.94924915
24	0x3dee2db7	0.11629813
25	0xbde15bd0	-0.1100384
26	0x3e68f0c8	0.22748101
27	0x3f5ee52e	0.8706845
28	0x3f78d916	0.97206247
29	0x3dd323e9	0.10309584
30	0x3f003a4a	0.5008894
31	0xbeca43f0	-0.39504957
32	0x3fa127c2	1.2590258
33	0xbeba5df1	-0.36399797
34	0xbe00e10f	-0.12585853
35	0xbf41b73d	-0.75670224
36	0xbf98ee5d	-1.1947743
37	0xbe81d4b2	-0.25357586
38	0x3f2724b5	0.65290385
39	0xbf6512aa	-0.89481604
40	0xbf5c4f87	-0.8605885
41	0xbf2a4869	-0.6651674
42	0xbeb39b49	-0.3507941
43	0xbf922252	-1.1416724
44	0x3df38eb3	0.11892452
45	0xbf100a9b	-0.5626618
46	0xbed4b9b7	-0.4154794
47	0xbea76279	-0.32692316
48	0x3f82d072	1.0219862
49	0xbf0f9022	-0.56079304
50	0xbe45f246	-0.19330701
51	0x3dd22f6f	0.102629535
52	0x3f44ddd2	0.7690097
53	0xbf50a79b	-0.81505746
54	0xbfe6c446	-1.8028648
55	0x3e05f1ab	0.1308047
56	0xbe3fbb99	-0.18723907
57	0xbd530830	-0.05152148
58	0x3fbf7c56	1.4959819
59	0xbef1254e	-0.47098774
60	0xbf822642	-1.0167925
61	0xbf2f9b09	-0.6859594
62	0x3f660295	0.8984769
63	0xbf4acf3a	-0.7922245
64	0x3f9149a7	1.1350602
65	0xbeacfab6	-0.33785027
66	0xbdeb37cf	-0.11485254
67	0xbfa605de	-1.297054
68	0x3f61ec74	0.88251424
69	0x3f465413	0.7747204
70	0xbe237290	-0.15961671
71	0x3f5e6648	0.8687482
72	0xbef108e3	-0.47077093
73	0xbf5376db	-0.82603234
74	0xbfbf566f	-1.4948252
75	0x3f548d1d	0.8302782
76	0x3f0e95c3	0.5569727
77	0xbfa1beab	-1.2636312
78	0x3e1beaad	0.1522624
79	0xbfd8178f	-1.688219
80	0x3f93db32	1.1551268
81	0x3fda7c67	1.7069215
82	0x3eae4ae0	0.340415
83	0xbf2c9cc6	-0.6742672
84	0x3f58f6da	0.84751666
85	0xc012c3d6	-2.2932029
86	0xbfb429f8	-1.4075308
87	0x3f3dfff8	0.742187
88	0x3f0ea619	0.55722195
89	0xbf1eb411	-0.6199351
90	0x3e12cff8	0.14337146
91	0xbf845d0e	-1.0340898
92	0xbf1891f4	-0.59597707
93	0xbf3800df	-0.7187633
94	0xbfc0b050	-1.5053806
95	0xbf6e2944	-0.93031716
96	0xbe15df6f	-0.14636014
97	0x3d9c4dc6	0.076320216
98	0x3ef3b567	0.47599337
99	0xbf63c57c	-0.8897321
100	0x3e6d76d6	0.23189864
101	0xbdfd50bc	-0.123689145
102	0xbe33f8ca	-0.17575374
103	0x3f0aee99	0.5427032
104	0xbdb4ed30	-0.088343024
105	0x3f20e861	0.6285458
106	0x3eefe80c	0.46856725
107	0xbe830bf3	-0.25595054
108	0x3f3b8181	0.7324448
109	0x3f135fed	0.57568246
110	0x3d9ff940	0.078112125
111	0xbe83013e	-0.25586885
112	0x3e166086	0.14685258
113	0xbeba29a9	-0.3635991
114	0xbf07e099	-0.53077084
115	0x3eac3525	0.33634296
116	0xbed005fc	-0.40629566
117	0xbd9303e3	-0.07178476
118	0x3e61c84e	0.22049066
119	0xbf24fc12	-0.6444713
120	0xbf707164	-0.9392302
121	0x3ee4d8bd	0.44696608
122	0xbe88325a	-0.26600915
123	0x3ebc6f1a	0.36803514
124	0x3f8a54d7	1.0807141
125	0x3eb90854	0.36139166
126	0xbe84f99b	-0.25971684
127	0x3f037e15	0.5136426
128	0xbf5107e6	-0.8165268
129	0xbff69b65	-1.9266173
130	0x3f0991ad	0.5373791
131	0x3eac52d3	0.3365694
132	0xc073df1e	-3.810493
133	0xbf264033	-0.6494171
134	0xbf53c23a	-0.8271824
135	0xbfac9a81	-1.3484651
136	0x3f4b6768	0.7945466
137	0xbeb989c2	-0.36237913
138	0xbf047f88	-0.517571
139	0xbf7a285a	-0.9771782
140	0xbe5a3b7b	-0.21311752
141	0xbfd8a28a	-1.6924603
142	0xbf4ee064	-0.8081114
143	0xc008488d	-2.1294281
144	0x3fc59033	1.5434631
145	0x3f4a5a08	0.79043627
146	0x3ed792e8	0.42104268
147	0xbea34ae4	-0.31893075
148	0xbf0b12c9	-0.5432554
149	0xbf79d4d5	-0.9759038
150	0xbf970484	-1.1798253
151	0x3f8ece47	1.1156701
152	0x3e490e68	0.19634402
153	0xbf79377a	-0.97350276
154	0x3f8bce4f	1.0922335
155	0xbec5e523	-0.3865138
156	0xbf044cc5	-0.5167964
157	0x3f66d30f	0.901658
158	0x3e6af79a	0.22946015
159	0xbf9cea32	-1.2258971
160	0xbf858226	-1.0430343
161	0x3f28c3f1	0.6592398
162	0x3e4ecf73	0.20196323
163	0x3d252c3c	0.04032539
164	0xbf85b64f	-1.0446261
165	0x3f28209a	0.65674746
166	0xbfa18035	-1.2617251
167	0x4044682f	3.0688589
168	0x3f375768	0.71617746
169	0xbf815995	-1.0105463
170	0xbdd2eae7	-0.1029871
171	0x3f3c1368	0.7346711
172	0x3d623714	0.055228308
173	0xbef3f3e5	-0.47647014
174	0xbf6e13fc	-0.92999244
175	0x3f9fb1b9	1.2476112
176	0x3c0422cf	0.00806494
177	0x3ecd23ec	0.4006647
178	0xbe3dee60	-0.18547964
179	0xbf7da97d	-0.99086744
180	0x3eb6be9e	0.35692304
181	0x3f423ba9	0.75872284
182	0xbf54b02f	-0.83081335
183	0xbdba61ca	-0.09100683
184	0x3f6b3b10	0.91887
185	0xbf0d31d9	-0.55154186
186	0x3ed55421	0.41665748
187	0x3fae546e	1.3619516
188	0x3f98a6cc	1.1925902
189	0x3f2e9735	0.68199474
190	0x3ed627c6	0.4182722
191	0xbf13c8c5	-0.57728225
192	0xbe22ae69	-0.15886845
193	0xbfdecf88	-1.7407084
194	0xbe12c9d7	-0.14334808
195	0xc000106a	-2.0010018
196	0xbf802d15	-1.0013758
197	0xbe1f58f9	-0.15561284
198	0x3e76974e	0.24081156
199	0xbf23de29	-0.64010864
200	0xbfcc86c9	-1.5978633
201	0x3f9e87bd	1.2385174
202	0x3de15dd5	0.11004225
203	0xbdda604b	-0.10662898
204	0xbf8ab6dd	-1.0837055
205	0x3ebe9248	0.3722098
206	0x3f346b1b	0.7047593
207	0xbd6cca85	-0.057810325
208	0x3fe4fadf	1.788906
209	0xbdb79ddf	-0.089656584
210	0x3eadf76d	0.33977833
211	0xbf6d34bc	-0.9265859
212	0x3f27d48b	0.6555869
213	0xbf841c4e	-1.0321138
214	0x3f17ac7a	0.59247553
215	0x3f97f8e1	1.1872827
216	0x3f3665eb	0.71249264
217	0x3ddcbd74	0.10778323
218	0x3fc45980	1.5339813
219	0xbfafd8e2	-1.3738062
220	0xbeacf65a	-0.337817
221	0xbf91e637	-1.1398381
222	0x3f809644	1.0045857
223	0x3ea1f383	0.31631097
224	0xbf891485	-1.0709387
225	0xbf4e8600	-0.8067322
226	0xbe638b47	-0.22221099
227	0xbf9cf038	-1.2260809
228	0xbf991cb7	-1.1961888
229	0xbfa5b3e1	-1.294552
230	0x3db3552d	0.0875648
231	0xbfaf6848	-1.3703699
232	0x3bb7b503	0.005606295
233	0x3daa7ca2	0.08324553
234	0xbe36e669	-0.17861332
235	0xc01d521e	-2.458137
236	0x3f171339	0.59013706
237	0xbe6389d1	-0.22220542
238	0xbf355766	-0.70836484
239	0xbf1d3861	-0.6141415
240	0x3ed021fa	0.40650922
241	0x3fd2cb17	1.6468228
242	0xbda88987	-0.08229356
243	0xbeea122b	-0.45716986
244	0xbe618b35	-0.2202576
245	0xbe9ca5d7	-0.30595276
246	0xbf4c2b3c	-0.7975347
247	0x3f678b8d	0.9044731
248	0x3d30a0d7	0.04312214
249	0xbe44d8b6	-0.19223294
250	0x3f96a227	1.1768235
251	0xbee509fc	-0.4473418
252	0x3d1befc3	0.03807045
253	0x3f389bf3	0.7211296
254	0xbf00d042	-0.50317776
255	0xbeaa9509	-0.3331683

bias_ih_l0 f4 [96]
0	0x3e84f4c7	0.25968
1	0x3f92cc3c	1.1468577
2	0x3ff94b00	1.9476013
3	0x3b872035	0.0041237124
4	0x3f2ce13f	0.675312
5	0x3c67cd11	0.014148013
6	0xbeaef09c	-0.34167945
7	0x3f3fc8b6	0.74915636
8	0x3caf96e8	0.021434262
9	0x3faacf29	1.334447
10	0x40076ea6	2.1161284
11	0xbfa21b96	-1.2664669
12	0xbe8ad5d0	-0.2711625
13	0x3ee5d559	0.44889334
14	0xbe8b81dc	-0.27247512
15	0xbf8dee7d	-1.1088406
16	0xbf8fe71b	-1.1242403
17	0x3f38a66a	0.7212893
18	0x3ec8a34c	0.39187086
19	0xbf0d1328	-0.55107355
20	0x3f4b0d94	0.79317594
21	0xbd851ad9	-0.064992614
22	0x3f6e0aee	0.9298543
23	0x3f8bea77	1.0930928
24	0x3f0dfd03	0.5546419
25	0xbea7fed3	-0.32811603
26	0x3f8d06f2	1.1017745
27	0xbf8654c1	-1.0494615
28	0x3fa8bb43	1.3182148
29	0x3ef80f3b	0.4844912
30	0x4021ddfa	2.5291734
31	0x3fbf4647	1.4943322
32	0x3f93d5d9	1.1549636
33	0x40514b4f	3.2702215
34	0x40831fb3	4.0976195
35	0xbf71115b	-0.9416711
36	0xc0bd0416	-5.906749
37	0xbffa50ba	-1.9555886
38	0xc012a4ab	-2.2913005
39	0xc01783b0	-2.3674126
40	0x40364fa5	2.848611
41	0x4031fcab	2.7810466
42	0xc02486d5	-2.5707295
43	0x40827e61	4.077927
44	0x40a3e40b	5.1215873
45	0x40209c62	2.5095448
46	0x4084a55c	4.1451855
47	0xc00eb4c0	-2.229782
48	0xbf2ac81f	-0.6671161
49	0x40334671	2.8011744
50	0x4097606a	4.7305193
51	0x3f72f247	0.94900936
52	0xc0a0ca0b	-5.0246634
53	0xbecb9ffe	-0.39770502
54	0x3fe77aba	1.8084328
55	0x3f2137fe	0.6297606
56	0x3fb90f71	1.4457837
57	0x409793ad	4.736777
58	0xbc8def86	-0.017326128
59	0xbec0a578	-0.37626243
60	0xc05a4883	-3.4106758
61	0x3f4794e6	0.77961576
62	0x3f2bc8ce	0.6710328
63	0xbf9f03c3	-1.2423023
64	0x407e4794	3.9731188
65	0xbf8eedf7	-1.1166371
66	0xc157450f	-13.45436
67	0xc02d828a	-2.7110925
68	0x3fbf70d2	1.4956305
69	0xc077e5c0	-3.8733978
70	0x4014baba	2.323897
71	0xc04d0cd6	-3.2039084
72	0x3f20b25d	0.6277216
73	0xbfc89923	-1.5671734
74	0xc06bd572	-3.6849027
75	0xbe160adc	-0.1465258
76	0x3e9ee5dd	0.31034747
77	0xbe5ec8ac	-0.21756238
78	0xbdc7e0ab	-0.09759649
79	0x3f4be5f4	0.79647756
80	0x4024baed	2.573909
81	0x41dc19e0	27.512634
82	0xbf927385	-1.1441504
83	0xc01e0dcc	-2.469592
84	0x401fd5a9	2.4974158
85	0xbf05f182	-0.52321637
86	0xc05387f4	-3.305173
87	0x40079f8e	2.1191134
88	0xbf5eabfd	-0.86981183
89	0x3f6bee45	0.92160445
90	0x3f2fb3cb	0.6863372
91	0x3f6c1fe1	0.92236143
92	0xbe97a18d	-0.2961544
93	0x3eb3e619	0.35136488
94	0x3f92cf0e	1.1469438
95	0x4107b2db	8.481166

bias_hh_l0 f4 [96]
0	0x3ea71465	0.32632747
1	0x3f9bd4d3	1.2174324
2	0x3ff48689	1.9103557
3	0xbdb9a87c	-0.09065339
4	0x3f28bdf1	0.6591483
5	0x3de34901	0.11097909
6	0xbedc7c2f	-0.43063495
7	0x3f06c1b6	0.5263933
8	0x3db9ac28	0.09066039
9	0x3fa8200e	1.3134782
10	0x3ffcb566	1.9742858
11	0xbf9beee2	-1.2182276
12	0xbed91dea	-0.42405635
13	0x3e9436ea	0.28948146
14	0xbf00d767	-0.5032868
15	0xbf6dc652	-0.9288074
16	0xbf921751	-1.1413366
17	0x3f48fb09	0.7850805
18	0x3ec23072	0.37927586
19	0xbf03a8e8	-0.51429605
20	0x3f353254	0.7077992
21	0x3e04fdaf	0.12987398
22	0x3f4ac7f6	0.79211366
23	0x3f93a03e	1.1533277
24	0x3f20aac0	0.62760544
25	0xbe649dac	-0.22325772
26	0x3f96b0a3	1.1772655
27	0xbf86c274	-1.0528092
28	0x3f8d4888	1.103776
29	0x3e991a48	0.29902864
30	0x400de92b	2.2173564
31	0x3f99567e	1.197952
32	0x3f805f7f	1.0029143
33	0x405c709d	3.4443734
34	0x4083637f	4.1058955
35	0xbf52c68d	-0.82334214
36	0xc0bb5c95	-5.8550515
37	0xc00651c9	-2.0987418
38	0xc01df5b5	-2.4681218
39	0xc020e0ef	-2.5137289
40	0x402eb43a	2.7297502
41	0x402b3af3	2.675473
42	0xc023e621	-2.560921
43	0x407767cb	3.86571
44	0x40a7072e	5.2196264
45	0x401eb466	2.4797606
46	0x408415b7	4.1276507
47	0xc011af0c	-2.276309
48	0xbf46d554	-0.7766926
49	0x402123ba	2.5178056
50	0x40968cd1	4.7046895
51	0x3f525c84	0.8217242
52	0xc0a0f2f9	-5.0296597
53	0xbec6e1a8	-0.38844037
54	0x3fe70798	1.8049192
55	0x3f488654	0.7832997
56	0x3fc615da	1.5475419
57	0x408e7615	4.4519143
58	0xb9ee062f	-0.00045399505
59	0xbe359805	-0.17733772
60	0xc0697a8a	-3.6481042
61	0x3f42558a	0.7591177
62	0x3f2506dd	0.644636
63	0xbfaff90d	-1.3747879
64	0x3fb6f285	1.4292761
65	0xbf8b78ae	-1.0896204
66	0xc1563e76	-13.390249
67	0xbf1a96a6	-0.6038612
68	0xbf599030	-0.8498564
69	0xbfe930dc	-1.8218036
70	0xbfb91788	-1.4460306
71	0xbfcac675	-1.5841814
72	0xbf49a793	-0.7877132
73	0xbf1cdc33	-0.612735
74	0xc0529f65	-3.2909787
75	0x3f040370	0.51567745
76	0x3f24f409	0.6443487
77	0x3f79c98c	0.9757316
78	0xbee7f716	-0.453057
79	0xbf2da6e2	-0.6783277
80	0x3fee7f34	1.8632569
81	0x41e48003	28.562506
82	0xbfff511b	-1.9946626
83	0x3f3959a2	0.72402394
84	0x3ff4c07b	1.912124
85	0xbf7ba8b2	-0.98304284
86	0xbffcd78d	-1.9753281
87	0x3eb00696	0.34380025
88	0xbf4b9a84	-0.7953265
89	0x3f2a3076	0.66480196
90	0xbdccb22b	-0.0999492
91	0x3ec716d2	0.38884598
92	0x3eb8d2a4	0.36098206
93	0x3f9a4d46	1.2054832
94	0x406afe66	3.6717772
95	0x410cfb27	8.8113165

weight f4 [10, 32]
0	0x3f707528	0.93928766
1	0x4002f3a0	2.0461197
2	0x4040c802	3.0122075
3	0x3f6ddc8f	0.9291467
4	0xbc844847	-0.016147746
5	0x3eb13290	0.3460889
6	0xbed79686	-0.42107028
7	0x3d85c74f	0.06532156
8	0x3f8f467f	1.1193389
9	0x40890b9c	4.282667
10	0x3d406650	0.046972573
11	0x3e920880	0.2852211
12	0xbed438ad	-0.4144949
13	0x3f0cbab4	0.54972386
14	0xc09c4f5d	-4.884688
15	0x3e226bab	0.15861385
16	0x3f1adf89	0.6049734
17	0x3e16e6af	0.14736436
18	0x3f9b5544	1.2135396
19	0x3e7909d6	0.24320158
20	0xbea444a2	-0.32083613
21	0x3f72e825	0.94885474
22	0x3f572405	0.84039336
23	0xbdff549f	-0.12467312
24	0xbfae1f70	-1.3603344
25	0x3f907d75	1.1288286
26	0xbf3f0100	-0.746109
27	0x3f1dde73	0.61667556
28	0x40236a00	2.5533447
29	0x3fb56aa8	1.4173174
30	0x3ed9915d	0.42493716
31	0x3e5c46b3	0.21511345
32	0x3f49e316	0.7886213
33	0xbfca3dbf	-1.5800093
34	0xc038c479	-2.8869917
35	0x3e51db7c	0.20493883
36	0x3f291cc4	0.6605952
37	0xbf17e4a2	-0.5933324
38	0x3bef0925	0.0072947913
39	0x3e524841	0.20535375
40	0xbed2911d	-0.41126338
41	0xbf645c6a	-0.8920351
42	0x3e264f1d	0.16241117
43	0xbf75593d	-0.9583929
44	0xc07bbcba	-3.933394
45	0xbec460a1	-0.38354972
46	0xbf9f808c	-1.2461104
47	0xbdc94c88	-0.0982905
48	0xbf08f80d	-0.53503495
49	0xbe50b81d	-0.20382734
50	0x40169d63	2.3533561
51	0xbf5d3f55	-0.8642476
52	0x3efb7ef5	0.49120298
53	0x3f8561ab	1.0420431
54	0xbf989f52	-1.1923621
55	0xbf244448	-0.6416669
56	0x3ff7f855	1.937266
57	0x3f089a2f	0.53360265
58	0x3ef647fc	0.48101795
59	0x3d07a2bf	0.03311419
60	0x3ea61539	0.32438067
61	0x3dfeb0af	0.124360435
62	0x3ca2693d	0.019825572
63	0x3ed34f5f	0.41271493
64	0xbf878ba1	-1.0589486
65	0xbebc69d9	-0.36799505
66	0x3f1981a3	0.59963435
67	0x3ec02a04	0.37532055
68	0x3c3f0d6c	0.011660915
69	0xbea6f42e	-0.3260817
70	0x3da719c7	0.081592135
71	0x3eed8cce	0.46396488
72	0x3f6dfb3f	0.92961496
73	0xbe4c42ed	-0.19947405
74	0x3f113f19	0.56736904
75	0xbf2e6513	-0.68122977
76	0xc054fe1a	-3.3280091
77	0x3e8c6a9d	0.2742509
78	0x4059037b	3.3908374
79	0x3ead8aef	0.3389506
80	0x3df3b24c	0.11899242
81	0x3f04c7f2	0.5186759
82	0xc006fbe4	-2.1091242
83	0xbdee504c	-0.11636409
84	0xbe9a5078	-0.30139518
85	0x3f89781e	1.0739782
86	0xbee16aaf	-0.44026706
87	0x3ea8073f	0.32818028
88	0x3ecb2a81	0.39680865
89	0x3e06b039	0.13153161
90	0x3f27c720	0.65538216
91	0x3f650504	0.8946078
92	0xbf075229	-0.5285974
93	0xbe60a3e4	-0.2193752
94	0xbf5e86e3	-0.8692457
95	0xbe2d39b9	-0.1691655
96	0x3e20d227	0.15705167
97	0xbfc6112a	-1.5473988
98	0x3e146506	0.14491662
99	0x3ed61a98	0.41817164
100	0xbd8d4f31	-0.0689987
101	0x3f2b10a2	0.66822255
102	0xbf074a91	-0.52848154
103	0x3efe2c84	0.49643338
104	0x3e1bdb93	0.1522048
105	0xbfcb7dd7	-1.5897778
106	0x3e9c057c	0.30472934
107	0x3f4a20a4	0.78956056
108	0xc018bcec	-2.3865309
109	0x3dc342f6	0.09534256
110	0x40813ace	4.0384283
111	0xbdee92ad	-0.1164907
112	0x3efda353	0.4953867
113	0xbd9e9359	-0.07742948
114	0xbf7bb78f	-0.98326963
115	0x3faacc56	1.3343608
116	0xbea6541a	-0.3248604
117	0xbf2c4494	-0.6729214
118	0xbefd8131	-0.49512628
119	0x3e981318	0.29702067
120	0xbed6b75e	-0.41936773
121	0xbee18b23	-0.44051465
122	0x3e25536a	0.16145101
123	0xbf0f970c	-0.56089854
124	0xbf4b1060	-0.7932186
125	0x3f4c3f18	0.79783773
126	0xbdac2ba5	-0.08406762
127	0xbdbd6886	-0.09248452
128	0xbec4c7b1	-0.38433602
129	0x3f9f0cc0	1.2425766
130	0xc09b12c9	-4.846043
131	0xbe02975f	-0.12753056
132	0x3d17c167	0.037049677
133	0x3e4cb029	0.19989075
134	0x3f83cb7d	1.0296475
135	0x3d313bae	0.043269806
136	0x3fb55cb7	1.4168919
137	0x3f439657	0.76401275
138	0xbecd48bb	-0.4009455
139	0x3d9dd926	0.077074334
140	0x404184c4	3.0237284
141	0xbf46aa00	-0.7760315
142	0xbf1c43c7	-0.6104092
143	0x3e25045c	0.16114944
144	0xbe043a7a	-0.12912932
145	0xbea9d78a	-0.33172256
146	0xc0167587	-2.3509233
147	0xbf1e5f80	-0.6186447
148	0x3f2556a6	0.6458534
149	0xbea6ffe5	-0.32617107
150	0x3f2e0261	0.6797238
151	0xbee3d6b7	-0.44499752
152	0xbf101e76	-0.5629648
153	0xbeaf57cd	-0.34246674
154	0xbe9ac7b9	-0.302305
155	0xbf0e2001	-0.55517584
156	0x3cb3197a	0.021862734
157	0xbffeee74	-1.991652
158	0xbeacb745	-0.33733574
159	0xbda5fa01	-0.08104325
160	0xbf717772	-0.94322884
161	0x3f41eeda	0.75755084
162	0x3fdcc5d6	1.7247875
163	0xbda9fae0	-0.08299804
164	0xbec797b7	-0.38982937
165	0x3e7718e7	0.24130593
166	0xbec4182b	-0.3829969
167	0xbe66d32c	-0.22541493
168	0xc05a5fb0	-3.4120903
169	0xc01eea71	-2.4830592
170	0x3edd87eb	0.4326776
171	0x3f97a7e0	1.1848106
172	0x401f2793	2.4867904
173	0x3cfaff01	0.030639173
174	0x4039d750	2.9037666
175	0xbe998df2	-0.29991108
176	0xbf81bcd3	-1.013575
177	0xbd38add6	-0.045087658
178	0x3f39251f	0.7232227
179	0x4001045d	2.0158913
180	0x3d0d06b4	0.03443022
181	0xbe9252a5	-0.28578678
182	0xbf0d15c0	-0.5511131
183	0x3f318d02	0.69355786
184	0xbf8223c4	-1.0167165
185	0xbf0e45e0	-0.5557537
186	0xbf4ba797	-0.79552597
187	0x3e3355b4	0.17513162
188	0xbf804c4f	-1.0023288
189	0x3ec974ca	0.39346915
190	0x3d7ea5c6	0.062169813
191	0xbf547012	-0.82983506
192	0x3f177c74	0.59174275
193	0x3e4cd322	0.20002416
194	0xbfbbb3e1	-1.466427
195	0x3e98d5be	0.29850572
196	0xbe4d99b0	-0.20078158
197	0xbe642408	-0.2227937
198	0x3deb293c	0.11482474
199	0xbeaabce6	-0.33347243
200	0xc020d2fd	-2.5128777
201	0x3ecfd107	0.40589163
202	0x3ec4dffa	0.3845213
203	0xbe11928c	-0.1421606
204	0x4023c763	2.5590446
205	0x3e2a4fbc	0.16631979
206	0xc094004d	-4.6250367
207	0xbe8a7a45	-0.2704641
208	0xbef79b94	-0.48360884
209	0x3dba7da8	0.09105998
210	0xbfeb95ba	-1.8405068
211	0xbf95595c	-1.1667895
212	0x3e119354	0.14216357
213	0x400456a6	2.0677886
214	0x3f505b64	0.8138945
215	0x3e9b82aa	0.30373126
216	0x3f3e61b0	0.7436781
217	0xbf1553bf	-0.5833091
218	0x3e564963	0.20926432
219	0x3fe538af	1.7907923
220	0x3f076186	0.52883184
221	0x3f22676e	0.6343907
222	0xbdd7071e	-0.10499404
223	0x3e09a6e2	0.13442567
224	0xbf51b424	-0.819155
225	0xbebc2156	-0.36744183
226	0x3d263761	0.040580157
227	0xbf888dd1	-1.0668279
228	0xbe019a23	-0.12656455
229	0xbed7e0d7	-0.42163727
230	0xbea39ecc	-0.3195709
231	0xbf4d0a40	-0.80093765
232	0x3fd4ac12	1.6615012
233	0x3f170b40	0.5900154
234	0xbe76af3a	-0.24090281
235	0xbf057156	-0.5212606
236	0xc080cb49	-4.024815
237	0xbf587e73	-0.84567946
238	0x407830dc	3.8779821
239	0x3dcacbb5	0.09902135
240	0x3f03b802	0.5145265
241	0xbdcdf293	-0.10056033
242	0x3f87e096	1.0615413
243	0x3ebb0dcf	0.36533973
244	0xbe745882	-0.23861888
245	0xbfe52de3	-1.7904629
246	0xbf37b3f8	-0.71758986
247	0xbe9ee1af	-0.31031558
248	0xbea3c0ba	-0.31982976
249	0xbf8bd10d	-1.0923172
250	0xbed51dc7	-0.4162428
251	0xbfa92f08	-1.3217478
252	0xbf15a4c0	-0.58454514
253	0xbfc3de1d	-1.5302159
254	0xbf240c02	-0.6408082
255	0x3ecf7da9	0.4052556

bias f4 [10]
0	0xbf3d6f51	-0.7399798
1	0x3ec06aa1	0.3758135
2	0xbf1534c2	-0.5828363
3	0xbf92239d	-1.1417118
4	0x3f2f1f55	0.68407184
5	0x3f26b8c0	0.65125656
6	0xbf99983d	-1.1999584
7	0x40020380	2.0314636
8	0xbe09b6af	-0.13448595
9	0x3ebb4760	0.36577892
