model/new/32_gru.model (torch_old, 35663 bytes, 6 tensors)

weight_ih_l0 f4 [96, 28]
0	0xbe6bfea5	-0.23046358
1	0xbeca45a4	-0.39506257
2	0xbea5a463	-0.3235198
3	0xbdfee5f4	-0.12446204
4	0xbe97f453	-0.29678592
5	0xbd3ea277	-0.046541657
6	0x3e3463f0	0.17616248
7	0x3f048519	0.5176559
8	0x3eb38c9d	0.35068217
9	0x3f170f95	0.5900815
10	0x3fab1de9	1.3368503
11	0x3fd535ed	1.6657082
12	0x3f5a49ab	0.8526866
13	0xbec09e5d	-0.37620822
14	0x3e7da5c0	0.2477026
15	0xbe43d7fe	-0.19125363
16	0x3ec4e763	0.38457784
17	0x3fab750a	1.3395092
18	0x3fbacb87	1.4593362
19	0x3ee1ec5a	0.44125634
20	0x3e834b37	0.25643322
21	0x3e37ad95	0.1793731
22	0x3c8f9e81	0.017531635
23	0xbef50b39	-0.47860125
24	0xbf0346c7	-0.5127987
25	0xbf22b8fc	-0.63563514
26	0xbee11443	-0.4396077
27	0xbe5fbd7e	-0.2184963
28	0xbe405bbb	-0.18784992
29	0x3dc451e4	0.09585932
30	0x3daf9eb1	0.0857519
31	0xbbc0de98	-0.0058859102
32	0xbda2bbd5	-0.07945982
33	0xbf1832a9	-0.594523
34	0xbeb78cbb	-0.35849556
35	0xbf4a17e9	-0.78942734
36	0xbf3b473d	-0.73155576
37	0xbe16ba61	-0.14719535
38	0xbe6e786e	-0.23288128
39	0xbfa453c0	-1.2838058
40	0xbf37ca94	-0.71793485
41	0xbf956ac1	-1.1673204
42	0xbf822934	-1.0168824
43	0xbf747b6e	-0.9550084
44	0xbee1a855	-0.4407374
45	0xbf095138	-0.53639555
46	0xbf531212	-0.8244945
47	0xbed6bb25	-0.41939655
48	0xbe63b44d	-0.22236748
49	0xbf2334cc	-0.63752437
50	0xbeec3763	-0.46136007
51	0x3e6f17bf	0.23348902
52	0x3f23a4c8	0.6392331
53	0x3e180928	0.14847243
54	0x3d9ad295	0.075596966
55	0x3dddb0a5	0.10824708
56	0xbea06cc8	-0.31332994
57	0xbec606f1	-0.3867717
58	0xbe0b3453	-0.13594179
59	0xbe998262	-0.29982287
60	0xbf1b0293	-0.605508
61	0xbf3a0488	-0.72663164
62	0xbf31cea1	-0.69455916
63	0xbec598a2	-0.38593012
64	0x3e7e7356	0.24848685
65	0x3f639267	0.8889527
66	0x3e9504f5	0.29105344
67	0xbf19597f	-0.59902185
68	0xbf94afbb	-1.1616129
69	0xbf8b10a9	-1.0864459
70	0xbe3c2af4	-0.1837576
71	0x3c113beb	0.008864383
72	0xbe15cc97	-0.14628826
73	0x3f00a497	0.50251144
74	0xbe7bc220	-0.24585772
75	0xbe9924fa	-0.29911023
76	0x3e1feb07	0.15617
77	0x3f41738b	0.7556693
78	0x3eef2ad2	0.46712357
79	0x3de1f44d	0.11032925
80	0xbea62a49	-0.32454136
81	0xbf4c1cfe	-0.7973174
82	0xbf009547	-0.5022778
83	0xbec883ab	-0.39162955
84	0x3e72b47e	0.23701665
85	0x3d180d74	0.037122205
86	0xbca51fff	-0.020156858
87	0x3e81ab9a	0.25326234
88	0x3e57fa8d	0.21091671
89	0x3f20f765	0.62877494
90	0x3f04dffb	0.5190427
91	0x3f07fe35	0.53122264
92	0x3efd4f23	0.4947444
93	0x3f0a1b5d	0.53948003
94	0x3f1fb86c	0.6239078
95	0x3f8257bb	1.0183023
96	0x3fcf9f70	1.6220531
97	0x3f4ca2be	0.79935825
98	0xbe4c0c66	-0.19926605
99	0xbfddb475	-1.7320696
100	0xbfbfcd4a	-1.4984524
101	0xbfc69d38	-1.5516729
102	0xbfd82757	-1.6887006
103	0xbfa4228e	-1.2823045
104	0xbe607261	-0.21918632
105	0x3cc99bec	0.024610482
106	0x3f0e4123	0.5556814
107	0x3e607112	0.21918133
108	0x3eb4cdcf	0.3531327
109	0x3e594d71	0.21220948
110	0x3e42a0c8	0.19006646
111	0x3e888bdb	0.266692
112	0x3cd768c4	0.026295073
113	0xbe887193	-0.2664915
114	0xbdc9cf5f	-0.09854006
115	0x3ec1aee0	0.37828732
116	0x3dd34264	0.103153974
117	0x3f2a9509	0.6663366
118	0x3faa7fb1	1.3320218
119	0x3e003f95	0.12524255
120	0xbe86175d	-0.261897
121	0x3f2ea7b2	0.6822463
122	0x3f8b9163	1.0903744
123	0xbd9e2fe6	-0.0772398
124	0xbdccd579	-0.10001654
125	0xbf9e1f13	-1.2353233
126	0xbf794a7e	-0.9737929
127	0xbed01cdd	-0.4064702
128	0x3fc67882	1.5505526
129	0x3ed1ccea	0.4097665
130	0x3f414173	0.7549049
131	0x4018d76a	2.3881478
132	0x40399916	2.8999686
133	0x4016e37f	2.3576353
134	0x3fa92047	1.3212975
135	0x3f219932	0.6312438
136	0xbc87f2aa	-0.016595203
137	0xbd34696d	-0.044045854
138	0xbe5869e8	-0.2113415
139	0xbe923ee0	-0.28563595
140	0xbeb2179d	-0.3478364
141	0xbe948d2c	-0.29013956
142	0xbec71516	-0.38883275
143	0xbd5b5a80	-0.053553104
144	0xbe34936c	-0.17634362
145	0xbf07dab1	-0.5306807
146	0x3f77a9ac	0.96743274
147	0xbd259d34	-0.040433124
148	0xc012f8de	-2.2964396
149	0xbf9e8419	-1.2384063
150	0xbf11bcd0	-0.5692873
151	0xbfe59824	-1.7937055
152	0xc08fab1e	-4.4896383
153	0xc0129cdf	-2.2908247
154	0x3e3f891e	0.1870465
155	0xbf3dee06	-0.7419132
156	0xbfc87a41	-1.5662309
157	0xbf6b26c2	-0.91856015
158	0x3f7b9a13	0.98281974
159	0x40643cd3	3.5662124
160	0x4016f6fe	2.3588252
161	0x4011c22a	2.2774758
162	0x402b50b3	2.6768005
163	0x400b392a	2.175364
164	0x3cc79950	0.024365097
165	0xbe2a39d3	-0.1662362
166	0xbe8e1f3c	-0.27758205
167	0xbe8b2a61	-0.2718077
168	0xbea53afa	-0.32271558
169	0xbe8fe1f7	-0.28102085
170	0xbeada939	-0.3391817
171	0xbefdbea0	-0.49559498
172	0xbf323682	-0.6961442
173	0xbe68ab7f	-0.2272167
174	0x3f247f01	0.6425629
175	0x3f56a2dd	0.8384226
176	0x3ee8cbf4	0.45468104
177	0x3e97a7d0	0.29620218
178	0x3d0ef35f	0.034900066
179	0x3eaf23ec	0.34207094
180	0x3e835c04	0.2565614
181	0x3e3d3636	0.18477711
182	0xbe62bb84	-0.22141844
183	0xbebf4895	-0.37360063
184	0xbe936d74	-0.28794444
185	0x3da46362	0.08026768
186	0x3eb58dde	0.354598
187	0x3f0ff527	0.5623345
188	0x3f4e5b3d	0.8060797
189	0x3f5428b1	0.8287459
190	0x3f5e3ed8	0.8681464
191	0x3f646cf3	0.89228743
192	0x3f470e9a	0.77756655
193	0x3cea6a7d	0.02861523
194	0xbc703a59	-0.014662349
195	0xbe9c4a12	-0.3052526
196	0x3f821c91	1.0164968
197	0x3f8ca8b5	1.0988985
198	0x3f92b3a9	1.1461078
199	0x3f7361df	0.95071214
200	0x3f8ed4b0	1.1158657
201	0x3f4ecd76	0.8078226
202	0x3f57ebe1	0.843443
203	0x3eec1ba0	0.46114826
204	0x3f305b15	0.6888898
205	0x3f6c763c	0.9236791
206	0x3f7c99f9	0.98672444
207	0xc02b2fe1	-2.6747973
208	0xbfe0a45b	-1.7550157
209	0x3fedfaa9	1.859212
210	0x401601e8	2.3438663
211	0xbfb150a6	-1.3852737
212	0xc00ba095	-2.1816761
213	0xbf4bd3b5	-0.79619914
214	0xbf9769a7	-1.1829118
215	0xbeb1479b	-0.34624943
216	0x3dea1369	0.114294834
217	0xbda05afd	-0.07829855
218	0x3f74f3a7	0.95684284
219	0x3fe0eee5	1.7572905
220	0x3fa21a6f	1.2664317
221	0x3f96ef0f	1.1791705
222	0x3f3a18a1	0.7269383
223	0x3f49c604	0.7881777
224	0x3ddc1b1d	0.10747359
225	0xbdda33a8	-0.10654384
226	0xbca56801	-0.020191194
227	0x3e010f43	0.12603478
228	0x3edbda48	0.42939973
229	0xbf4264a7	-0.75934833
230	0xbf8f35fd	-1.1188351
231	0xbead5ab7	-0.33858272
232	0xbe318442	-0.17335609
233	0xbd77ac9d	-0.06046735
234	0x3f23520a	0.63797057
235	0x3f9223e0	1.1417198
236	0x3cd55b59	0.026044535
237	0x3f2004d3	0.6250736
238	0x3fd31b1f	1.6492652
239	0x3f9ecd2c	1.2406363
240	0x3f1fe1e1	0.6245404
241	0x3f0aee30	0.54269695
242	0x3e09dc12	0.13462856
243	0x3e3a7dea	0.18212095
244	0xbdab7664	-0.083721906
245	0xbf76202f	-0.9614286
246	0xbfaacc0b	-1.3343519
247	0xbf59cb43	-0.8507578
248	0xbf56011d	-0.8359545
249	0xbe856354	-0.26052344
250	0xbf00890e	-0.5020913
251	0xbdbcd386	-0.092200324
252	0xbe66e1c1	-0.22547056
253	0xbd8a12e7	-0.067418866
254	0xbddc8e03	-0.10769274
255	0xbe99dc32	-0.30050808

weight_hh_l0 f4 [96, 32]
0	0x3f7b854b	0.98250264
1	0x3d5a5cce	0.05331116
2	0xbdc3d41b	-0.0956194
3	0x3eacf138	0.33777785
4	0xbead7e52	-0.33885437
5	0xbf661195	-0.8987058
6	0xbe2ef7b1	-0.17086674
7	0xbf0cf0c2	-0.5505487
8	0x3fd3bca3	1.6541942
9	0x3fa08240	1.2539749
10	0xbf3c5d8b	-0.73580235
11	0x3f075632	0.528659
12	0x3d2d2281	0.042269234
13	0xbf7cb9d2	-0.9872104
14	0x3dc5dffb	0.096618615
15	0xbf05a3bf	-0.5220298
16	0xbedf2f72	-0.43590885
17	0x3fba6d70	1.4564648
18	0x3f24d02e	0.64380157
19	0xbe81a984	-0.25324643
20	0x3e9c5477	0.30533192
21	0x3f1b7d78	0.60738325
22	0xbd821810	-0.06352246
23	0x3eafac78	0.3431127
24	0x3f0503f2	0.51959145
25	0x3eca151b	0.39469227
26	0x3d74eca5	0.059795994
27	0xbcdf1962	-0.027233783
28	0x3e677540	0.22603321
29	0x3e3d7986	0.18503389
30	0xbd99b31a	-0.07504864
31	0xbd0c2a03	-0.034219753
32	0x3ec45b52	0.38350922
33	0xbeb7177c	-0.35760105
34	0x3e1ed4ba	0.15510836
35	0xbf05ce5f	-0.5226802
36	0xbdbdeaa3	-0.09273269
37	0x3e01e837	0.12686239
38	0x3f07c4ad	0.5303448
39	0x3ddc8212	0.107669964
40	0xbef9661b	-0.48710713
41	0xbe9d7e58	-0.30760455
42	0x3ecc38a1	0.39886954
43	0xbe0ddeef	-0.13854574
44	0x3e312305	0.17298515
45	0xbea282a9	-0.3174031
46	0xbef1faf4	-0.47261775
47	0xbe981514	-0.2970358
48	0x3d97bcc0	0.07409048
49	0x3db290de	0.087190375
50	0xbed6c868	-0.41949773
51	0x3f305daa	0.6889292
52	0x3d1e0114	0.038575247
53	0x3efd1d0a	0.49436218
54	0xbd635877	-0.05550429
55	0xbebbb82f	-0.36663958
56	0xbe65e33f	-0.22449969
57	0x3df12c4d	0.11776028
58	0x3eafe7ae	0.34356445
59	0x3eeaf47e	0.45889658
60	0x3f1fe6a0	0.6246128
61	0xbf1b1884	-0.6058428
62	0xbc633876	-0.013868442
63	0x3e67365b	0.22579329
64	0x3ecbed0c	0.3982929
65	0xbec66769	-0.3875077
66	0x3f976599	1.182788
67	0xbfa5d05b	-1.295421
68	0xbe043e9b	-0.12914507
69	0x3f8a6570	1.0812206
70	0xbde8d2f0	-0.11368358
71	0xbef33b19	-0.47506025
72	0xbe9dda9d	-0.3083085
73	0xbdb42eac	-0.087979645
74	0xbc92994e	-0.017895367
75	0xbd980b31	-0.074240096
76	0x3f159153	0.5842487
77	0x3f49172d	0.7855099
78	0xbde07f6f	-0.10961806
79	0xbf739580	-0.95149994
80	0x3e5f38d1	0.21799017
81	0x3e0c3e79	0.13695706
82	0x3e85c843	0.2612935
83	0xbf9e85e7	-1.2384614
84	0xbe28aee9	-0.16472973
85	0xbfe34488	-1.7755289
86	0xbf180cb0	-0.5939436
87	0x3eeced12	0.4627462
88	0xbf0ffa62	-0.5624143
89	0xbfb4be93	-1.4120659
90	0xbf52e2fa	-0.8237759
91	0x3ea8550a	0.3287738
92	0xbd81a884	-0.0633097
93	0x3f1bda52	0.60880005
94	0xbe541bf2	-0.20713785
95	0x3f3c9efb	0.73680085
96	0x3e2d15ec	0.16902894
97	0xbe40247a	-0.18763915
98	0xbebb6608	-0.3660128
99	0xbfc7be5e	-1.560497
100	0xbf4524ae	-0.77009094
101	0xc005eeeb	-2.0927074
102	0x3f17b822	0.5926534
103	0xc01456b1	-2.3177912
104	0xbf7ef39d	-0.99590474
105	0x3f4bcdc6	0.7961086
106	0xbf268f59	-0.6506248
107	0xbf8d82ee	-1.1055582
108	0xbe62ee5a	-0.22161236
109	0x3f0143e8	0.5049424
110	0xbf0f2e98	-0.5593047
111	0xbe552755	-0.20815785
112	0x3f0bc745	0.54600936
113	0xbf682c56	-0.9069265
114	0x3d40fe85	0.04711773
115	0x3f09b1ae	0.5378674
116	0xbfb8003e	-1.4375074
117	0x3fa1fd84	1.2655492
118	0xbea98623	-0.3311015
119	0x3ea26528	0.317178
120	0x3f3f3ac6	0.74699056
121	0xbe2e5d34	-0.17027742
122	0x3bd5d626	0.0065257726
123	0xbf5770ec	-0.8415668
124	0x3e9d6b6a	0.30746013
125	0x3ea48882	0.32135397
126	0xbed1b1f9	-0.40956095
127	0xbea8cfbc	-0.3297099
128	0x3ecd41df	0.40089318
129	0xbf1e1643	-0.6175272
130	0xbe74c8ee	-0.23904774
131	0xbf710adc	-0.94157195
132	0xbf0d08fd	-0.5509184
133	0x3f64a253	0.8931019
134	0x3c5390e4	0.012912963
135	0xbf08ade4	-0.53390336
136	0xbf5af4d8	-0.8552985
137	0x3fe4cf19	1.7875701
138	0x3f282d9c	0.65694594
139	0x3f471dbe	0.7777976
140	0xbe93248b	-0.28738818
141	0x3e7d46c1	0.24734022
142	0x3f797604	0.974457
143	0xc0024423	-2.0354087
144	0x3fa5a468	1.2940798
145	0xbeef501f	-0.46740815
146	0x3ea3900b	0.31945834
147	0xbf813092	-1.0092947
148	0x3d9d3b47	0.07677322
149	0xbfa03c7a	-1.2518456
150	0xbf190bea	-0.59783804
151	0x3e048077	0.1293963
152	0xbe8fc06a	-0.28076488
153	0xbe6e79ae	-0.23288605
154	0x3e19515e	0.14972445
155	0xbb40e069	-0.0029430634
156	0x3d443080	0.047897816
157	0x3f584854	0.84485364
158	0xbfc3244f	-1.5245456
159	0x3f590a61	0.8478146
160	0xbe8a29d4	-0.26985037
161	0x3e2c2a47	0.16813003
162	0x3fb7fc81	1.4373933
163	0x40268edf	2.6024702
164	0x402fbd2a	2.7459207
165	0x3f1d3baf	0.61419195
166	0xbf5528f4	-0.83265615
167	0x4083e05e	4.1211386
168	0x3f2c6f26	0.673571
169	0x3fc9aa70	1.5755138
170	0xbf83698c	-1.0266585
171	0x4043e01a	3.060553
172	0xbf0b7089	-0.5446859
173	0xc03a312e	-2.9092517
174	0xbf89ea29	-1.0774585
175	0x3fab1cab	1.3368124
176	0xbf800cb5	-1.0003878
177	0x3fd1f2ea	1.6402256
178	0x3fba6871	1.4563123
179	0x3f8b7185	1.0894018
180	0xbf57d6c5	-0.8431209
181	0xbf1d8751	-0.615346
182	0xbe38c34f	-0.18043254
183	0x3f1819c8	0.5941434
184	0x4017658d	2.3655732
185	0x3f7d950b	0.99055547
186	0xbf882e69	-1.0639163
187	0x404929a9	3.1431677
188	0xbf3098ee	-0.6898335
189	0x3f36695d	0.7125452
190	0xbc07d718	-0.008291028
191	0xbf671788	-0.9027028
192	0xbf45ea76	-0.77310884
193	0xbe0b1a90	-0.13584352
194	0xbe915fba	-0.28393346
195	0xbf41efb3	-0.75756377
196	0xbec45357	-0.38344833
197	0xbe0ae4cb	-0.1356384
198	0x3e53edd5	0.20696194
199	0xbf2aab92	-0.66668046
200	0x3f679ded	0.9047535
201	0xbea6f5c8	-0.3260939
202	0xbf342a6c	-0.7037723
203	0xbd928462	-0.07154156
204	0x3d8383cf	0.06421625
205	0xbf4c2dd1	-0.7975741
206	0xbeb24fcd	-0.34826508
207	0xbe985d61	-0.29758742
208	0x3eb34d06	0.35019702
209	0x3f1751b6	0.59109056
210	0x3eaf57e8	0.34246755
211	0xbf3b78a2	-0.73230946
212	0x3f056af5	0.5211633
213	0x3f618e0c	0.8810737
214	0x3d2a6120	0.041596532
215	0xbee14f2c	-0.44005716
216	0x3eff6ba9	0.49886826
217	0xbd542650	-0.05179435
218	0x3eebfcbf	0.46091267
219	0x3e7e37f7	0.24826036
220	0xbe5ea5a4	-0.21742874
221	0x3f933e67	1.1503419
222	0x3e6a50b1	0.22882344
223	0xbd9322ad	-0.07184348
224	0xbff9d4c6	-1.9518058
225	0x3d2e52a0	0.042559266
226	0x3f620207	0.88284343
227	0x3f8d916d	1.1060005
228	0x3fbfc12c	1.4980826
229	0x40042778	2.064909
230	0xbebd7082	-0.369999
231	0x3f4bfcdf	0.79682726
232	0xbfb94e8c	-1.4477096
233	0x3f51223e	0.81692874
234	0x3e0c9cea	0.13731733
235	0x3f22eb2a	0.6364008
236	0x3de68ef4	0.11257735
237	0xbf7820b6	-0.9692491
238	0x3d94305c	0.07235786
239	0x3ebc05aa	0.3672307
240	0x3f89525f	1.0728263
241	0xbf809f42	-1.0048602
242	0xbf63095e	-0.8868617
243	0x3f8cf8de	1.1013448
244	0x3ac487de	0.0014994105
245	0xbfbca354	-1.4737344
246	0x3f206128	0.6264825
247	0x3eec1582	0.4611016
248	0x3e26ed87	0.16301547
249	0x3f56c8fb	0.8390042
250	0x3e90c8a5	0.2827808
251	0x3d7fc415	0.062442858
252	0xbe84cd19	-0.25937727
253	0x3f93a345	1.1534201
254	0xbf8abacb	-1.0838255
255	0x3fd54db6	1.666434

bias_ih_l0 f4 [96]
0	0x3f3891b2	0.72097313
1	0x3dbd8e57	0.09255665
2	0x3f3ef7e5	0.7459701
3	0xbe8b499c	-0.27204597
4	0x3eef981d	0.4679574
5	0x3f083185	0.5320056
6	0x3ed36ca2	0.41293818
7	0xc0032543	-2.0491493
8	0xbd887c41	-0.066643246
9	0x3f0e313f	0.55543894
10	0x3e4ea8b6	0.20181546
11	0x3ec65dd6	0.38743466
12	0xbeeb3227	-0.459367
13	0x3fe1f0e4	1.7651639
14	0xbeb6acaf	-0.35678622
15	0x3faf30fd	1.3686825
16	0x3fbca415	1.4737574
17	0xbf4ee83e	-0.80823123
18	0x3f5de5af	0.86678594
19	0xbf871cb0	-1.055563
20	0x3f50ae47	0.81515926
21	0xbea8cf28	-0.32970548
22	0x3f5048a4	0.8136084
23	0x3f4ca4ef	0.7993917
24	0xbe8c19cd	-0.27363434
25	0xbfc7420e	-1.5567033
26	0xbf76333f	-0.96171945
27	0x3f472735	0.777942
28	0x3ff0273d	1.8761975
29	0x3fe914e2	1.8209498
30	0x40154d78	2.3328533
31	0x3f68ac2b	0.9088771
32	0x40230b48	2.5475636
33	0x40b436e7	5.631702
34	0x4044fae7	3.0778139
35	0xbfa3d9b3	-1.2800812
36	0xbffb498d	-1.9631821
37	0xbf3d7919	-0.74012905
38	0x40c0d679	6.0261807
39	0xc00b7b16	-2.1793876
40	0x404a1449	3.157488
41	0xbee7c1da	-0.45265085
42	0x4059bebb	3.4022663
43	0xbe1f8424	-0.15577751
44	0x40dfd0c9	6.9942365
45	0xc05d46ec	-3.4574537
46	0x40256e2e	2.5848498
47	0x3ee741f6	0.45167512
48	0x400caf2c	2.1981916
49	0x40af0f32	5.470605
50	0x3fec4412	1.8458273
51	0xbfd0220b	-1.6260389
52	0x3fa32b1d	1.2747532
53	0x3f36351a	0.71174777
54	0x403cd619	2.9505675
55	0x40868b72	4.204522
56	0x3f8de58e	1.108568
57	0x3f8fce75	1.1234881
58	0x3f04f1b7	0.5193133
59	0x3ebc3103	0.36756143
60	0xbabf762a	-0.0014607359
61	0x3f1460f7	0.57960457
62	0xbfb4e7cc	-1.4133239
63	0xbfe38222	-1.7774088
64	0x4052893a	3.2896256
65	0x3ea375fa	0.31925946
66	0xbf83a103	-1.0283512
67	0xc022ade2	-2.541863
68	0x3fdd0779	1.7267905
69	0xc03d6f79	-2.9599288
70	0xbee81685	-0.4532968
71	0xc0a1794a	-5.046056
72	0xbe6c6306	-0.2308465
73	0x3e611212	0.2197955
74	0xbf1026b4	-0.56309056
75	0xbeb95971	-0.3620105
76	0xbec7af34	-0.39000857
77	0x4038f296	2.8898063
78	0x3fca1139	1.5786506
79	0xc09a8b36	-4.8294935
80	0x400bfc82	2.1872869
81	0xbf472c0f	-0.77801603
82	0xc0e6bc97	-7.210521
83	0xbf1417f3	-0.57849044
84	0x3f4625fd	0.77401716
85	0xbe811761	-0.2521315
86	0xc05a32f7	-3.4093606
87	0x3e6eac0a	0.23307815
88	0xc0008f21	-2.008736
89	0xbe512abb	-0.20426457
90	0xbfd71f59	-1.6806442
91	0x3ec3f459	0.3827236
92	0xbf77363a	-0.9656712
93	0x3fc6da43	1.5535358
94	0x40687f99	3.632788
95	0xc06a1fc9	-3.65819

bias_hh_l0 f4 [96]
0	0x3f49a170	0.7876196
1	0x3e270c69	0.16313328
2	0x3f356f23	0.70872706
3	0xbebbd033	-0.3668228
4	0x3ee75183	0.45179376
5	0x3f20fba4	0.62883973
6	0x3ea5e0d5	0.32398096
7	0xc011671d	-2.2719185
8	0x3b2932a1	0.002581753
9	0x3f08d2ff	0.53446954
10	0x3d759d3d	0.059964407
11	0x3edf116c	0.4356798
12	0xbf1cbcdf	-0.61225694
13	0x3fcd8941	1.6057512
14	0xbf166cbe	-0.5875968
15	0x3fc63c1d	1.5487095
16	0x3fba73ca	1.4566586
17	0xbf3e938f	-0.74443907
18	0x3f5aac44	0.85419106
19	0xbf826779	-1.0187827
20	0x3f3ad349	0.72978646
21	0xbe0a11f7	-0.13483416
22	0x3f2d0594	0.67586637
23	0x3f5c107d	0.8596266
24	0xbe4d7caf	-0.20067094
25	0xbfb9d602	-1.4518435
26	0xbf62dff2	-0.88622963
27	0x3f464bd3	0.7745945
28	0x3fd4b4b0	1.6617641
29	0x3fd157e1	1.6354944
30	0x40015896	2.0210319
31	0x3f1ccca2	0.61249745
32	0x4019504f	2.3955266
33	0x40b9c98b	5.8058524
34	0x40458287	3.0860918
35	0xbf94b47c	-1.161758
36	0xbff4ab80	-1.9114838
37	0xbf621e85	-0.8832782
38	0x40bb2dfc	5.8493633
39	0xc014d85f	-2.3257062
40	0x404278d4	3.0386248
41	0xbf0ee7c8	-0.5582242
42	0x405a5f72	3.4120755
43	0xbebc68a5	-0.36798587
44	0x40e2f3f1	7.092278
45	0xc05f2ee9	-3.4872382
46	0x40244ece	2.5673099
47	0x3ecf6f6f	0.40514705
48	0x4005abd2	2.088612
49	0x40a5fdf9	5.1872525
50	0x3fe8f5a5	1.8199965
51	0xbfe06d00	-1.7533264
52	0x3fa2875b	1.2697557
53	0x3f389441	0.7210122
54	0x403c9c8a	2.9470544
55	0x408b7540	4.3580627
56	0x3f9aebf2	1.2103255
57	0x3f56aff9	0.8386226
58	0x3f094374	0.5361855
59	0x3f11054e	0.5664872
60	0xbe749f26	-0.23888835
61	0x3f0f217a	0.55910456
62	0xbfb848d2	-1.4397223
63	0xbff47780	-1.9098969
64	0x3e60d32c	0.21955556
65	0xbe9c7f6a	-0.3056596
66	0xbee71f7c	-0.45141208
67	0xbf64727d	-0.89237195
68	0x3ee829ed	0.45344487
69	0xbfebd1a5	-1.8423353
70	0x3ea74587	0.32670233
71	0xbf9e30fc	-1.2358699
72	0xbfe063a9	-1.7530414
73	0x3e8460d9	0.2585514
74	0x3e9fa12f	0.3117766
75	0xbe34ce2e	-0.17656776
76	0x3d289b1c	0.04116355
77	0x402064c1	2.5061495
78	0xbd6b7843	-0.057487737
79	0xc09a05cf	-4.813209
80	0x3f8bfe5d	1.0937
81	0x3f107523	0.56428736
82	0xc0e1cb21	-7.056046
83	0xc01bb18d	-2.4327118
84	0x400b710b	2.1787746
85	0x3fe8a608	1.8175669
86	0xbfe4d747	-1.7878197
87	0xbee84a37	-0.4536912
88	0xbf2820ea	-0.6567522
89	0xc063c3ee	-3.5588336
90	0x3fcdbdb6	1.607352
91	0x3f2232cb	0.63358754
92	0x3e330988	0.17484105
93	0x3fb6b015	1.4272486
94	0x40a2b858	5.085003
95	0xc048f0ed	-3.139705

weight f4 [10, 32]
0	0x3f0fb16f	0.5613012
1	0x3f13991b	0.57655495
2	0xbf124b9d	-0.57146627
3	0x3ec32428	0.38113523
4	0xbebab703	-0.36467752
5	0x3e8fe0d2	0.28101212
6	0xbeb2c650	-0.34916925
7	0xbf4216cf	-0.75816053
8	0x400d99c3	2.2125099
9	0x3e3cec31	0.18449475
10	0xc00ce12d	-2.2012436
11	0x3ee8baff	0.45455167
12	0xbefebff0	-0.49755812
13	0xbf900546	-1.1251609
14	0x3f32ce45	0.6984599
15	0x3ed90a77	0.42390797
16	0x3f038fab	0.51391095
17	0x3e13a419	0.14418067
18	0xbe81485f	-0.25250527
19	0x3e955e0c	0.29173315
20	0x401f6934	2.490796
21	0x3dd70912	0.10499777
22	0x3ff44b67	1.9085511
23	0xc0006c4a	-2.0066094
24	0xc028ae25	-2.635629
25	0xbe8a306a	-0.26990062
26	0xbe1a8e82	-0.15093425
27	0x3d11490b	0.03547005
28	0x3f7cc592	0.9873897
29	0x3fadab35	1.3567873
30	0xbe16d497	-0.14729534
31	0x3ef941cc	0.48683012
32	0x3f90105f	1.1254996
33	0x4023c592	2.5589337
34	0xbfbb9a38	-1.4656439
35	0x3efea5aa	0.49735767
36	0x3f84b317	1.0367154
37	0xbd941f8a	-0.07232578
38	0x3f5be924	0.8590262
39	0x3f3c7e31	0.7363005
40	0x3da06141	0.0783105
41	0xbcf5998f	-0.029980449
42	0x40286c7e	2.6316218
43	0x3eb16a24	0.3465129
44	0xbe734d8b	-0.23760049
45	0xbecda506	-0.40164965
46	0xbfdc24f6	-1.719878
47	0x3ea8d7e8	0.32977223
48	0xbea2b804	-0.31781018
49	0x3f8976a7	1.0739335
50	0xbeb3836b	-0.350612
51	0x3f977781	1.1833345
52	0x3fa093f7	1.2545155
53	0x3c52f29a	0.0128752235
54	0x3f63732d	0.8884762
55	0x4085c65f	4.180465
56	0x403e40b0	2.9726982
57	0x3b79cc32	0.0038116095
58	0x3ed97b64	0.42476952
59	0x3cb083f0	0.021547288
60	0x3e79cb46	0.24393949
61	0xbe5c4f00	-0.21514511
62	0x3f106f95	0.5642026
63	0xbf25a4b9	-0.6470447
64	0xbe8978b1	-0.26849893
65	0xbfa1c9a9	-1.2639667
66	0x3f9060c1	1.1279527
67	0x3e082022	0.13293508
68	0xbdaf474d	-0.085585214
69	0xbf08848b	-0.53327245
70	0x3e5fb5b3	0.21846657
71	0x3ebd2235	0.3694016
72	0xbf0bf459	-0.5466972
73	0x3f4d3802	0.80163586
74	0x3f2be402	0.6714479
75	0x3ea916f6	0.3302533
76	0x3e62ba36	0.22141346
77	0xbf4ce67b	-0.80039185
78	0x3febcc9e	1.8421819
79	0x3f56e860	0.83948326
80	0xbf290337	-0.6602053
81	0x3eeddc9b	0.4645737
82	0xbe40c8df	-0.18826626
83	0xbf532ee3	-0.8249342
84	0x3f3f85e0	0.7481365
85	0x3d2c843a	0.04211829
86	0xbe97846e	-0.29593223
87	0x402eb5b5	2.7298405
88	0xbef1cee8	-0.4722817
89	0x3f03d7a4	0.51500916
90	0xbce6feb6	-0.028197628
91	0x3f8a4546	1.080239
92	0x3cd3cdce	0.025854971
93	0x3f8ca519	1.0987884
94	0xbef3752c	-0.47550333
95	0xbe7a78f9	-0.2446021
96	0x3e260297	0.16211925
97	0xbf3d8a4f	-0.7403917
98	0x3fe65d4f	1.7997226
99	0xbdd6296b	-0.104571186
100	0xbe036d8d	-0.12834759
101	0x3bdf2849	0.0068102223
102	0xbfc98292	-1.5742972
103	0x3b95f12e	0.00457587
104	0x3efd815a	0.4951275
105	0x3f68d690	0.90952396
106	0x3fc1dba3	1.5145153
107	0x3e6ec2f7	0.2331656
108	0x3d85db9b	0.06536027
109	0x3ec2ca47	0.3804495
110	0x3ffe00b5	1.9843966
111	0xbda86969	-0.082232304
112	0xbf55d346	-0.835255
113	0xbeb37c06	-0.3505556
114	0x3efc1e1f	0.4924173
115	0x3f085776	0.53258455
116	0xc000953e	-2.009109
117	0xbe023127	-0.12714063
118	0x3f6d4ca9	0.926951
119	0x4040cf28	3.0126438
120	0xc0045a19	-2.0679991
121	0x3e83fa22	0.25776774
122	0xbe9e17bf	-0.30877492
123	0xbf42b1e1	-0.7605267
124	0xbf8176f9	-1.0114433
125	0xbcf1ec72	-0.029531691
126	0xbbf0edbf	-0.0073525603
127	0x3f02d09c	0.5109956
128	0xbe6c6baa	-0.23087946
129	0x3f65ec35	0.8981355
130	0xbf5faf69	-0.8737703
131	0x3ec6fee2	0.38866335
132	0x3eef0968	0.46686864
133	0x3e273231	0.1632774
134	0x3f23b8b3	0.63953704
135	0x3f151296	0.58231485
136	0x3f8ca87d	1.0988919
137	0xbee47600	-0.44621277
138	0xbeef044a	-0.4668296
139	0xbf929ccc	-1.1454101
140	0x3f426b85	0.7594531
141	0x3e4525b9	0.19252671
142	0xbf0443fe	-0.5166625
143	0x3c9562c4	0.018235572
144	0x3fa79b6d	1.3094307
145	0xbe4b85ba	-0.19875231
146	0x3d044e33	0.03230114
147	0xbf894f70	-1.0727367
148	0x3eac015b	0.33594784
149	0xbd216c93	-0.039410185
150	0xc0054270	-2.08218
151	0xc09a57c9	-4.823216
152	0x3fdc0fc4	1.7192311
153	0xbecaf460	-0.39639568
154	0x3e0c2b74	0.13688451
155	0x3eb5fe92	0.35545784
156	0x3d33918a	0.04383997
157	0xbfd6a8af	-1.6770228
158	0xbdb1736a	-0.086645916
159	0xbf24ef14	-0.64427304
160	0xbf12ed9c	-0.57393813
161	0xbf66dc3f	-0.9017982
162	0x3f89bff9	1.076171
163	0xbdc2865c	-0.09498283
164	0xbee220e9	-0.44165733
165	0xbdbe8e8b	-0.09304532
166	0xbf87affe	-1.0600584
167	0xbd8c371f	-0.06846451
168	0xbff28e04	-1.894959
169	0x3eebf101	0.4608231
170	0xbf9e4211	-1.2363912
171	0xba844ffe	-0.001009464
172	0x3d8afaf1	0.067861445
173	0x3e5b93fd	0.21443172
174	0xc0339293	-2.8058212
175	0xbe5d5bfc	-0.2161712
176	0xbec7116a	-0.38880473
177	0xbf07137a	-0.52764094
178	0x3f2cfb59	0.67571026
179	0x3e44c523	0.19215827
180	0xbfb8cf4b	-1.4438261
181	0xbe015e8f	-0.12633727
182	0xc05345a2	-3.301125
183	0x3f14662b	0.57968396
184	0xbfc082d5	-1.5039927
185	0x3ea10e99	0.3145645
186	0xbee804cd	-0.45316163
187	0xbf5f73ff	-0.8728637
188	0xbf4ecb60	-0.80779076
189	0xbde50ecb	-0.11184462
190	0xbd3c0127	-0.045899536
191	0x3da61b0d	0.08110628
192	0xbdc4eabf	-0.09615087
193	0xbf463d75	-0.77437526
194	0xbfc6f356	-1.554301
195	0xbc282e92	-0.0102650095
196	0xbf2d4fa3	-0.6769964
197	0xbf9e544f	-1.2369479
198	0x3f0af12f	0.54274267
199	0xbf8c3835	-1.0954653
200	0xc0447e62	-3.0702138
201	0xbed067f7	-0.4070432
202	0x3eb3d463	0.35122976
203	0x3f4e0f5b	0.8049218
204	0x3f26e21f	0.65188783
205	0xbf9986c6	-1.1994255
206	0xc0027f4a	-2.039019
207	0x3f9e33be	1.235954
208	0x3f8b1703	1.0866398
209	0xbeb7368a	-0.35783798
210	0xbf25fec3	-0.6484186
211	0x3dc7091a	0.09718533
212	0xbf2af494	-0.66779447
213	0x3e89ff2f	0.26952502
214	0x3f53bf1f	0.827135
215	0xc0270918	-2.60993
216	0x3fbbd24d	1.4673554
217	0x3f566afa	0.83756983
218	0xbe83a0cb	-0.25708613
219	0xbe93726f	-0.28798243
220	0x3f92b68d	1.146196
221	0x3f9b6d47	1.2142724
222	0xbf6f0b10	-0.93376255
223	0x3eb8130b	0.3595203
224	0xbf340d90	-0.70333195
225	0x3f81c7a9	1.0139056
226	0x3f275e96	0.653787
227	0xbf3bae12	-0.73312485
228	0xbe9f7d37	-0.3115022
229	0x3ea4e587	0.32206365
230	0xbe66d80d	-0.22543354
231	0xbe52b371	-0.20576264
232	0x3e2060e8	0.15661967
233	0xbeaab8ed	-0.33344212
234	0x3fc7c644	1.5607381
235	0xbf4ff65f	-0.8123531
236	0x3d983fbb	0.074340306
237	0x3f89c41c	1.0762973
238	0x4020a7b6	2.5102363
239	0xbf5f6652	-0.87265503
240	0x3eb44c4e	0.35214466
241	0xbf2ab2ce	-0.66679084
242	0x3f0e1517	0.5550093
243	0xbe4d2ad0	-0.20035863
244	0x3fbcf2d3	1.4761604
245	0xbe1cc3b5	-0.15309031
246	0xbf1f2b48	-0.62175417
247	0x4002183c	2.0327291
248	0xbf3e708d	-0.7439049
249	0xbf1ba67f	-0.6080093
250	0x3f421218	0.7580886
251	0x3ee7978a	0.45232803
252	0xbf176c91	-0.59150034
253	0xbfab251f	-1.3370703
254	0xbebf7fe3	-0.37402257
255	0x3e2c6b8c	0.16837901

bias f4 [10]
0	0xbfc21273	-1.516188
1	0x3fc58313	1.5430626
2	0xbf5db45c	-0.8660333
3	0xbf934e86	-1.1508338
4	0x3eafe70b	0.3435596
5	0xbbe0a164	-0.0068551768
6	0xbfdeb865	-1.7400023
7	0x401b9ac6	2.4313216
8	0xbd515a20	-0.05111134
9	0x3fa947b3	1.3225006
