model/new/32_lstm.model (torch_old, 44300 bytes, 6 tensors)

weight_ih_l0 f4 [128, 28]
000000 0a a0 00 3d db 18 22 be 02 34 38 be 6d 11 6a be
       0.031402625 -0.15829794 -0.1798859 -0.2285821
000010 57 7a d6 3e 57 68 a7 3e 50 9d 2f bf 1a 2d b8 be
       0.41890213 0.32696792 -0.68599415 -0.3597191
000020 a6 75 ef be 23 0a 8d be fc 18 04 3c a1 e1 fe 3e
       -0.46769446 -0.27546796 0.008062597 0.49781516
000030 1a b8 6a 3f 0c 61 8e 3e 55 47 9e 3f 2f f3 3b be
       0.91687167 0.27808416 1.2365519 -0.18354486
000040 3b bb 08 bf c9 e6 01 3f 19 b3 9f 3e 1b 3d ef 3e
       -0.5341069 0.50742775 0.31191328 0.46726307
000050 c3 05 f6 be e0 43 4d bc e5 34 87 be fc fe 11 bf
       -0.4805127 -0.01252839 -0.26407543 -0.570297
000060 cc 62 68 be 73 f4 21 3d 6a c1 40 3e bb 30 4d 3d
       -0.22693938 0.039539766 0.18823782 0.0500953
000070 e3 6b af be 5c ae a9 bd 70 6a d1 bd 42 e0 b4 bd
       -0.34262 -0.082852095 -0.102253795 -0.08831836
000080 05 c6 6f bf ad a8 87 bf 0a 05 80 be 7d f3 69 bf
       -0.9366153 -1.0598351 -0.25003844 -0.9138716
000090 b8 9a 80 bf 88 f8 7a bf 25 17 c1 3e 01 75 b9 bf
       -1.0047216 -0.9803548 0.3771297 -1.4488832
0000a0 d7 71 d8 be 02 bf 66 bf d0 d3 9e bf 66 b7 35 bf
       -0.42274353 -0.90135205 -1.240839 -0.7098297
0000b0 e8 85 8a 3e 60 6b d0 bb 55 2e 75 be 09 2c 0a be
       0.27055287 -0.0063604563 -0.23943456 -0.1349336
0000c0 73 56 78 3d 4b 7b 77 bf af 50 00 bf b7 22 d3 be
       0.06062932 -0.96672505 -0.50123113 -0.41237423
0000d0 41 36 a0 be f5 2e e5 be 22 f2 99 bb e6 68 ab 3c
       -0.31291392 -0.44762388 -0.004698054 0.020924043
0000e0 71 7c da be f8 3c 0c bf bd b0 a8 be 7a 6a ec be
       -0.42673066 -0.5478053 -0.3294734 -0.46174985
0000f0 cc bd 7f bf 36 a3 8b bf cc 89 56 bf 4f 80 b9 be
       -0.9989898 -1.0909183 -0.8380401 -0.36230704
000100 17 4b 09 bf 8f e5 6e 3e ef 65 9d 3f 83 4e ca be
       -0.53630203 0.23329757 1.2296733 -0.39513025
000110 6c e1 c9 bf a7 cd ad bf fd e2 f2 be 60 3a c6 bd
       -1.5771918 -1.3578385 -0.47438803 -0.09679103
000120 5c 3e be 3e 39 4d 80 3e c3 40 9e be ae d9 15 bf
       0.3715695 0.25058916 -0.30908784 -0.5853528
000130 50 11 70 bd 55 1b 12 3f cb ab 1f 3d 17 23 ab bd
       -0.05861026 0.57072955 0.038982194 -0.08356302
000140 cd ab 73 bf 87 07 11 bf 98 2f b9 be 93 59 d4 be
       -0.9518402 -0.5665211 -0.36169124 -0.4147459
000150 e2 34 1b 3f b4 33 ce 3e f9 d2 92 3e dd 9f 5a 3e
       0.6062757 0.4027382 0.28676584 0.21350046
000160 09 0a 24 bf 16 4b 8c bf a7 99 a9 bf e8 96 68 bf
       -0.6407781 -1.0960414 -1.3250016 -0.90855265
000170 d3 6b 2e bf ca cc d6 be 97 bf 1e be 62 3a 07 bd
       -0.68133277 -0.41953117 -0.15502773 -0.033014663
000180 75 29 3c 3e e3 e6 95 3d 6a f3 15 bf 28 34 fd 3c
       0.1837519 0.07319429 -0.58574545 0.03090866
000190 ac 1a da 3c 5f ac d2 bd ad d0 de bc 72 16 ab be
       0.026624046 -0.102867834 -0.027199114 -0.33415562
0001a0 58 96 c4 be 9a 22 3b bf ab c5 ab be 9c 2c e9 be
       -0.38395953 -0.7309967 -0.33549246 -0.45541847
0001b0 79 ae 0d 3d 08 05 da 3e 17 eb 26 3f 26 51 1d 3f
       0.03459022 0.42581964 0.6520247 0.6145195
0001c0 4d 34 16 3d 3a 0a 80 be cb 48 e8 bd b9 2a bc 3e
       0.03667097 -0.25007802 -0.11342009 0.36751345
0001d0 50 41 2b 3e 50 59 08 bf 8d ea c8 be 36 6a 83 bc
       0.16724133 -0.5326128 -0.39241448 -0.016041856
0001e0 24 a4 d1 be bc 83 cd 3e 88 78 d3 bd d6 6a 99 3e
       -0.40945542 0.40139568 -0.10325724 0.29964322
0001f0 f9 a7 59 3e 94 9d f5 3e ef f6 3c be ed 7e 62 3e
       0.21255483 0.47971785 -0.18453573 0.22118731
000200 78 64 07 bc dd 2e 0a 3e 8c 43 b5 be 00 ae 9b 3d
       -0.0082637 0.1349444 -0.35403097 0.07601547
000210 35 6b 34 3f 19 2a 04 3f de eb 80 3e 0d f7 95 3e
       0.70476085 0.51626736 0.25179952 0.29290047
000220 40 e0 eb 3d f8 46 48 be f0 a5 c5 be 18 9a 8d be
       0.11517382 -0.19558322 -0.38603163 -0.27656627
000230 1a 14 8e be b1 ee 60 be 82 50 8f be b3 76 48 be
       -0.2774971 -0.21966054 -0.2799111 -0.1957653
000240 e1 ed 21 bf 77 44 92 bf 8d a4 23 bf 43 41 8d be
       -0.632536 -1.1427144 -0.6392296 -0.27588853
000250 b7 37 22 3f 07 40 11 3d 27 02 ad be 98 19 86 3f
       0.63366264 0.03546145 -0.33790705 1.047656
000260 d4 1e 2f 3f 3c 6b 55 be a4 b6 e2 3d ac 51 a3 bf
       0.68406415 -0.20841688 0.11069992 -1.2759299
000270 31 b2 d7 3e 3a d4 58 3e e6 9f 01 bf b2 fc 33 3e
       0.42128137 0.21174708 -0.5063461 0.17576864
000280 9f f0 41 3f c3 1c 1d 3f e7 5b 72 3c 35 3e 95 be
       0.75757784 0.6137201 0.014792419 -0.29149023
000290 7a 33 ef be f3 44 18 be 1b ab 7f be 7c 4b 69 be
       -0.4671896 -0.14870052 -0.24967615 -0.22782701
0002a0 ee 4b 4c be bb 84 0e be 09 1f 5c bd 56 bd 6c 3e
       -0.1995084 -0.1391782 -0.053740535 0.23119101
0002b0 b5 a8 64 3e 31 af a1 be fb 2d 4c bf 38 f1 50 bf
       0.22329982 -0.31578973 -0.7975766 -0.8161807
0002c0 b9 b7 24 bf 0e 3d ab be 7e 6a 8a 3e f3 60 0c be
       -0.6434284 -0.3344502 0.27034372 -0.13708858
0002d0 01 95 4a bf 37 1c d5 be 57 80 38 bf 91 01 c0 be
       -0.7913361 -0.4162309 -0.7207083 -0.37501195
0002e0 9b 09 59 bf 63 a8 62 be 8f a8 4f 3f b2 b0 0a 3f
       -0.8478028 -0.22134547 0.81116575 0.54175866
0002f0 02 17 98 3e 15 e9 a1 3f 07 de d2 3f 4f cd 84 3f
       0.29705054 1.2649256 1.6474007 1.0375155
000300 9c 30 1a 3f ea 31 15 3e ad 45 57 3e 11 ca 39 be
       0.6023042 0.14569822 0.21022673 -0.18143488
000310 93 c3 3c 3e 75 9e 51 3e 89 b0 6e 3e f5 15 cf 3d
       0.1843398 0.20470603 0.2330953 0.1011161
000320 3b 03 3a 3f 17 ec f6 3d a4 a5 4e 3f de 16 3f 3e
       0.7266118 0.12056749 0.807215 0.18661067
000330 23 33 73 3e a2 86 0d 3f 3d d0 4e 3e 79 fc 50 3f
       0.23749976 0.5528356 0.20196624 0.8163524
000340 f5 c0 7f 3f 74 cb 40 be ec 4b 81 3c 49 c0 21 3f
       0.99903804 -0.18827611 0.015783273 0.6318403
000350 36 e1 49 3f 70 fc 36 3f be d7 2f 3f 1c e0 98 3e
       0.7885927 0.7147894 0.6868857 0.29858482
000360 6b 9f c4 3e 65 4f 96 be a7 0f d2 3e a5 1a 54 be
       0.38402876 -0.29357448 0.41027567 -0.20713289
000370 9c d6 bc be 47 aa db bc ed a2 6d be c7 1e 99 bc
       -0.36882484 -0.026814593 -0.23206683 -0.018691434
000380 01 40 52 bd ce 38 84 be 1d 90 43 be 1b ac 5c bd
       -0.05133057 -0.2582459 -0.19097944 -0.05387507
000390 78 7c 4b be 82 42 f3 3d a6 f8 25 3e 04 73 57 3e
       -0.198717 0.1187792 0.16208133 0.21039969
0003a0 b6 09 18 3f 12 54 16 3e 44 a8 44 be e1 12 dc 3e
       0.5938982 0.14680508 -0.19204813 0.42983153
0003b0 3a f1 f5 3e 2a 42 b4 3f 1b 23 5b 3f 76 46 4b 3e
       0.48035604 1.4082692 0.8560044 0.19851097
0003c0 99 0c 77 3f c7 13 27 3f df 4e 21 3f 49 85 d7 3e
       0.965036 0.6526455 0.6301097 0.42093876
0003d0 e5 f7 9b 3d 0c 73 e2 3e f4 f4 44 bd a6 39 60 be
       0.076156415 0.442284 -0.048085168 -0.21896991
0003e0 ac ff 88 be f0 60 47 be 26 69 5a bd d2 1f 62 be
       -0.26757562 -0.19470572 -0.053322934 -0.22082451
0003f0 ee 7e 43 3f 9e 35 57 3f d0 b2 48 3f 40 be e8 3e
       0.76365554 0.8406619 0.78397846 0.4545765

weight_hh_l0 f4 [128, 32]
000000 0d 7a 55 40 0a 7b 17 3f d5 36 39 3f 3e db 3f 3f
       3.3355744 0.5917212 0.7234929 0.7494391
000010 f7 6e 2e bf 2e 51 0b 3f 74 49 6f 3e 87 b7 de 3f
       -0.6813807 0.54420745 0.23367864 1.7399758
000020 b1 11 57 3f ca 15 da bd 4b d3 7e be 16 80 86 3f
       0.8401137 -0.10648687 -0.2488529 1.0507839
000030 36 34 3c 3f 10 29 ba bf 13 3e 00 bf e2 e4 f4 be
       0.7351717 -1.4543781 -0.5009472 -0.47830874
000040 39 ca 9b 3e 3a f7 59 3f 67 e8 ac bf a0 18 8c bf
       0.3042772 0.8514286 -1.3508424 -1.0945015
000050 bf 1d de be ca 9f f6 bc fc 04 22 bd 92 77 83 bf
       -0.4338207 -0.03010549 -0.039555535 -1.0270865
000060 2b ce 93 bd 07 79 3d bc ba 80 95 be 9b dd e8 3e
       -0.07217058 -0.0115645 -0.29199773 0.45481572
000070 91 13 d3 3f f0 46 9c 3f 7e aa 51 3f 14 cf 10 3f
       1.6490346 1.2209148 0.81900775 0.56565976
000080 4a e5 bb 3e 57 5b 90 3f 9d 27 87 3e da d5 4b bf
       0.3669837 1.1277875 0.2639741 -0.79623187
000090 37 82 26 3f b9 4f 4e 3f 91 e9 ab 3f e9 84 e7 be
       0.6504244 0.805904 1.3430654 -0.4521859
0000a0 1a 03 fa bf af 07 bf 3e 99 da 8e be 27 02 50 be
       -1.9532197 0.3731055 -0.27901152 -0.20313321
0000b0 b2 e2 54 be db 29 54 3f 04 52 86 bc 0c b6 00 bf
       -0.20789602 0.82876366 -0.01639653 -0.5027778
0000c0 98 16 09 be e0 01 86 bf 86 6e 42 3f cc 26 74 3f
       -0.13387525 -1.0469322 0.75949895 0.953717
0000d0 ad 0e 5d be 9d 71 c4 3f 71 9c 60 be c5 a0 56 3e
       -0.2158763 1.5347172 -0.21934678 0.20959766
0000e0 86 31 11 bf a9 73 00 3d d3 d0 b1 be fd 23 87 bf
       -0.5671619 0.031360302 -0.34729633 -1.0557858
0000f0 35 82 1c 3f 2e 2f 8e 3e 33 ff 9d 3e 6b 51 c1 bf
       0.6113618 0.2777037 0.30858764 -1.5102972
000100 63 57 9f be 00 b3 b1 be 59 f8 cb 3e e8 64 53 3f
       -0.31121358 -0.3470688 0.39837912 0.82575846
000110 d8 34 e2 3f a8 9a 5c bf 21 eb 79 3f 5f f9 a2 3f
       1.7672377 -0.86173487 0.97624403 1.2732352
000120 52 14 27 bf 2a 3d 8d be 1a be 0e bf ab 6e 00 3e
       -0.6526538 -0.27585727 -0.5575882 0.12542216
000130 4b 4a b7 bf 22 e5 e3 bc 71 fe 06 bf d9 19 be 3f
       -1.4319547 -0.02781922 -0.52731997 1.4851638
000140 9d ef 14 3f bd 6f 98 bf d1 ec d0 3e bf a2 0f 40
       0.5817812 -1.19091 0.40805677 2.2443082
000150 73 88 be 3e 7e 88 6e bf 75 9c 46 bd 3c 84 32 bf
       0.37213477 -0.9317702 -0.048489053 -0.69733024
000160 fc 40 12 bf ce 95 ac bf 39 a1 c7 bf 04 ce 87 bf
       -0.5713041 -1.3483217 -1.5596076 -1.0609746
000170 e8 7a 99 bd 43 a5 63 3f d2 db 3c 3f db 82 5a bf
       -0.07494146 0.88924044 0.7377292 -0.8535592
000180 8a 3b 20 be b3 69 f9 3e 5a 0a ba 3f 43 5a 25 40
       -0.15647712 0.48713455 1.4534409 2.5836341
000190 35 06 5e bf 68 c1 b9 be 0c c1 3b 3f 49 56 03 bf
       -0.8672822 -0.3628037 0.7334144 -0.51303536
0001a0 72 72 a7 3f 8d 63 32 bf 44 51 bc bf e7 a1 89 3e
       1.3081801 -0.6968315 -1.47123 0.26881334
0001b0 f1 32 90 3f 32 c7 29 3d 27 24 9b 3f 34 53 7a 3e
       1.1265546 0.041449733 1.2120408 0.24445802
0001c0 ec 77 42 3f ae 3b 45 bd 43 d0 21 3d 98 95 d0 bf
       0.75964236 -0.048152618 0.039505254 -1.6295652
0001d0 54 76 d8 be ee f0 12 bf 22 bd 86 be 0b d3 47 bf
       -0.42277777 -0.5739888 -0.26316172 -0.780564
0001e0 bf 24 f7 3e 58 67 27 bf b1 71 d0 bf 52 13 90 3f
       0.48270223 -0.65392065 -1.6284696 1.1255896
0001f0 0d 54 fd 3e 8d a5 10 c0 82 85 c4 bd e3 7e a7 be
       0.49478188 -2.2601044 -0.09595777 -0.32713994
000200 95 24 85 bf b0 5b a9 3f af cf 85 3e 0d 61 13 3f
       -1.0401789 1.3231106 0.26135013 0.5756996
000210 4b 0d 9e be ac 73 92 3e f7 78 49 be 12 5a 3f 3f
       -0.30869517 0.28603876 -0.1967505 0.7474681
000220 4d 6b 73 be 05 e4 0d 3f 1a c6 22 3f d3 ea 12 bf
       -0.23771401 0.55426055 0.6358353 -0.57389563
000230 7e 93 a1 3e 6c 4c 14 bf 81 d0 5e 3f 76 3e 01 3f
       0.3155784 -0.5792911 0.870369 0.5048593
000240 3b d9 02 3f 5b 9a 33 3b ee 93 4c bf 00 f1 6c bd
       0.5111272 0.0027405235 -0.7991322 -0.057847023
000250 bd 90 0b bf d3 0a 1a 3e 3a 92 f2 3e f2 25 08 be
       -0.5451773 0.15043192 0.47377187 -0.13295725
000260 c6 a7 87 bd 9d 6b 88 3f 4a 55 a9 bf 91 4f 38 bf
       -0.06623797 1.0657841 -1.3229153 -0.7199641
000270 5e 19 80 3e 8f 0a b5 be 39 dd 17 3f 97 9a f7 3f
       0.25019354 -0.35359618 0.59321934 1.9344052
000280 4d 7e 5b 3f a2 ce 97 3f 2f 84 2e 3f 4c 22 85 3f
       0.85739595 1.1859934 0.68170446 1.0401092
000290 18 5d 01 3f 43 3c 15 3f 1b 6d 19 bf e3 70 2a 3f
       0.50532675 0.5829508 -0.59932107 0.665785
0002a0 c1 92 db 3e 7a 8e cf be 3c d7 1f bf 26 2e 96 3c
       0.42885402 -0.40538388 -0.62437797 0.018332552
0002b0 47 7b 38 bf 96 9e 25 3e 38 a7 6e 3f 68 75 a5 be
       -0.72063106 0.16173777 0.93223906 -0.32316136
0002c0 0b 9a d2 bc 29 5d 42 3f 18 40 99 be 51 00 91 bd
       -0.025708219 0.759234 -0.29931712 -0.070801385
0002d0 d2 26 b5 bb 07 f9 aa be 6e f1 e6 be e0 a9 0c 3e
       -0.0055283094 -0.33393118 -0.4510607 0.13736677
0002e0 ad b3 82 3d 30 05 21 3f 28 68 b1 be 61 91 eb 3e
       0.06381927 0.6289854 -0.34649777 0.46009353
0002f0 19 ab 5c 3f 44 68 ec be 62 22 2b 3e cb 36 e3 3d
       0.86198574 -0.46173298 0.16712335 0.11094435
000300 0c 2d f3 3e 09 04 9f 3f 05 67 33 bf 48 3b 78 3f
       0.47495306 1.2423106 -0.7007907 0.96965456
000310 3e de ed 3f 50 a7 91 bf b5 4f 7c 3e b4 a7 d6 3f
       1.8583448 -1.1379185 0.24639781 1.6769929
000320 a1 f2 0e 3f f0 e7 14 bf fa 4c a2 3e 0a 58 c1 be
       0.5583897 -0.5816641 0.31699353 -0.3776248
000330 d3 56 37 bf 16 1c 9a bf 94 cc cd 3f 05 ef 42 3f
       -0.7161686 -1.2039821 1.6078057 0.76145965
000340 99 8e b8 be 90 ae 66 be d2 fa 34 3f 26 b6 02 bf
       -0.36046293 -0.22527528 0.7069522 -0.51059186
000350 a4 c0 c2 3d ca cb bd 3e 2e 21 2e 3f d6 70 b3 3f
       0.095093995 0.3706954 0.6801938 1.401881
000360 11 fc 00 c0 34 f0 b6 bf ea 3f 0d c0 78 2b 9f bd
       -2.015385 -1.4292054 -2.207026 -0.07771963
000370 88 a5 79 be e0 0c 54 bf 51 40 9a 3e 0b 50 34 be
       -0.24379551 -0.82832146 0.30127195 -0.17608659
000380 54 64 91 bd 10 75 85 be 54 ec 4c 3e de a4 43 3e
       -0.07099214 -0.26065874 0.20012027 0.1910586
000390 98 4d 73 3e c7 8c a4 bd 6e c4 4c 3f 93 55 1a c0
       0.23760068 -0.08034664 0.7998723 -2.411473
0003a0 30 25 40 bd 11 35 52 3e af 3e 15 bf 54 f7 6b be
       -0.046910465 0.20528056 -0.5829877 -0.23043567
0003b0 51 37 1b 3f e0 a3 10 3f 01 b3 64 3e 19 b4 07 bf
       0.6063128 0.56500053 0.2233391 -0.5300918
0003c0 6f 62 ca bf 9e c2 65 be cc 42 2b be a2 9c a4 bd
       -1.581129 -0.22437522 -0.167247 -0.08037688
0003d0 54 14 24 3f d1 74 8d bc 63 0d 45 3f ef 13 d3 bf
       0.6409352 -0.017267616 0.7697355 -1.6490458
0003e0 39 2c cd 3f 4c bf 8e 3f 54 9a 1b 3f ae 58 a8 be
       1.6029121 1.1152129 0.6078236 -0.32880157
0003f0 12 bb 1a 3f 93 9c d3 bf 80 a4 cb bd 19 63 0e bf
       0.60441697 -1.6532158 -0.09943485 -0.5561996

bias_ih_l0 f4 [128]
000000 1b cc 8f 3e 2c b4 08 3f f5 d5 91 3f 8d 52 aa bf
       0.28085408 0.5339992 1.139342 -1.3306442
000010 ef bd ce 3e 19 34 ec 3e 20 82 8d 3c d5 65 55 be
       0.40379283 0.46133497 0.017273962 -0.20839627
000020 a0 eb df 3e eb 9f cd bf 2a d2 2d 3f 7b e9 47 bf
       0.43734455 -1.6064428 0.6789881 -0.7809064
000030 ae 5d bc be 75 f1 81 bf b5 a7 88 3e 5c 01 a5 bf
       -0.36790222 -1.0151812 0.2669045 -1.289104
000040 fe 9e e5 bf 7e e7 20 bf e9 a5 fc 3d e3 87 a2 3e
       -1.7939146 -0.6285323 0.12336332 0.31744298
000050 14 17 5b bf 10 4b ac be e1 9d db bd 3b 7e 74 3e
       -0.8558209 -0.33651018 -0.107234724 0.23876278
000060 0f a3 40 bc be f2 57 3d 33 65 03 bf c3 d0 7e 3e
       -0.011757626 0.05272173 -0.5132629 0.24884324
000070 c8 94 b7 bd bc be 14 3e c3 dc 8a 3d f4 e4 a4 3f
       -0.08963925 0.14525884 0.06780388 1.2882371
000080 1d 90 9c 3f e3 6d 2c 3e f0 a9 c8 3e 5f 08 97 3f
       1.223148 0.16838793 0.39192152 1.179943
000090 1d 73 11 3f 67 42 34 3f bf 2f ba 3f 74 3e 10 3f
       0.56816274 0.7041382 1.4545821 0.56345296
0000a0 5d 9c d6 be 26 dd 27 3f 79 91 9c 3f 08 0a a4 3f
       -0.4191617 0.6557182 1.2231895 1.2815561
0000b0 cf f3 05 3f 10 b7 6c 3f 3d c7 6e 3f cc 1e 39 3f
       0.5232515 0.9246683 0.93272763 0.7231262
0000c0 02 2e 9e 3f 98 14 6e bd 50 47 04 3d 6e b8 11 3f
       1.235779 -0.05812511 0.03229457 0.5692204
0000d0 fc 23 ac 3f be a8 45 3f c6 73 84 3f 53 97 9e 3f
       1.3448482 0.77210605 1.0347831 1.238993
0000e0 88 35 8e 3f fa 70 5b 3f 5c f3 a8 3f 33 0d 3c be
       1.1110086 0.85719264 1.3199267 -0.1836441
0000f0 8c 23 43 3f 8b 26 92 be 59 8c 92 3f 65 10 bb 3f
       0.76226115 -0.2854503 1.1449081 1.4614378
000100 8b a0 12 3f 41 6b 1f bf 98 d1 d9 3d e4 c4 27 3e
       0.5727622 -0.6227303 0.1063568 0.16383702
000110 0a 47 27 bf 84 29 09 be 32 a2 dd be d4 93 fc be
       -0.6534277 -0.13394743 -0.43287808 -0.49331534
000120 76 93 71 3c 03 96 35 bf 3a 6e c2 be d8 13 d8 3e
       0.01474463 -0.70932025 -0.3797472 0.4220264
000130 34 0d cf 3e 22 ab 09 bf 86 52 c1 bf a1 11 8d bf
       0.4043976 -0.5377675 -1.5103309 -1.1021005
000140 68 eb 15 bf 4c 7c f8 be b8 96 5a bf 35 53 87 be
       -0.58562326 -0.4853233 -0.8538623 -0.2643067
000150 47 f8 7b bf a8 1b 23 bf be 19 11 bd 36 35 f5 3e
       -0.98425716 -0.63714075 -0.03542494 0.4789216
000160 f1 c8 b4 bf 92 c8 80 bf 40 97 dd 3e c6 46 1d bf
       -1.4123822 -1.0061209 0.43279457 -0.61436117
000170 86 ad 0c bf 8d a3 17 bf 17 73 c1 bf 1c 4f 9d bc
       -0.54952276 -0.59233934 -1.5113248 -0.019202761
000180 b7 32 ce 3e 4e bd 89 3e 99 73 f7 3d 5f 25 38 3f
       0.40273067 0.2690224 0.120825954 0.71932024
000190 20 9b 12 3e 6d 3e 9a 3f c1 42 49 3f 6e 7d 2e 3f
       0.14316988 1.2050301 0.78617483 0.6816014
0001a0 87 5f fc 3e 7f 18 83 3f f9 2c 0d 3f 4e f9 0a 3f
       0.49291632 1.0241851 0.5514675 0.5428666
0001b0 de b2 d7 3e 84 66 2d 3f fa 23 6b 3f 1e d6 3c 3f
       0.42128652 0.6773455 0.9185177 0.73764217
0001c0 00 43 3f 3f 08 24 45 3e bb 5d 8d 3e cf 79 2e 3f
       0.7471161 0.19252026 0.27610573 0.68154615
0001d0 58 88 67 3f 1a 22 22 3f ce 04 cd 3d c7 4b ac 3e
       0.9044242 0.63333285 0.10010682 0.33651564
0001e0 09 fa 8e 3f 05 6d 6f 3f 68 6a e2 3e a7 b6 98 3f
       1.1170055 0.93525726 0.44221807 1.1930741
0001f0 76 ea 65 3f 64 83 4f 3e 69 a2 bd 3f 98 e7 8f 3f
       0.89810884 0.20264965 1.4815189 1.1242552

bias_hh_l0 f4 [128]
000000 16 22 9a 3d b7 f4 ae 3e 7a 06 64 3f e3 7e 92 bf
       0.075260326 0.34171078 0.8907238 -1.1444973
000010 95 c9 3a 3e a0 42 01 3f 68 0e f5 3d 6d e5 81 be
       0.1824096 0.50492287 0.119656384 -0.2537035
000020 ad 1c 8c 3e 86 20 f5 bf bd 6b 1c 3f a6 28 56 bf
       0.27365628 -1.915055 0.61101896 -0.83655775
000030 0c c8 ce be c5 86 8e bf 26 fd 4e 3e 88 b0 9a bf
       -0.40387 -1.1134878 0.20213756 -1.2085123
000040 20 20 01 c0 86 1f 3d bf 94 19 c7 3d f3 5d e3 3e
       -2.0175858 -0.73876226 0.097216755 0.44407615
000050 6b 5e 25 bf 0b 53 cd be d9 65 f2 bd 55 07 27 3e
       -0.64597195 -0.4010242 -0.11835832 0.1631139
000060 16 1c 1e 3e fd a6 08 be a6 10 7e be 99 44 3b 3e
       0.15440401 -0.13344951 -0.24811038 0.18287887
000070 b1 5c 6f 3e d3 23 a2 3e 90 06 f9 3d 08 66 aa 3f
       0.23375203 0.31667957 0.12159455 1.3312387
000080 c8 95 ab 3f ee f2 3a 3e c5 a9 03 3f 4d 0e a7 3f
       1.3405085 0.18256733 0.5143092 1.3051239
000090 b6 48 8f 3e e6 5b 4e 3f 84 d6 b2 3f 24 2a 47 3f
       0.27985162 0.80608976 1.3971715 0.77798676
0000a0 04 53 2c bf 6f bf 42 3f d2 67 a3 3f ad 03 a4 3f
       -0.6731417 0.76073354 1.2766058 1.2813622
0000b0 94 f0 f5 3e ea 40 5d 3f 28 a1 8e 3f 0e 09 47 3f
       0.4803511 0.86427176 1.1142931 0.7774819
0000c0 4b 3b 9a 3f f5 ca 75 3e 9f 30 71 bd 90 07 20 3f
       1.2049345 0.24003203 -0.05888426 0.6251154
0000d0 e7 1b ba 3f 49 fb 5c 3f fa 37 54 3f 0c cb 90 3f
       1.4539765 0.8632093 0.82897913 1.1311965
0000e0 de f7 65 3f 3f d8 17 3f 62 52 90 3f 23 46 d1 be
       0.8983134 0.5931434 1.1275141 -0.40873823
0000f0 a6 07 09 3f 12 88 53 be 37 ce 87 3f 1b 09 c5 3f
       0.53527296 -0.20657375 1.0609807 1.5393404
000100 25 d7 fb 3e d9 e8 d9 be 1c 37 27 3e 9c 89 09 3e
       0.4918758 -0.4256046 0.16329616 0.134314
000110 3b 74 cb be 72 8b 63 be e9 4c c3 be 6f ed 04 bf
       -0.39737114 -0.22221163 -0.38144615 -0.51924795
000120 04 f1 88 3e 3f 11 30 bf 37 ca a6 be ec 87 59 3e
       0.2674638 -0.68776315 -0.32576153 0.21243256
000130 a3 18 93 3e d3 d3 12 bf 61 0f 9d bf 85 ea 5c bf
       0.28729734 -0.5735447 -1.2270318 -0.8629535
000140 b9 d6 3b bf 85 de 44 bf 0a 5d 53 bf 18 44 12 be
       -0.73374516 -0.7690204 -0.8256384 -0.14283788
000150 9c 9f 87 bf 5b df 0f bf 95 3d 3d be 9d c6 e1 3e
       -1.0595584 -0.5620019 -0.18480523 0.44096842
000160 20 46 a8 bf 9c 2d 85 bf d2 e5 06 3f 42 5a 25 bf
       -1.31464 -1.0404544 0.5269443 -0.6459085
000170 ec dd 41 bf c7 15 05 bf 0e 7d e9 bf a8 2a ed bd
       -0.7572925 -0.51986355 -1.8241289 -0.11580402
000180 f9 2e c8 3e 37 d6 af 3e fa 9d 3a 3b 2d ea 29 3f
       0.39098337 0.3434312 0.002847551 0.6637295
000190 d3 63 a0 bd 42 7b ab 3f b8 4f f3 3e a4 3f 0a 3f
       -0.0783154 1.339699 0.47521758 0.5400336
0001a0 60 2c 20 3f 0d 62 8d 3f ca 37 dc 3e d2 ab 14 3f
       0.6256771 1.1045548 0.43011314 0.58074677
0001b0 50 2f a7 3e dc 20 31 3f ed 80 49 3f 31 8e 47 3f
       0.32653284 0.69190764 0.7871235 0.7795134
0001c0 80 ec 71 3f 49 66 29 3e 2f 0b ac 3e dd 87 34 3f
       0.94501495 0.16542925 0.33602282 0.7051981
0001d0 6c 45 73 3f 73 84 34 3f 94 5d 0a 3d 6c 3b 09 3f
       0.95027804 0.705146 0.03378065 0.53606296
0001e0 49 77 8f 3f 75 c1 53 3f 6b 86 96 3e fc 8d 8d 3f
       1.1208278 0.82717067 0.29399428 1.1058955
0001f0 0a e2 87 3f 01 b6 7d 3e 81 24 9d 3f 06 63 6f 3f
       1.0615857 0.2477646 1.2276765 0.9351047

weight f4 [10, 32]
000000 7f c8 1a be 0b 9f 74 3e 19 17 d8 3d ca a9 c1 3f
       -0.15115546 0.23888795 0.105512805 1.512994
000010 bc 29 4a 3e 6a ef a0 3e 0e ae 90 3f f3 90 88 bf
       0.19742483 0.31432658 1.1303117 -1.0669235
000020 e2 f8 60 3f 35 64 a4 bf 0b d3 f1 bf 3e 6a 54 3f
       0.87879765 -1.2843081 -1.889253 0.8297461
000030 11 33 59 3f 95 00 2d 3f 9e 47 08 bf b9 f8 9f 3d
       0.84843546 0.67579013 -0.5323428 0.07811112
000040 86 ed 03 be 31 f7 a5 bf 08 71 14 3f be 06 bc 3d
       -0.12883577 -1.2966062 0.5798497 0.091809735
000050 e2 bc 90 3e 6e e6 cb 3f f8 2c 14 be 50 4d d3 bf
       0.28269106 1.5929697 -0.14470279 -1.6507969
000060 b9 c3 8f 3f a3 9d 3b bf 77 42 ba be 07 63 44 3f
       1.1231605 -0.7328741 -0.36378834 0.76713604
000070 9a 1a 66 3f dd f8 2d 3f 8d d1 b0 be 1c 83 b8 bf
       0.8988434 0.6795786 -0.34534875 -1.4415011
000080 bc 95 0e 3f 3e d9 84 bf 84 10 c0 bf cd 0f 44 3f
       0.55697227 -1.0378797 -1.500504 0.7658661
000090 ce 31 98 3f df 95 b0 3f 4b 57 1c c0 18 0d 35 3f
       1.1890199 1.3795737 -2.442828 0.70723104
0000a0 90 4d 9c be 77 d8 97 3f 03 d0 4b 3e 44 46 4d bf
       -0.30527925 1.1862935 0.19903569 -0.8018534
0000b0 10 f8 93 bf ad f4 4b be e4 7b 5a bf dc cb b8 bf
       -1.1560078 -0.19917555 -0.8534529 -1.4437213
0000c0 76 26 1c 40 11 99 2a 3f df c1 4b 3f 2b c4 27 3f
       2.4398475 0.6663981 0.795927 0.65533704
0000d0 77 04 a3 3f 10 90 d4 be 40 2a a1 3f 7f 26 f5 3f
       1.2735738 -0.4151616 1.2591019 1.9152373
0000e0 c1 18 fd be 25 40 f2 3f a8 bb 91 3e 86 07 45 be
       -0.49432948 1.8925825 0.28463483 -0.19241151
0000f0 36 94 a2 bf fc 0f 71 bf d2 cb e7 3f 09 7e d2 bd
       -1.270148 -0.94165015 1.8109076 -0.102779455
000100 98 5e 80 3e 65 22 44 3f d5 22 8e be 9f 02 cd bf
       0.2507217 0.7661498 -0.2776095 -1.6016425
000110 74 d7 1e bf 4b f1 56 3f 5f a0 82 3f 69 47 ce be
       -0.62047505 0.83961934 1.0205191 -0.40288857
000120 f9 a4 3d 3f e7 23 f6 3d 01 9d 20 bf 9f b7 88 3f
       0.74079853 0.120185666 -0.6273957 1.0681037
000130 fd d2 26 c0 98 ca 92 be 28 32 75 bf 9e b1 f8 3e
       -2.6066277 -0.28670192 -0.9577966 0.4857301
000140 9e 8a 07 3f 9b 03 9d 3f 8c 13 91 bf ce 72 81 3f
       0.5294589 1.2266725 -1.133409 1.0113161
000150 82 68 25 bf 14 d7 d6 be 27 65 86 bf 56 21 1c 3f
       -0.6461259 -0.41960967 -1.0499619 0.60988367
000160 bb 8b 8b 3f 90 f8 59 3e a1 4e 71 3f e6 6f 5a be
       1.0902017 0.21286225 0.94260603 -0.21331748
000170 55 5a 88 3e 6a 66 0b 3f 10 dd b3 3e c7 ae fb 3e
       0.26631418 0.54453146 0.35129595 0.49156782
000180 5b 54 85 3d 7d 9b ff bc e7 ca e3 3e ee e7 ad be
       0.0651023 -0.031202072 0.4449074 -0.3396601
000190 af 17 52 3f 5b 39 8e bf 05 af ff 3d d1 05 cd be
       0.8206739 -1.1111253 0.12484554 -0.400435
0001a0 44 a9 68 3e 14 7c cf 3e be 0c 81 be e0 04 ff be
       0.2272082 0.40524352 -0.25205034 -0.49808407
0001b0 f3 0f e2 be e6 c9 8a bf e5 4a ca bc b6 a9 57 be
       -0.44152793 -1.0842865 -0.024693916 -0.21060833
0001c0 ee 5f 0d 40 a3 2b dd bf b2 5b a4 be a3 c4 09 bf
       2.20898 -1.7278942 -0.32101208 -0.5381567
0001d0 50 b3 84 bf 0a 84 c1 bf 9b 59 a5 3e 2d 7c b3 3f
       -1.0367222 -1.511842 0.32294926 1.402227
0001e0 b1 c5 6c be 53 b6 cc bf 8e 08 42 3f 9d 29 62 bd
       -0.23122288 -1.5993141 0.75794303 -0.055215467
0001f0 30 d7 a4 3e 3a f4 20 be 6b 3d 30 3f 98 d9 ae 3f
       0.32195425 -0.15718165 0.68843716 1.3660154
000200 76 7f d5 3f 04 cd 14 3e 27 3d e7 be 99 76 5d bf
       1.6679523 0.14531332 -0.45163843 -0.8650909
000210 49 a9 a1 bd 99 3a 2c 3f c2 15 f8 be bb 4c f6 3d
       -0.07893617 0.6727691 -0.484541 0.12026354
000220 be ab ef bd 57 e7 ff bf 2e 74 10 be 49 3e a4 3e
       -0.11702679 -1.9992474 -0.14106819 0.3207877
000230 3c e2 b1 3e 31 fc 23 40 9a 3e 13 bf d5 72 19 3f
       0.34742916 2.5622675 -0.575174 0.59940845
000240 93 01 a9 bf a3 b9 78 3f 8c 6d 13 bf 6c 9e 62 bf
       -1.3203605 0.9715826 -0.5758903 -0.8852298
000250 47 1b 2b 40 6d 4d 9f 3e 18 d0 a2 be 90 57 86 be
       2.6735399 0.3111376 -0.31799388 -0.2623868
000260 6d 8f 1f bf 25 12 65 be a1 84 2d bf b1 88 0d 3f
       -0.62328225 -0.22370203 -0.677805 0.552867
000270 09 99 8a bf a7 47 ee 3e 53 f7 cc bf 7e 93 0e bf
       -1.0827953 0.4653904 -1.6012977 -0.55693805
000280 fe e2 56 be 82 8c 87 bf 1c db 37 3e d2 e1 d4 3f
       -0.20985028 -1.0589755 0.17954677 1.6631415
000290 8f 4c 67 3e 47 7e aa bf ee 5f ba bf 40 c2 a4 3e
       0.22587799 -1.3319787 -1.4560525 0.3217945
0002a0 92 0e 06 bf b8 36 0e 40 6b a4 78 3f 83 85 60 3e
       -0.5236598 2.2220898 0.9712588 0.2192593
0002b0 d8 dd 93 3e 6b a9 bb bf d5 7f 41 3f c4 c9 4a 3f
       0.2888019 -1.4661077 0.7558568 0.7921412
0002c0 72 fc 83 bf 9a a5 89 bf 8f 78 f3 3d e4 4b e6 be
       -1.0311415 -1.0753663 0.11888229 -0.44979775
0002d0 20 60 e0 bf 6c 08 fd bd 93 33 3d 3f 72 6f 64 bf
       -1.7529335 -0.12355122 0.7390682 -0.8923255
0002e0 53 b4 33 bf a0 5d 3c bf 0d 54 ee 3e b9 0f dd be
       -0.7019703 -0.7358036 0.465485 -0.43176058
0002f0 67 54 67 3f 8c a0 ce be c9 3d a1 3e ad 56 0e 3f
       0.9036316 -0.40356863 0.3149245 0.55601007
000300 1c a1 d2 3e 7b 40 8f 3f ad 6a 2a 3f a5 a3 af 3f
       0.41138542 1.1191553 0.66569024 1.3721815
000310 91 05 b8 bd 7b a3 9c 3f dc d2 ab be 70 5c fe 3d
       -0.08985437 1.223739 -0.3355931 0.12419975
000320 c4 89 2a bf b3 11 ac 3d 12 29 1a 3f aa 20 30 3f
       -0.66616464 0.08401813 0.6021892 0.6879984
000330 87 99 54 3f c1 53 c9 3e 53 0a d5 3f 0d 50 0d 3f
       0.83046764 0.39321712 1.6643776 0.5520027
000340 a6 70 00 c0 a4 a9 0c 3f c2 8f eb bc e9 a8 a2 be
       -2.0068755 0.5494635 -0.028755073 -0.31769493
000350 06 58 36 40 23 3b 9b 3f f8 38 a4 bf 3b 94 c9 bf
       2.8491225 1.2127422 -1.2829885 -1.5748361
000360 37 85 e9 3e 24 34 9e 3f f1 a4 85 be 2f 15 b6 be
       0.45609447 1.2359662 -0.26102403 -0.35563037
000370 08 cc 6c 3f ff c3 c3 3f 3c 87 25 3f 87 d4 4a bf
       0.92498827 1.5294188 0.64659476 -0.7923054
000380 59 82 d0 bf 6d e2 9e be 26 0f 9b bf 94 7a 03 c0
       -1.6289779 -0.31032124 -1.2113998 -2.0543566
000390 37 3d 3d bf 16 1f ae bf 95 89 c4 3f 6a cb b2 3f
       -0.7392153 -1.3603237 1.5354487 1.3968327
0003a0 b6 1b 82 3d cd 83 31 3f 95 2c 73 3e 92 a7 35 bd
       0.06352942 0.6934174 0.23747475 -0.04434926
0003b0 52 2f 04 bf ca 32 9d bf 52 97 d0 be d1 a9 b1 3e
       -0.51634705 -1.2281125 -0.40740448 0.34699872
0003c0 ef 92 fb 3f 4d 3a 8f 3f 06 6d bf 3f 06 26 03 3f
       1.9654216 1.1189667 1.4955146 0.51229894
0003d0 99 34 60 bf f9 77 76 3f b4 f3 55 3f 4c 4b 57 be
       -0.8758026 0.96276814 0.83574986 -0.21024817
0003e0 b3 dc 6d bf 85 58 27 3f 95 b2 ca bf db f3 9a be
       -0.92914885 0.65369445 -1.5835749 -0.30264172
0003f0 63 fa 98 bf 4a f2 6c bf 84 92 ed bf 6b ed 6e 3f
       -1.1951412 -0.92557204 -1.8560338 0.9333102

bias f4 [10]
000000 8a 48 3b bf 39 87 29 3f 56 ab 15 bf f9 aa 3e bf
       -0.7315756 0.6622196 -0.5846456 -0.74479634
000010 39 bb a8 3c 73 ea 5b 3f 65 55 78 bf cb 99 a1 3f
       0.020597087 0.85904616 -0.970053 1.2625059
000020 b5 ae 9d 3f ad 25 34 bf
       1.2318941 -0.7036999
