model/new/4_gru.model (torch_old, 12292 bytes, 6 tensors)

weight_ih_l0 f4 [12, 28]
00000000: 84fb 20bf 300f 8dbf b542 7fbf e718 febe
00000010: 6680 c3bf 497b b2be af71 353f 53ba 4f3f
00000020: ddc7 e33d d814 18bf 8c33 0fc0 2ba0 83bf
00000030: d7a0 52be 4a2a db3d bf12 5e3f b67e 0ebe
00000040: 9759 063f 28bd 683e 8bf2 773f 752e 033f
00000050: 6d5f c6bc 3933 ee3f f6a0 863f e067 3ebf
00000060: ee03 77bf 06a4 83bf bd37 39bf 5f5b 21bf
00000070: b887 75bf 4b1f b739 9d60 9cbd 6e4a 273d
00000080: a319 f53f 926c 8440 3cfc db3f b218 4440
00000090: 4741 5240 04e8 7340 3e58 9040 e265 7d40
000000a0: 330c a840 02da 1640 8efe 06be 3659 d6bf
000000b0: 4a44 c6bf ba95 a1bf 5e90 71bf 30df dbbf
000000c0: 4485 dfbe ca26 30bf aa41 cfbf e2e6 09bf
000000d0: dc79 87bf adbb 41bf 3154 3ebc 9336 61bd
000000e0: 631f 1a3f 5e6a 953e 6c55 8d3f 15d9 743f
000000f0: 9f9b f83e 98da 473f 33e6 b73f f230 8f3f
00000100: cabe 333f c8f7 373f 2368 503f 56c6 8bbf
00000110: c880 2f3f 7154 b240 010a ef40 995e 3f3f
00000120: af74 d6bf d49b 22c0 c663 61c0 96cd 86c0
00000130: 0c76 98c0 3880 8dc0 37f9 61c0 e9fc 04c0
00000140: bfab 11c0 eb39 72be d2cc 393f 2688 0f3f
00000150: 9f71 2740 d44b 0240 9982 f03f c10e 1b40
00000160: d43f 1640 b1f9 0a40 22b3 5140 5d80 cd3f
00000170: 4f2b 803f 379a b73f 4b88 673f 2e83 e33f
00000180: b813 fd3f 5745 c73f 0f45 ea3f 3109 4140
00000190: 761f 4940 b3f2 4f3f aaac 24bf 34ba 2840
000001a0: 8c82 e63f 4b62 2840 7cd0 1440 6431 1140
000001b0: c8a0 3240 1f19 2a40 5906 2540 3e4a 3240
000001c0: 0727 0c3f 42b9 78be 9cf7 e43c 8a98 f33e
000001d0: 7f4d bc3e f53c 923f e48b 02bc 84a4 bcbe
000001e0: bc5e 17c0 e894 e6be cced dc3d 2ff2 c33d
000001f0: 867b 3bbd 3ac3 cebd c725 bcbd 8203 e63f
00000200: e008 94bf 9ffe 4abc 6c91 86bf b3df febf
00000210: 57dd 6abf 4f28 8b3f 4886 a93f b455 b63e
00000220: a0d1 683d 5218 d93e 5925 acbe 5611 a4be
00000230: 4c6f 95bf e71a 32bd a53d eb3e 8b7f ab3f
00000240: be94 b73e 562b b1bd 813e 4e3e e1f7 343c
00000250: e78b bb3d 76c8 043e 1b47 66bd 9c5a 1dbd
00000260: 6233 19be dfc9 3b3f ef49 4cbe a632 933d
00000270: 75fd 04bd 8f06 02be 02c0 863d 7b9a cf3c
00000280: 189c 10be 9998 54bd d014 75bd 4f49 92be
00000290: faf5 be3e 4ebf cf3f 7c90 6a3f c5bf 1cbf
000002a0: a7d1 c63e adbe 133f fd43 7f3f 757b 933f
000002b0: a62c 993f cc91 833f 39ed 933f e829 a23f
000002c0: c888 1a40 f280 4340 ab65 9dc0 c853 bcc0
000002d0: d1c5 1ebf 74d6 2c40 9907 9940 5807 d840
000002e0: 3865 8740 471a 6140 ed7f 6640 47c2 f73f
000002f0: 0ca3 8b3f b66b 4c3f a0aa f93e fbfe 283f
00000300: 6ed0 a03f 0200 d83f 04d0 a83f cc8b fa3e
00000310: 3399 19c0 8623 11c0 4887 78bf 229d aebf
00000320: c093 a23f 317c 7c3f f759 cf3f aa15 633f
00000330: 67bf 5b3f e743 ec3f c68c 2040 e342 853f
00000340: 0fa0 d43f d269 cf3f da36 ce3f 972d 3140
00000350: fba0 f83f 9b6f bc3f ddfc 2e40 e240 2a40
00000360: 83f7 393f 53e9 be3e 4cf2 443f 8a0a 263e
00000370: 2100 753f 6936 abbe 4d7f 14c0 937b 50c0
00000380: 1126 b2bf e520 ddbf 7cd4 9fbf 4718 53bf
00000390: 1026 b6be 2e7a 1c3f 5cca da3f 52f6 5b40
000003a0: 65e7 ff40 a5c3 f740 ea4a 5040 3069 a23d
000003b0: a9c5 6fbf f65b 753f ad81 32bf 1d83 5840
000003c0: 6b6f 2d41 9ced 4941 e62a 2341 1419 d540
000003d0: 3815 8040 762e 7bc0 4daf c0c0 494c a93e
000003e0: 9eea a4be cd71 08bf b5bc 6fbf 4aae e6bf
000003f0: 58f4 5f40 7b6f 5a40 8a7d 5840 5ba6 5240
-0.6288378 -1.102026 -0.9971116 -0.49628374 -1.5273559 -0.34859684 0.7087659 0.81143683
0.11122105 -0.59406805 -2.2375212 -1.0283254 -0.20569168 0.107014254 0.86747354 -0.13915524
0.52480453 0.22728407 0.96854466 0.5124276 -0.024215424 1.8609382 1.0517871 -0.7437725
-0.9649037 -1.0284431 -0.72350675 -0.63030046 -0.95910215 0.00034927795 -0.07635615 0.040842466
1.9148449 4.138253 1.7186351 3.0640073 3.2852342 3.811036 4.5107718 3.9593434
5.251489 2.3570561 -0.13183042 -1.6745975 -1.548959 -1.2623818 -0.9436091 -1.7177486
-0.4365636 -0.6880919 -1.6191914 -0.53867924 -1.0584064 -0.75676996 -0.0116167525 -0.054983687
0.6020414 0.29182714 1.1041694 0.9564374 0.4855623 0.7806792 1.4367126 1.1186812
0.70212996 0.7186246 0.814089 -1.0919902 0.6855588 5.572808 7.469971 0.7475372
-1.6754359 -2.540761 -3.5217147 -4.212596 -4.76441 -4.4219017 -3.5308359 -2.0779364
-2.2761075 -0.23654906 0.72578156 0.5606712 2.61631 2.0358782 1.8789855 2.4227755
2.3476458 2.17149 3.2765584 1.6054798 1.0013217 1.4343938 0.9044234 1.7774408
1.9771643 1.5568036 1.8302325 3.016186 3.1425452 0.81229705 -0.64325964 2.636365
1.800859 2.6309993 2.3252249 2.2686396 2.7910633 2.6577833 2.5785124 2.7857814
0.5474705 -0.2428942 0.0279501 0.47577316 0.36777875 1.1424853 -0.007967923 -0.36844265
-2.3651571 -0.4503548 0.10787544 0.09567677 -0.045772098 -0.1009583 -0.09186893 1.796982
-1.1565208 -0.012389808 -1.0513129 -1.9912018 -0.9174399 1.0871676 1.3244104 0.3561226
0.05684054 0.42401367 -0.33622244 -0.32044476 -1.167459 -0.043482687 0.4594547 1.3398298
0.3585567 -0.08650844 0.20141031 0.011045427 0.09157544 0.12967095 -0.056220155 -0.03841649
-0.14961007 0.73354906 -0.19950078 0.07187395 -0.032468278 -0.12697814 0.06579591 0.025342217
-0.14122045 -0.05190334 -0.0598343 -0.28571555 0.3729704 1.6230257 0.91626716 -0.6123012
0.38831827 0.57712823 0.99713117 1.1522051 1.1966751 1.0278869 1.155677 1.2669039
2.4145985 3.0547452 -4.9186606 -5.885227 -0.62020594 2.7005892 4.7821774 6.7508965
4.231106 3.5172288 3.601558 1.9356164 1.0909133 0.79851854 0.4876299 0.6601407
1.2563608 1.6875002 1.3188481 0.48934782 -2.3999755 -2.2677932 -0.9708142 -1.3641703
1.270134 0.98627 1.619933 0.8870493 0.8583893 1.8458222 2.5085921 1.0411037
1.6611346 1.6204169 1.6110489 2.7684076 1.9424127 1.4721559 2.7341835 2.6602101
0.726433 0.37287387 0.76932216 0.16214958 0.9570332 -0.3343995 -2.3202698 -3.2575424
-1.3917867 -1.7275664 -1.248672 -0.8245892 -0.35575914 0.6112393 1.7093005 3.4369092
7.9969964 7.7426324 3.2545724 0.07930219 -0.9366098 0.95843446 -0.6972912 3.3830025
10.839702 12.62051 10.197973 6.6593113 4.00259 -3.9247108 -6.021399 0.33066013
-0.3221025 -0.53298646 -0.9364732 -1.8021939 3.4992886 3.4130542 3.3826623 3.2914035

weight_hh_l0 f4 [12, 4]
00000000: 8c20 a83f e3dd 563f 3a08 0dbe ee92 6140
00000010: 6ee1 98bf b802 5a40 32a4 89c0 9e79 2b40
00000020: 7629 38c0 a4d3 0dc0 3e8a 87c0 6c47 c0bf
00000030: 032a b1c0 043f 99c0 c520 463f b758 58c0
00000040: 0c2a 973f 20ae bcbd 7809 1ec0 a9bc 4e40
00000050: 997a 75bf 29a9 bb3d 6e1b 1440 171f 97c0
00000060: da0d c1bf 182d e8bf bb9a 83c0 9916 d0c0
00000070: 2203 98c0 5982 323f 3b5f 9a3f 18f9 a3bb
00000080: 1e59 f940 9c9e 63bf e9aa 4dc0 3935 7141
00000090: 5a9b 1641 2ad2 4e40 9311 bdc0 aa9c 0a40
000000a0: 378d e040 0cae 3fc0 735a 64be e1f7 943f
000000b0: f753 7bc1 ee53 2d40 d52b 94bf 2002 03c1
1.3134933 0.8393232 -0.1377267 3.5245929 -1.1943796 3.406416 -4.3012934 2.679298
-2.8775306 -2.2160425 -4.2356253 -1.5021796 -5.5363784 -4.7889423 0.7739375 -3.3804147
1.1809707 -0.09212899 -2.469328 3.230265 -0.95890194 0.09163124 2.3141742 -4.722545
-1.5082352 -1.8138762 -4.112638 -6.5027585 -4.7503824 0.69730145 1.2060312 -0.0050040595
7.7921286 -0.88913894 -3.2135565 15.075494 9.412928 3.2315774 -5.9083953 2.165812
7.017238 -2.994998 -0.22300129 1.1638147 -15.707999 2.7082477 -1.1575876 -8.188019

bias_ih_l0 f4 [12]
00000000: 11ea e13f f9c2 b13f 2e77 a5bf f53e abc0
00000010: 8d9a 83be 905a 4540 103e d6bf 2dc6 d540
00000020: 5492 7c40 3709 08c1 a97d e3c0 a4e0 58c1
1.7649556 1.3887626 -1.2926996 -5.351435 -0.2570385 3.0836525 -1.673769 6.6804414
3.9464312 -8.50225 -7.1090894 -13.554844

bias_hh_l0 f4 [12]
00000000: ffee 1e40 7453 983f 04d4 82bf 57f9 a5c0
00000010: 815b d3be 78d1 6540 11b1 e0bf 6d8c bc40
00000020: cbfc 0140 ecf0 fb40 fb45 3dbf cbed 7dc1
2.4833372 1.1900468 -1.0220952 -5.186687 -0.4128075 3.59091 -1.7554036 5.892142
2.0310543 7.8731594 -0.73934907 -15.870555

weight f4 [10, 4]
00000000: aa22 29bf caad 2a41 e9da cd3f 0e27 a0c0
00000010: 9ff7 61bf b98f 1cc1 eb25 a5c0 0452 fc40
00000020: cbf3 39c0 5a9d 563d 35e7 873f 8cd8 75c0
00000030: 6fa6 373f ee18 d4bf c03c 6c40 55de a1c0
00000040: 009b e93f f58f 7dbe 3126 90c0 ec7e da3f
00000050: 6d32 f73e 89b1 81bf 76e2 2a40 43c6 d0bf
00000060: a038 37c1 e456 9740 a409 1940 c728 a53e
00000070: 1f61 b040 93c2 abc0 d58c 5ebf d18f b240
00000080: edc0 ed3f 8522 a640 9719 843f a4b4 1ec0
00000090: f7ee a740 7887 79bf 0696 1ec0 31e6 4540
-0.6606852 10.667429 1.6082431 -5.0047674 -0.88268465 -9.785089 -5.1608787 7.8850117
-2.905505 0.052396156 1.0617434 -3.841342 0.7173833 -1.6570108 3.691208 -5.05839
1.8250427 -0.24761946 -4.504662 1.7069983 0.4828066 -1.0132304 2.670072 -1.6310505
-11.451324 4.729357 2.3912134 0.32257673 5.5118556 -5.3675017 -0.8693364 5.5800557
1.8574501 5.191714 1.0320309 -2.4797754 5.2479205 -0.97472334 -2.4779067 3.0921748

bias f4 [10]
00000000: 5e71 23c0 52b2 16c0 72c1 1fc0 420c 953f
00000010: 3139 44be 0d19 5a40 cf77 77c0 e864 4b40
00000020: b5e3 e83f 4976 1040
-2.5537944 -2.3546338 -2.496182 1.1644366 -0.19162442 3.407779 -3.8666875 3.1780338
1.8194491 2.2572196
