model/new/4_lstm.model (torch_old, 13547 bytes, 6 tensors)

weight_ih_l0 f4 [16, 28]
-0.8828311 -1.5243601 -0.104437456 -0.5939499 -0.14944412 0.25381762 0.026718201 0.20250416
-0.21645948 1.3402264 -0.5003164 0.14554985 0.76923865 0.6657504 0.98863816 0.48780057
0.064344466 0.6967465 0.6921609 0.598822 1.3221912 0.34523186 0.22576053 -0.27076048
-0.16928911 -0.9323367 -0.9723538 -0.7387466 -1.0649649 -0.25422764 0.34531116 4.354848
0.5713823 -0.22542514 -0.33024788 -0.7381495 -0.8058996 -0.09922378 -0.14864697 -0.9754934
0.1684664 -1.6320518 -0.91235423 -1.5864791 0.19434054 0.65743244 -0.13282014 0.26154816
0.59043896 0.118284725 0.4858115 0.021160446 -0.016142482 -0.41915515 -0.10543602 -0.11793219
-0.31186464 -0.5858571 1.0812223 1.1504751 -1.5886854 -3.2488446 -2.9506187 -2.672428
-0.00045216264 -1.0161072 0.21762164 -0.12820756 0.33046412 -3.0414653 -2.2045245 -1.7584118
-0.9963705 1.0007572 0.1703152 1.6270304 2.541863 2.9381936 5.341389 4.143388
2.427868 0.14295886 -0.06345075 -0.4486126 1.5776215 0.96582156 0.10074872 -0.028493427
-0.46228984 -0.56749475 -1.093246 -1.6713308 -1.5951072 -1.1844112 -0.36056444 -0.38241336
0.4693806 -0.3857233 -1.456925 -2.4603565 -4.7937207 -4.610998 -5.5842624 -5.3276496
-5.897763 -5.177551 -4.0143056 -3.759598 -2.4925196 -0.41050133 0.7657742 1.6846634
-1.6615862 -2.557847 -1.123891 -0.89539856 -1.3258313 -0.9179727 -0.73094666 -1.7844794
-1.587107 -1.5806148 -0.5755855 -1.6154115 -1.371648 -1.2035683 -1.0121607 0.3055383
-0.87908477 -0.4186897 -1.0410478 -1.5312723 -0.7144486 -1.1618167 -0.32807836 -1.2645291
-0.38369104 -0.1983911 -2.2868476 -2.4714139 -1.3781109 -1.1245707 -0.2914543 1.2516847
1.4245543 1.9134448 1.490434 2.8215904 2.2578354 1.4343015 2.2100632 1.5878481
5.286412 2.4321818 -0.7451493 -3.337959 -0.5738136 0.97095424 0.78234375 -0.8924567
-1.1908485 -1.7086276 -2.659214 -1.4548432 -0.66203046 -0.222783 -0.43394864 -1.2118824
-1.2360014 -0.9706535 0.2771452 -0.21670605 0.003817682 0.31343338 0.5054836 0.45086405
-0.05997784 0.35745853 -0.01164321 -0.014107617 0.4133367 0.47328255 0.70831424 0.43904763
-0.19417368 -0.49490085 -0.60134286 -0.65241265 -0.39697132 -0.13439378 -0.52771145 -0.57273716
-1.4464033 -1.1925746 0.06391082 -1.1800455 -1.738321 -1.6143975 0.54666406 -1.1564412
0.98414946 2.637201 1.8822653 3.0019047 2.5863183 3.0967817 3.960733 3.4367533
3.1384034 1.441913 1.9363172 1.3073839 -0.404964 -0.66875327 -0.3990498 0.26954597
-0.08644029 -0.115967125 0.14760776 0.52743536 -0.24098499 0.17671448 -0.9190853 -2.2232847
1.6168047 1.0120486 0.8923003 0.9275953 0.6204027 -1.237965 -1.6700704 -2.4512973
-2.4801972 -2.7975636 -1.1717163 -0.9415774 -1.7452643 -2.4842427 -2.1031106 -2.3301127
-1.9411637 -1.6516355 -2.483447 -1.7025244 -1.0827874 -1.7771125 -1.4451076 -1.46711
-0.5485798 1.6914032 1.7528672 1.2435391 -2.5919702 -2.3865347 -1.355355 -0.11611156
00000000: 3801 62bf 3b1e c3bf 4ee3 d5bd 1a0d 18bf
00000010: e107 19be 62f4 813e 21e0 da3c 405d 4f3e
00000020: 8ea7 5dbe 8a8c ab3f bc14 00bf 050b 153e
00000030: d3ec 443f 9e6e 2a3f 6417 7d3f ffc0 f93e
00000040: 08c7 833d fb5d 323f 7531 313f 664c 193f
00000050: 903d a93f 3bc2 b03e c52d 673e 1ea1 8abe
00000060: 205a 2dbe 9ead 6ebf 2eec 78bf 7f1e 3dbf
00000070: c550 88bf 202a 82be a0cc b03e ea5a 8b40
00000080: 1c46 123f d9d5 66be 4016 a9be 5ef7 3cbf
00000090: 704f 4ebf d635 cbbd e936 18be efb9 79bf
000000a0: 7582 2c3e 13e7 d0bf 0c90 69bf bf11 cbbf
000000b0: 3501 473e 7e4d 283f 0102 08be a4e9 853e
000000c0: 0227 173f 433f f23d 49bc f83e ac58 ad3c
000000d0: 3d3d 84bc 819b d6be d7ee d7bd 6f86 f1bd
000000e0: b9ac 9fbe bbfa 15bf 7e65 8a3f c542 933f
000000f0: 0b5a cbbf 12ed 4fc0 f0d6 3cc0 0f09 2bc0
00000100: 3e10 edb9 cd0f 82bf 35d8 5e3e d848 03be
00000110: 9832 a93e 5ea7 42c0 ee16 0dc0 a313 e1bf
00000120: 2312 7fbf d018 803f 1c67 2e3e 8842 d03f
00000130: e2ad 2240 5d0b 3c40 a9ec aa40 a296 8440
00000140: 3062 1b40 cf63 123e 78f2 81bd 8db0 e5be
00000150: 80ef c93f 1540 773f 5855 ce3d 0c6b e9bc
00000160: 41b1 ecbe 5647 11bf 7cef 8bbf 2bee d5bf
00000170: 792c ccbf c99a 97bf e79b b8be afcb c3be
00000180: a752 f03e 867d c5be 857c babf 7b76 1dc0
00000190: 2966 99c0 4c8d 93c0 47b2 b2c0 1b7c aac0
000001a0: 79ba bcc0 7fae a5c0 3175 80c0 419d 70c0
000001b0: 7185 1fc0 3b2d d2be c709 443f 0da3 d73f
000001c0: dbae d4bf c4b3 23c0 a9db 8fbf d738 65bf
000001d0: d7b4 a9bf 4200 6bbf 521f 3bbf d269 e4bf
000001e0: 5226 cbbf 9651 cabf 9259 13bf cec5 cebf
000001f0: 2992 afbf 870e 9abf 7b8e 81bf 846f 9c3e
00000200: b30b 61bf 7f5e d6be 0e41 85bf bb00 c4bf
00000210: 1ae6 36bf 69b6 94bf e3f9 a7be 17dc a1bf
00000220: 2773 c4be 0927 4bbe b65b 12c0 a52b 1ec0
00000230: f065 b0bf eff1 8fbf 7f39 95be 3437 a03f
00000240: cc57 b63f c2eb f43f 8bc6 be3f f094 3440
00000250: 6080 1040 3197 b73f ad71 0d40 9b3e cb3f
00000260: 492a a940 dea8 1b40 1bc2 3ebf 1fa1 55c0
00000270: 73e5 12bf 7590 783f ae47 483f 0b78 64bf
00000280: b96d 98bf 4fb4 dabf 9030 2ac0 4d38 babf
00000290: d47a 29bf 3a21 64be 842e debe f61e 9bbf
000002a0: 4b35 9ebf bf7c 78bf fae5 8d3e 31e8 5dbe
000002b0: 1332 7a3b 577a a03e 6067 013f a7d7 e63e
000002c0: 53ab 75bd ce04 b73e 2ac3 3ebc a223 67bc
000002d0: dea0 d33e 1752 f23e 1554 353f daca e03e
000002e0: 77d5 46be a563 fdbe 9bf1 19bf 8404 27bf
000002f0: d33f cbbe 869e 09be 1918 07bf e79e 12bf
00000300: be23 b9bf 49a6 98bf ade3 823d bb0b 97bf
00000310: 4d81 debf 94a4 cebf 2df2 0b3f 4406 94bf
00000320: 38f1 7b3f e7c7 2840 12ee f03f 351f 4040
00000330: 3d86 2540 ac31 4640 a67c 7d40 c4f3 5b40
00000340: 9adb 4840 9b90 b83f 3ed9 f73f 5b58 a73f
00000350: 7157 cfbe 6a33 2bbf 4150 ccbe ee01 8a3e
00000360: 9b07 b1bd 2c80 edbd 7d26 173e 0106 073f
00000370: c5c4 76be a4f4 343e 2d49 6bbf 4c4a 0ec0
00000380: 75f3 ce3f cf8a 813f cb6d 643f e376 6d3f
00000390: b6d2 1e3f a375 9ebf dec4 d5bf 0ee2 1cc0
000003a0: 8dbb 1ec0 480b 33c0 cdfa 95bf 370b 71bf
000003b0: d264 dfbf d5fd 1ec0 5d99 06c0 9120 15c0
000003c0: 0d78 f8bf cb68 d3bf ccf0 1ec0 52ec d9bf
000003d0: c798 8abf 6c78 e3bf 49f9 b8bf 43ca bbbf
000003e0: ba6f 0cbf e67f d83f f45d e03f 4a2c 9f3f
000003f0: d7e2 25c0 fcbc 18c0 467c adbf e6cb edbd

weight_hh_l0 f4 [16, 4]
1.8127738 -2.2446434 -2.9977903 -5.2808657 0.57015604 -5.4669614 -8.760948 4.5180173
-6.4062505 3.3445888 -1.0154675 8.77479 0.78119093 -11.106645 -6.0551367 1.9811945
9.456311 -8.694085 -4.1745524 -0.41366848 0.9939708 5.820292 -4.018438 1.7392793
-0.014915372 -0.07484272 5.0207176 6.1420274 7.3926167 4.3049097 -1.3182002 5.1403832
0.15874818 -2.043295 -0.54999936 -1.6132753 -5.745286 -0.3326525 -8.03463 0.41967514
1.1004426 0.61893666 -0.21582787 -0.9469412 13.105426 -3.4061215 1.076236 0.7758138
0.9880355 -3.1480865 -0.063502155 -2.4918196 -5.880276 1.5481577 1.458701 -0.0067746565
-0.76144063 2.4554646 0.47361007 6.2258472 -2.713328 -0.6514219 1.7938317 -5.495462
00000000: f908 e83f 3da8 0fc0 ccdb 3fc0 dafc a8c0
00000010: bff5 113f 59f1 aec0 d82c 0cc1 9993 9040
00000020: 0100 cdc0 be0d 5640 d7fa 81bf 8a65 0c41
00000030: 21fc 473f d1b4 31c1 aec3 c1c0 c897 fd3f
00000040: 0d4d 1741 f91a 0bc1 ef95 85c0 5bcc d3be
00000050: df74 7e3f d53f ba40 0b97 80c0 b4a0 de3f
00000060: 9b5f 74bc 2447 99bd b8a9 a040 7d8b c440
00000070: 5190 ec40 d2c1 8940 c9ba a8bf 057e a440
00000080: e28e 223e 58c5 02c0 c2cc 0cbf ce7f cebf
00000090: 62d9 b7c0 6e51 aabe d88d 00c1 a9df d63e
000000a0: 4edb 8c3f a272 1e3f fb01 5dbe bd6a 72bf
000000b0: d3af 5141 e5fd 59c0 1ac2 893f bc9b 463f
000000c0: e5ef 7c3f 407a 49c0 6b0d 82bd f979 1fc0
000000d0: 392b bcc0 082a c63f b7b6 ba3f f0fd ddbb
000000e0: c6ed 42bf 5526 1d40 057d f23e 243a c740
000000f0: 2aa7 2dc0 96c3 26bf 479c e53f d3da afc0

bias_ih_l0 f4 [16]
2.3291998 1.6971227 0.9667648 -3.5029998 4.350614 2.367865 1.6768775 4.694696
-3.7295501 5.807949 -3.1106176 -0.13094032 2.4726272 0.68988127 0.08527907 2.0402255
00000000: 9c11 1540 513b d93f e67d 773f 2631 60c0
00000010: 3b38 8b40 1a8b 1740 eca3 d63f f33a 9640
00000020: f3b0 6ec0 b8da b940 5c14 47c0 3815 06be
00000030: 863f 1e40 0f9c 303f cba6 ae3d 0e93 0240

bias_hh_l0 f4 [16]
2.5097876 1.0409297 0.7855966 -2.875609 4.9650006 2.8461397 1.8712587 4.2452054
-2.9168 6.1743517 -3.6712608 0.46401596 2.9503677 0.71055686 -0.3670805 1.834751
00000000: 5ca0 2040 2f3d 853f dc1c 493f fa09 38c0
00000010: 49e1 9e40 2727 3640 6885 ef3f b9d8 8740
00000020: daac 3ac0 4a94 c540 f0f5 6ac0 8093 ed3e
00000030: d3d2 3c40 0ee7 353f faf1 bbbe 1fd9 ea3f

weight f4 [10, 4]
2.6740718 0.94180334 -5.3530884 0.32163215 -0.7368069 -7.074482 6.281043 0.47109678
1.5377494 -2.148256 1.6882464 1.9551032 1.3857774 1.0182829 0.3356012 -2.4399545
-2.1317325 4.7788105 -0.3804558 1.5018853 1.1781465 0.57402605 0.21762468 -1.1219652
2.1891334 -8.145583 4.2725353 2.7602587 -3.4024534 -0.4407123 -2.8762357 -2.0376952
0.4825618 4.520575 -2.8932421 0.716091 -2.8805063 5.3657203 -2.4058268 -2.6182103
00000000: fe23 2b40 061a 713f 804c abc0 f8ac a43e
00000010: 619f 3cbf 2862 e2c0 4efe c840 9933 f13e
00000020: f9d4 c43f 077d 09c0 7518 d83f d240 fa3f
00000030: 2761 b13f 1857 823f ecd3 ab3e 3728 1cc0
00000040: 4e6e 08c0 04ec 9840 1acb c2be c73d c03f
00000050: 81cd 963f 5ff3 123f 01d9 5e3e 8e9c 8fbf
00000060: c31a 0c40 4f54 02c1 9cb8 8840 14a8 3040
00000070: ccc1 59c0 0ba5 e1be 3f14 38c0 9969 02c0
00000080: 5712 f73e 8da8 9040 e12a 39c0 bd51 373f
00000090: 375a 38c0 fbb3 ab40 11f9 19c0 c290 27c0

bias f4 [10]
-1.8848025 1.9283073 2.6349251 -0.41826323 -1.7071154 0.66617954 3.082681 1.3994216
-1.1180633 -3.4265938
00000000: 3541 f1bf c6d2 f63f 9da2 2840 9926 d6be
00000010: c282 dabf be8a 2a3f a54a 4540 3f20 b33f
00000020: b31c 8fbf 504d 5bc0
