model/new/4_lstm.model (torch_old, 13547 bytes, 6 tensors)

weight_ih_l0 f4 [16, 28]
-2.0046537 -2.4474964 -2.0108604 -1.2932342 -0.41320717 0.9672807 0.7573419 0.25473362
1.2158668 3.3960755 2.2744 1.9262244 2.8699398 4.482287 4.623905 0.11484117
-2.167198 2.2891243 1.821477 -0.47952658 -2.5679572 -1.9624453 -3.2881062 -3.20891
-1.0953304 -1.1957289 -1.501662 -1.9698682 -0.08943914 0.6923466 0.7509156 0.0022758956
-0.716057 -0.81752324 -0.6209177 -1.3013277 -1.0412817 -2.1158125 -1.6831669 -1.8032483
-0.88952774 -2.009452 -1.3199917 2.1784422 0.21225591 -5.7045603 4.006106 1.1891758
2.665731 1.0231178 0.62483126 0.67330086 1.069919 -1.2446071 0.13278186 0.73519677
0.056544516 -0.24764143 0.59610724 -0.69852835 -0.5046689 0.21404238 0.07480563 -0.28464463
-0.23829468 -0.49244314 -0.34026572 -0.23505177 -0.2208452 0.26155302 -2.2892504 0.54819864
1.2646583 0.14912705 1.4726408 1.4978138 -0.25424165 -0.35418686 -0.019079711 0.71054274
-0.21957996 -0.5419124 -0.50596064 -0.060973912 0.92167103 0.3444582 0.98427725 3.7804267
-1.5162143 -2.5217836 -1.542461 -2.441735 -2.0257525 -1.9548042 -3.223769 -3.295256
-1.7146567 -3.5141737 -0.93416756 -0.2218131 -0.053009797 0.34603664 0.65564674 0.73284435
-0.305589 0.6840002 -0.12133244 -0.08378837 0.8479908 0.73436284 2.000405 1.3402171
-2.5550635 -3.3129456 -2.6343489 -2.4736698 -0.19491984 -0.7508132 -0.51746184 -1.7481656
-1.3885773 -1.0835655 -2.0875275 -2.0025613 -1.9014333 -0.83260757 -0.57395583 -0.7963462
-2.4162521 -0.82357234 -0.9071736 0.9079684 0.8908436 1.0499433 1.0589128 -0.3546541
0.079411894 -0.79385567 -3.5120232 -3.4312 0.11964905 0.25188115 0.26376563 -0.22874683
0.9868382 1.6651832 1.3212256 1.8635172 0.9478787 1.8060195 1.2416266 0.6586846
0.62046283 -2.4161153 0.35076883 0.25258583 0.69342124 0.26928616 -0.6446066 -0.95585436
-0.51439863 -0.510683 -0.6825596 -1.2917784 -0.89281666 -0.13324025 0.09143993 0.26513782
-0.86273295 -0.9228727 0.62571114 0.12980895 -0.37825012 0.07720356 -0.17237447 0.012171614
0.49264002 -0.07191684 -0.050910227 -0.60693765 -0.20569192 -0.002497533 -0.042422604 0.12006195
-0.3512046 3.5844812 -2.5088415 -1.6683618 -0.9560875 -1.0621487 -0.28998742 -1.4419923
-0.20305026 -0.9269227 -0.40638217 -0.73904145 -2.2464354 -1.5470661 0.08066263 -1.1853207
1.0684699 1.5723317 1.4061571 1.8036108 1.524967 3.1247833 2.8639245 2.8532696
0.24344586 -0.13773431 0.4677397 -0.20832388 0.4007989 0.43600264 0.03145518 -0.0020834769
0.4765514 0.72298086 0.40562516 0.62978244 1.213852 -0.2350129 -0.812297 -2.0556424
1.8802985 1.2760496 1.3068768 0.6780989 -0.86440396 -0.6988968 -0.30785644 -1.3748549
-0.5239068 -1.3947428 -1.7241799 -4.303701 -0.6559509 -2.1268668 -3.110358 -2.4178534
-2.7845454 -1.8208793 -4.5438266 -3.3314488 -2.8440967 -3.5469596 -2.734534 -3.164055
-1.6430395 3.158072 4.0141797 2.5115042 -1.8653919 -1.6779064 -1.750351 -1.6467448
00000000: 3f4c 00c0 c8a3 1cc0 f0b1 00c0 b388 a5bf
00000010: e48f d3be b59f 773f 29e1 413f 726c 823e
00000020: 86a1 9b3f 4d59 5940 c58f 1140 858e f63f
00000030: 18ad 3740 e56e 8f40 08f7 9340 d931 eb3d
00000040: 5fb3 0ac0 0381 1240 2926 e93f 8284 f5be
00000050: 6959 24c0 6831 fbbf 5570 52c0 c85e 4dc0
00000060: c933 8cbf a50d 99bf 7636 c0bf a424 fcbf
00000070: de2b b7bd a03d 313f 013c 403f 3127 153b
00000080: 834f 37bf 3449 51bf 76f4 1ebf e891 a6bf
00000090: b848 85bf 7969 07c0 0372 d7bf d7d0 e6bf
000000a0: 17b8 63bf dd9a 00c0 7df5 a8bf 996b 0b40
000000b0: 9d59 593e c28b b6c0 0532 8040 ea36 983f
000000c0: 569b 2a40 86f5 823f f1f4 1f3f 725d 2c3f
000000d0: 1bf3 883f 494f 9fbf f8f7 073e db35 3c3f
000000e0: 399b 673d b795 7dbe 7c9a 183f c1d2 32bf
000000f0: fb31 01bf ed2d 5b3e b233 993d f1bc 91be
00000100: 8503 74be 8221 fcbe 4f37 aebe 69b1 70be
00000110: 3e25 62be 47ea 853e 1483 12c0 bf56 0c3f
00000120: 53e0 a13f c3b4 183e 7e7f bc3f 5db8 bf3f
00000130: f62b 82be fb57 b5be 0e4d 9cbc 21e6 353f
00000140: 92d9 60be c5ba 0abf a386 01bf c8bf 79bd
00000150: a2f2 6b3f d35c b03e 98f9 7b3f 83f2 7140
00000160: 4f13 c2bf e764 21c0 5d6f c5bf 6345 1cc0
00000170: eea5 01c0 0637 fabf 3b52 4ec0 79e5 52c0
00000180: df79 dbbf 39e8 60c0 9b25 6fbf f922 63be
00000190: cd20 59bd b72b b13e 77d8 273f b09b 3b3f
000001a0: 2976 9cbe a31a 2f3f 247d f8bd 3d99 abbd
000001b0: ed15 593f 34ff 3b3f a306 0040 3c8c ab3f
000001c0: 2986 23c0 4d07 54c0 2c99 28c0 9b50 1ec0
000001d0: 1199 47be 4b35 40bf 6178 04bf e4c3 dfbf
000001e0: e7bc b1bf 46b2 8abf 0d9a 05c0 f729 00c0
000001f0: 2b62 f3bf c525 55bf c5ee 12bf 58dd 4bbf
00000200: e0a3 1ac0 a3d5 52bf 873c 68bf 9e70 683f
00000210: 530e 643f 8b64 863f 748a 873f 3995 b5be
00000220: b4a2 a23d 203a 4bbf fdc4 60c0 c898 5bc0
00000230: 900a f53d 91f6 803e 4a0c 873e 9c3c 6abe
00000240: 6ea1 7c3f b924 d53f ec1d a93f bb87 ee3f
00000250: 2ea8 723f a62b e73f 9fed 9e3f 8e9f 283f
00000260: a7d6 1e3f a2a1 1ac0 f997 b33e ee52 813e
00000270: 0e84 313f e0df 893e f004 25bf dfb2 74bf
00000280: a1af 03bf 1fbc 02bf 3abc 2ebf ff58 a5bf
00000290: a28f 64bf 2270 08be dc44 bb3d 25c0 873e
000002a0: 11dc 5cbf 6341 6cbf 9b2e 203f a3ec 043e
000002b0: 00aa c1be e61c 9e3d ef82 30be 736b 473c
000002c0: 503b fc3e 2349 93bd 3e87 50bd 4460 1bbf
000002d0: e7a0 52be a7ad 23bb 53c3 2dbd 0ae3 f53d
000002e0: 17d1 b3be 2468 6540 dc90 20c0 e18c d5bf
000002f0: 27c2 74bf 7df4 87bf 3b79 94be 3493 b8bf
00000300: 68ec 4fbe ce4a 6dbf 5311 d0be d231 3dbf
00000310: 99c5 0fc0 4306 c6bf 7332 a53d 97b8 97bf
00000320: 9fc3 883f 2a42 c93f f5fc b33f b8dc e63f
00000330: 1e32 c33f 73fc 4740 8a4a 3740 f89b 3640
00000340: df49 793e 390a 0dbe 947b ef3e db52 55be
00000350: 8335 cd3e bd3b df3e 26d7 003d f18a 08bb
00000360: 8cfe f33e 4615 393f 1aae cf3e 6c39 213f
00000370: 815f 9b3f 39a7 70be b2f2 4fbf a58f 03c0
00000380: 9fad f03f 9855 a33f bd47 a73f e497 2d3f
00000390: 9449 5dbf e7ea 32bf 5c9f 9dbe 3ffb afbf
000003a0: c21e 06bf ef86 b2bf edb1 dcbf ebb7 89c0
000003b0: 66ec 27bf 961e 08c0 1b10 47c0 1cbe 1ac0
000003c0: fe35 32c0 9312 e9bf 0767 91c0 7536 55c0
000003d0: ae05 36c0 6301 63c0 9b02 2fc0 e17f 4ac0
000003e0: 1e4f d2bf da1d 4a40 2974 8040 7cbc 2040
000003f0: 29c5 eebf a3c5 d6bf 800b e0bf 89c8 d2bf

weight_hh_l0 f4 [16, 4]
-16.874584 1.476685 -15.140533 4.202755 0.0607577 0.110726506 -7.473956 2.8911228
1.052947 3.4377632 -1.0161043 5.6135235 -1.8412569 0.7556565 6.598138 7.165073
9.4244175 -15.301627 -1.2227899 1.8602422 -2.1366997 2.2865345 -4.8703737 -2.3489718
-0.003442055 9.259811 -1.8597672 2.6653643 6.0257907 1.5552738 -0.52720076 -11.904297
3.1766033 6.418613 -0.07163414 -0.5324046 -4.694823 1.5226618 -0.6398772 5.8148856
9.854927 -4.4567957 -2.9122524 -1.4323416 11.238911 0.008905979 8.273967 0.6633872
-1.3801159 -3.8984516 6.7624454 0.5468722 -1.7791784 3.1835873 -5.2222953 0.6644495
1.1624352 -4.0176682 0.7322176 0.73380566 0.42098477 -0.52993006 -0.52939767 -2.5620866
00000000: 26ff 86c1 0404 bd3f a03f 72c1 f87c 8640
00000010: 11dd 783d 94c4 e23d a62a efc0 2808 3940
00000020: f8c6 863f 5004 5c40 b50f 82bf fca1 b340
00000030: 4eae ebbf b472 413f f223 d340 4748 e540
00000040: 6aca 1641 77d3 74c1 6184 9cbf 6b1c ee3f
00000050: b0bf 08c0 9556 1240 1ada 9bc0 8e55 16c0
00000060: 1a94 61bb 3028 1441 da0c eebf 5495 2a40
00000070: 47d3 c040 3613 c73f a1f6 06bf 0078 3ec1
00000080: 784d 4b40 4765 cd40 ecb4 92bd ab4b 08bf
00000090: fd3b 96c0 95e6 c23f fece 23bf 8b13 ba40
000000a0: c8ad 1d41 129e 8ec0 5862 3ac0 f856 b7bf
000000b0: 94d2 3341 62ea 113c 2b62 0441 bed3 293f
000000c0: a3a7 b0bf 3b80 79c0 f465 d840 d1ff 0b3f
000000d0: 1ebc e3bf e5bf 4b40 0b1d a7c0 5d19 2a3f
000000e0: adca 943f bd90 80c0 9d72 3b3f b0da 3b3f
000000f0: 518b d73e 7fa9 07bf 9b86 07bf 3af9 23c0

bias_ih_l0 f4 [16]
4.9365335 -0.59373474 0.07933599 -1.9915521 6.75694 -1.1553949 0.8322995 5.992331
-4.3505144 4.0783052 0.04758903 0.963184 4.6080475 -0.92144245 -0.6099006 4.1384244
00000000: 15f8 9d40 00ff 17bf e87a a23d 2eeb febf
00000010: da38 d840 fbe3 93bf 9411 553f 2dc1 bf40
00000020: 6a37 8bc0 7a81 8240 b7ec 423d 3a93 763f
00000030: 2075 9340 a7e3 6bbf 7222 1cbf f96d 8440

bias_hh_l0 f4 [16]
5.1171117 -1.2499146 -0.101838075 -1.3641461 7.3713446 -0.677119 1.0266961 5.542853
-3.537776 4.4447174 -0.51304406 1.55814 5.085784 -0.9007667 -1.0622696 3.9329925
00000000: 61bf a340 34fd 9fbf 7b90 d0bd 579c aebf
00000010: 0ee2 eb40 ac57 2dbf c76a 833f 0d5f b140
00000020: ec6a 62c0 203b 8e40 db56 03bf 2271 c73f
00000030: bebe a240 a598 66bf 73f8 87bf 26b6 7b40

weight f4 [10, 4]
4.9227962 0.67343116 -2.9046953 7.0123124 -2.8598247 1.4571514 3.4109118 -0.16815302
0.88805676 1.8039573 3.516494 -5.5420747 0.4952643 -1.131183 -0.7280603 -4.1184163
-1.3361326 3.3059552 0.7118735 -0.9848305 1.0542923 -1.2311388 -1.4886206 -0.05571154
2.1648545 -1.2194798 0.7243919 4.1841507 -3.871494 -4.235578 0.001068636 -4.19957
1.5743972 2.3191397 -1.3160332 3.7810926 -2.7362647 -2.3521326 -3.0413098 -0.40054065
00000000: 8c87 9d40 fc65 2c3f 87e6 39c0 dd64 e040
00000010: 5e07 37c0 f083 ba3f 614c 5a40 4e30 2cbe
00000020: b057 633f 13e8 e63f 3d0e 6140 ad58 b1c0
00000030: 4893 fd3e 9bca 90bf 2962 3abf 11ca 83c0
00000040: 6506 abbf c594 5340 573d 363f da1d 7cbf
00000050: 0df3 863f f595 9dbf 1f8b bebf c931 64bd
00000060: fa8c 0a40 ea17 9cbf bf71 393f 90e4 8540
00000070: 8fc6 77c0 db89 87c0 7911 8c3a e162 86c0
00000080: d985 c93f c96c 1440 c773 a8bf 6cfd 7140
00000090: f61e 2fc0 5789 16c0 d2a4 42c0 aa13 cdbe

bias f4 [10]
-3.4898286 1.0112554 0.16746409 -0.35594296 0.66272163 1.2786546 1.6097926 -0.35460636
0.9326869 -0.30547634
00000000: 5a59 5fc0 d170 813f b57b 2b3e 283e b6be
00000010: 20a8 293f f4aa a33f af0d ce3f f78e b5be
00000020: 92c4 6e3f 6567 9cbe
