model/new/64_gru.model (torch_old, 85310 bytes, 6 tensors)

weight_ih_l0 f4 [192, 28]
000000 51 c7 b2 3d 25 c5 05 bd 63 af 9f 3b df c1 ac 3d
       0.08729423 -0.032658715 0.0048732026 0.084354155
000010 5a e9 25 3c 97 27 8d 3e 24 7c 3b 3d 75 cd 58 3e
       0.010126436 0.27569267 0.045772687 0.21172126
000020 42 af 70 3e 96 6f 20 3e 77 3d 9e 3e b9 e6 65 3e
       0.23504356 0.15667567 0.3090627 0.22451295
000030 86 a0 50 be c9 f3 e7 be fb d8 ab bd f7 63 77 3d
       -0.20373735 -0.4530318 -0.08390995 0.06039807
000040 1c 43 18 3e 7f 52 d7 3d 48 06 31 3e 43 8d e7 3c
       0.1486935 0.10513782 0.17287552 0.028265601
000050 fc 93 07 3d b0 c4 8e 3d 23 cc 01 3e 98 f9 0d 3d
       0.033100113 0.06971109 0.12675528 0.03466186
000060 25 13 66 3c d6 d8 83 3d 78 f3 b6 3d 26 76 b3 3d
       0.01404265 0.064378425 0.08933157 0.087627694
000070 18 d7 a1 be 62 89 e3 bd 8b f4 3d be f1 54 75 bd
       -0.31609416 -0.11110188 -0.18550317 -0.05989546
000080 a2 79 26 3e 2f 95 fe 3e 66 9a 36 3f 5f e6 6e 3f
       0.16257337 0.49723193 0.71329343 0.9332027
000090 e5 5d b1 3f 34 16 ac be 95 f5 a8 be 4c 59 2f bf
       1.3856779 -0.3361069 -0.32999864 -0.6849563
0000a0 b5 91 b2 3d a1 e7 4e 3f 8c 4b 50 3f 1f 04 62 3f
       0.08719198 0.8082219 0.81365275 0.8828754
0000b0 b7 18 cf 3e 78 23 a2 bd 53 30 52 bf d9 80 b8 3c
       0.40448543 -0.079169214 -0.82104987 0.022522377
0000c0 75 6a 83 3e ef 25 89 3e 9d 9c ac bd 3e 1b 7c be
       0.25667158 0.26786754 -0.08428309 -0.24619767
0000d0 1c e3 1e be c8 95 4c be 32 cd b3 bd 1e 64 e4 bd
       -0.15516323 -0.19979012 -0.08779372 -0.11151908
0000e0 6c 8d df 3c 00 5b 5c bd bc 26 d9 3d 2b 9e 8b 3d
       0.027289115 -0.053797722 0.10603091 0.068172775
0000f0 92 7d 0f bd 1a 8e 1b bd 01 20 03 be 8e a9 6e be
       -0.035031863 -0.037977315 -0.12805177 -0.23306867
000100 03 1b 10 be 11 db 7c be f1 8b 36 bf 81 51 8b be
       -0.14072804 -0.24692942 -0.71307284 -0.2721062
000110 7b 93 09 bd 6d 7b f0 3d f4 7e 99 3e 04 e7 10 3f
       -0.033587914 0.117422916 0.2997967 0.566025
000120 ae 9b 7a 3f 44 95 cc 3e eb 5f 2a 3d ee b0 ec be
       0.978938 0.3995763 0.04159538 -0.46228737
000130 de 46 83 be dc 6a 37 be 7d c7 98 be 97 0a 47 bd
       -0.25640005 -0.17911857 -0.29839697 -0.048594084
000140 08 af bd bd ab 1d 83 bd d1 5f 8a 3c 26 68 35 3c
       -0.092619 -0.06402143 0.016891392 0.011072194
000150 81 21 71 bc d1 31 f7 bd 94 1d 18 be 1e 1a a5 bd
       -0.014717461 -0.120700486 -0.14855033 -0.08061622
000160 4f f9 c4 be 45 da f7 be ed 21 8d be 6a f2 70 bb
       -0.38471457 -0.48408714 -0.27564946 -0.0036765584
000170 4c 2c 85 3e ee 62 22 3f 46 ab 17 3f c7 00 b0 bd
       0.26010358 0.63432205 0.5924572 -0.08593898
000180 61 60 01 bf 18 23 d3 be 88 3e ab be 7a c6 7a bc
       -0.5053769 -0.41237712 -0.33446145 -0.01530611
000190 07 f4 92 3e 3c 34 d5 3e ac 93 f9 3e 52 ce a2 3e
       0.28701803 0.41641414 0.48745477 0.31798035
0001a0 37 f3 87 3d 4c 0f 63 3d 25 bf 27 3e b1 cb 86 bd
       0.066381864 0.05543451 0.1638151 -0.0658182
0001b0 d9 18 be 3d bf 1d f2 3c 8b 53 d5 bc ec 94 ff 3b
       0.09282083 0.0295552 -0.026040813 0.0077997353
0001c0 3c cc 26 3b 92 42 4f be ba 00 12 be 97 b9 70 3d
       0.0025451323 -0.20240238 -0.1425809 0.058770742
0001d0 31 39 05 3e 5d 1d 89 3e 59 f6 70 be a8 86 86 be
       0.13010098 0.26780215 -0.23531474 -0.2627461
0001e0 9a 6b 79 be b1 7d b2 3a be fd b6 3e f6 7c db 3e
       -0.24357453 0.0013617781 0.35740465 0.42868775
0001f0 13 88 2c 3f a7 81 a8 3e b7 e0 e0 be 7a 84 ff bd
       0.6739513 0.32911417 -0.43921444 -0.1247644
000200 1e cb 91 3d 5d a5 26 3e 2e 77 a4 be c5 66 37 3d
       0.0711882 0.16274019 -0.32122177 0.044775743
000210 d5 ea 38 bd 2f 3b f7 3d 24 cf fc 3e 24 e5 ea 3e
       -0.04514583 0.12071835 0.49376786 0.45877945
000220 09 5b f1 3d d5 a8 cb bc 6f 95 4b be bc 51 64 be
       0.11784942 -0.024860779 -0.19881223 -0.22296804
000230 82 3b e4 bd de 61 93 bd ff 5f 22 be 14 54 9d 3c
       -0.11144163 -0.07196401 -0.15856932 0.01920513
000240 3c 68 6f 3e c5 28 d0 3e 69 b0 1a 3f a5 6b 6d 3e
       0.23379606 0.40656105 0.6042543 0.23185594
000250 83 aa c0 bd 11 b4 bc 3d a2 94 10 3f 66 59 07 3f
       -0.094075225 0.092140324 0.56476796 0.52870786
000260 1a dd 02 3f aa 23 07 3f f6 7e 23 be 4a 50 ef be
       0.51118624 0.52788794 -0.159664 -0.46740943
000270 d3 03 c4 be ce c8 71 bd f4 de 37 be 10 af 17 3e
       -0.38284168 -0.059029393 -0.17956144 0.14812875
000280 a8 7a 0f bf 65 e4 21 bf 04 fb bf be f0 90 65 be
       -0.56046534 -0.6323913 -0.37496197 -0.2241857
000290 44 28 b0 be 5f ce 09 be d9 52 de bd 50 59 b2 bd
       -0.3440572 -0.1345763 -0.10855646 -0.08708441
0002a0 9f 83 1d 3d a8 34 ae 3d 6d 35 2a 3e 88 7a 9f 3e
       0.0384556 0.08506137 0.16621943 0.3114817
0002b0 bf 4a 7c 3e 74 49 09 3f ad f2 b5 3e fc 86 fc 3e
       0.24637888 0.53627706 0.3553671 0.49321735
0002c0 46 5a 23 3f 0f f5 25 3f 37 b7 f7 3e 85 42 0e 3e
       0.6380962 0.64827055 0.4838197 0.13892563
0002d0 9e 75 af bd a0 45 29 bc 8a 11 26 be 99 4d 52 ba
       -0.085673556 -0.010331541 -0.16217628 -0.0008022427
0002e0 95 21 ce bd e6 29 0a 3e 27 86 1e 3e b5 2c e9 3e
       -0.10064999 0.13492545 0.15480863 0.4554192
0002f0 1b de f1 3e 8a 4e 57 3c 08 3f 0e bd 81 4f a1 3c
       0.47239766 0.013141284 -0.03472808 0.01969123
000300 65 c1 81 3d 40 0c 4a 3d 14 d3 45 3e 20 21 5a 3d
       0.06335715 0.04932809 0.19318801 0.053254247
000310 93 96 8e 3d a0 e8 bd 3d c7 f2 87 3d 52 b7 3c be
       0.069623135 0.09272885 0.06638103 -0.18429306
000320 7d 1e d1 be 29 c4 b9 be 84 e8 7a be 06 72 0c bf
       -0.40843573 -0.3628247 -0.2450276 -0.54861486
000330 9f 65 6c be bb fd e4 be e2 3e c0 be 86 b9 9f be
       -0.2308564 -0.4472483 -0.37547976 -0.3119623
000340 58 70 3c 3f db 36 37 3f 4b bb 0b 3f 41 5c 8e 3d
       0.7360892 0.7156808 0.5458266 0.0695119
000350 50 7e a4 3c 7d f3 a5 be 92 18 fb be 24 9f cd be
       0.020079762 -0.3241233 -0.49042183 -0.40160477
000360 a3 ee 8f be 0e 70 00 bf 4c ce 1d be f6 27 12 bf
       -0.28111753 -0.5017098 -0.15410727 -0.57092226
000370 3e dc 26 bf c4 1a 38 bd d9 f1 23 be 43 e3 b3 bd
       -0.6517981 -0.0449474 -0.16010226 -0.08783581
000380 33 17 6e 3d 1b 26 c0 bd 9c 67 b8 bc 4b 7b a0 3d
       0.058127593 -0.09382268 -0.022510342 0.07836016
000390 c2 15 ad 3d e0 ca a5 bd c1 67 be be 96 f7 3f bf
       0.084514156 -0.08095336 -0.37188533 -0.7498716
0003a0 df 44 a0 bd d4 a3 ce be c9 11 e9 bd 23 0c 5c 3e
       -0.07825636 -0.40359366 -0.113803454 0.21489005
0003b0 f6 8e a7 3e 88 40 d9 3e f9 67 44 3f 0c a1 29 3f
       0.32726258 0.42432046 0.7672115 0.66261363
0003c0 5b 1e 4c 3d d2 e6 c2 bd a4 16 0c 3e fd d7 50 3d
       0.049833637 -0.09516682 0.13680512 0.050987232
0003d0 d5 3b 24 be 17 e6 24 3e b7 15 01 3d 2d 09 a0 bd
       -0.16038449 0.16103397 0.03151485 -0.0781425
0003e0 51 1b 30 bd 9b e9 89 3d 32 4c a3 3d 28 33 2a bd
       -0.0429948 0.0673401 0.079735175 -0.041552693
0003f0 99 33 eb bd 48 d3 68 bd f8 36 89 bd 4c dc eb bd
       -0.11484451 -0.05684212 -0.066999376 -0.11516628

weight_hh_l0 f4 [192, 64]
000000 62 59 e9 bd bd c4 89 bd ba 1d 47 3e ac e3 b8 bd
       -0.113940015 -0.06726978 0.19444934 -0.090278
000010 11 9c a3 bd fb ab 7c be 45 96 75 be 25 8f 5f be
       -0.07988752 -0.2467498 -0.23983105 -0.21831949
000020 3b 4e 95 3d 60 06 c7 3d dc b5 bc 3d 68 8a b2 3d
       0.07290312 0.09718013 0.092143744 0.08717805
000030 bf 9e 46 3d bc b4 5c 3e 0d ae 0a bf 6d 04 dc bd
       0.048491236 0.2155332 -0.5417183 -0.10743032
000040 7c d7 8c 3d 20 a5 cb bc 68 57 11 be 8d e8 99 3d
       0.06877038 -0.024859011 -0.14193499 0.07515059
000050 83 35 8b 3e e3 87 ae be 14 d1 10 3e 49 3e 30 3e
       0.27189264 -0.34088048 0.14142257 0.1721126
000060 e1 f7 02 3e 15 67 8a be 5a 55 b7 3d 4b ec e0 be
       0.12789871 -0.2703177 0.089518264 -0.43930277
000070 3a c1 6c 3d 13 fc 82 3d 2c 82 b6 3d e4 f1 53 3d
       0.057801463 0.063957356 0.08911547 0.051744357
000080 ce 59 82 3e 11 90 05 be 1d c5 9a bb 02 20 10 be
       0.2545914 -0.13043238 -0.0047232048 -0.1407471
000090 c8 eb ee bd ad 38 b5 3e 68 08 89 bd 04 0e ea 3e
       -0.116660655 0.35394803 -0.066910565 0.45713818
0000a0 bd f1 a3 3e 4d 4b f6 be 42 ae ab 3e 21 05 4b be
       0.3202037 -0.48104325 0.33531386 -0.19826175
0000b0 e7 d4 d0 be fe 4f 56 bd b9 cb 2f be 5f 43 b6 3c
       -0.40787432 -0.05232238 -0.17167558 0.022248922
0000c0 98 4a 3d 3e 6c be 6e bb 3f bc 98 3d 40 6f e9 3e
       0.18485487 -0.0036429418 0.0745778 0.4559269
0000d0 a1 88 40 3e 8e 76 af be c9 76 5f 3e 0c a8 fc 3d
       0.1880212 -0.34270138 0.21822657 0.1233674
0000e0 87 50 d3 bd 90 84 a2 3d f8 d8 a7 bd b3 2c a0 3e
       -0.10318094 0.079354405 -0.081956804 0.31284103
0000f0 94 25 24 3e 66 52 f8 3d 7c dc d7 3e 0a 88 8e be
       0.1602996 0.12125091 0.42160404 -0.27838165
000100 41 bc cc be 92 d3 98 bd 88 bd 22 3e b9 0e 11 3f
       -0.39987376 -0.07462229 0.15892613 0.5666309
000110 5b 90 ce bd 1c aa a3 3e 30 4f df be 7c 11 93 3c
       -0.10086127 0.3196572 -0.43615103 0.017952673
000120 36 b2 29 bf 88 e1 8a be 95 7c f9 be 72 1a a8 be
       -0.66287553 -0.27125192 -0.4872786 -0.32832676
000130 a6 2f 4d be 43 26 97 be 2b ad 81 be b4 4b 1c bf
       -0.20037708 -0.2952138 -0.2532743 -0.61053014
000140 11 88 50 3f 32 69 45 bf ce 6f 09 bf c7 cd 19 bc
       0.8145762 -0.7711364 -0.53686225 -0.00938744
000150 2d 91 05 3f 45 6e 20 bd 08 ab b0 3d 01 c0 0e bf
       0.52174646 -0.03916766 0.086263716 -0.55761725
000160 cc 26 65 be dd fc e3 3d 3f 05 4c 3e 97 ae 11 bf
       -0.22378081 0.11132214 0.19923876 -0.5690703
000170 1b 4e 87 3f 6b f5 7f 3e 06 78 40 3f b0 f1 2f 3e
       1.0570711 0.24995963 0.7518314 0.1718204
000180 79 62 07 be 60 c5 1c bf 07 e7 d5 be a3 e9 21 3e
       -0.13221158 -0.6123867 -0.41777822 0.15811782
000190 fe 5f 16 3e e6 64 63 bc 59 b8 0a bf d8 09 4b bf
       0.14685056 -0.0138790365 -0.5418754 -0.79311895
0001a0 d3 15 5d 3e f0 e3 4f be c2 71 69 3e b9 0b 3f 3e
       0.21590357 -0.20301795 0.22797301 0.18656816
0001b0 9b 4e fc 3e 1b 25 bd be 12 c3 4e be a5 0f bd 3e
       0.4927872 -0.36942372 -0.20191601 0.36925998
0001c0 3b d7 59 bf fc 92 16 3f 06 18 ca bd 86 ce 1a be
       -0.8509404 0.5881803 -0.09867863 -0.15117845
0001d0 8b c3 49 3e 36 05 1a 3e 36 24 01 bf e9 7c f7 3d
       0.197035 0.1504105 -0.5044588 0.120843716
0001e0 67 09 e8 be 43 5b 44 3f 48 5c bf be 09 48 9d be
       -0.45319673 0.76701754 -0.37375093 -0.3071902
0001f0 ef 8d 1e bd 12 f5 c8 3b f1 fd 9b 3c 75 61 0f bf
       -0.038709577 0.0061327303 0.019041987 -0.5600808
000200 62 79 d1 bd 56 3d ce 3d e7 b6 9a 3e 50 4d 2b be
       -0.1022823 0.10070293 0.30217668 -0.16728711
000210 63 d1 dd 3b f4 63 3f 3d 1a 1c 1a bf 14 0c 8a be
       0.0067693456 0.046726182 -0.6019913 -0.2696234
000220 c8 d6 25 3e 86 f7 c0 bc 48 fa 2a 3e 47 f0 b6 be
       0.16195214 -0.023555528 0.16697037 -0.35730192
000230 28 37 67 3e f3 b3 92 3d b7 61 cf bc cd 89 9b bb
       0.22579634 0.07163229 -0.025315149 -0.0047466517
000240 0a 2e e4 bd 81 ab 16 3d 6c 35 80 be 95 62 cb 3d
       -0.11141594 0.036784653 -0.25040758 0.099309124
000250 58 f9 32 bd 0b 0c d6 3d 4e 77 98 bd cb cb e9 3d
       -0.043694824 0.10451516 -0.074446306 0.114158235
000260 48 d0 68 be 69 2c e6 bc ee fe e1 bd fe b2 32 bd
       -0.22735703 -0.028097348 -0.11034952 -0.04362773
000270 d4 c7 b5 bc 88 0c b8 3e 89 38 00 3e ef 1e 0d be
       -0.022190012 0.3594706 0.12521566 -0.13781331
000280 5d 7c 45 3d 9a 32 47 3d fd 14 6b 3e 13 cd 14 be
       0.048214305 0.04863224 0.22957225 -0.14531355
000290 47 1e 0a 3e 31 0b fe 3d d3 b6 2f 3f 64 3a 16 bd
       0.13488112 0.12404478 0.6863834 -0.03667678
0002a0 77 54 93 3e 05 d5 dc bd a4 19 cb 3c 15 41 71 bd
       0.2877538 -0.10782818 0.0247925 -0.058899958
0002b0 1f b9 8f be a1 d5 29 bd a6 ff 1a be 65 00 68 3e
       -0.28070924 -0.041463498 -0.15136585 0.226564
0002c0 14 38 d1 3e b3 2b 10 3d 25 e2 33 be bb b6 3e bd
       0.40863097 0.035197925 -0.17566736 -0.046560984
0002d0 3a 5b 35 bd 54 4d 70 3d 67 77 d6 3d 29 c1 1e be
       -0.044276454 0.058667496 0.10471993 -0.15503372
0002e0 4a 07 f5 3d 8b d8 5b be c3 f1 d6 3e 4b 22 e4 bd
       0.11964281 -0.21469323 0.41981325 -0.11139353
0002f0 bf 39 9c 3d 59 51 65 3c 70 88 42 be 3e 17 15 3e
       0.07628202 0.013996446 -0.1899736 0.14559647
000300 d0 f0 01 be a9 84 98 3e 06 0b 11 3f 57 4a a8 3e
       -0.12689519 0.29788712 0.56657445 0.32869217
000310 35 42 0d 3e b4 1e 2a be b6 1c 38 bd 8b b5 71 be
       0.13794787 -0.16613275 -0.044949256 -0.2360441
000320 0e 89 2d 3e e4 30 cc be 56 2d 16 3e 52 04 e9 3d
       0.16946813 -0.3988105 0.14665732 0.11377777
000330 a3 c4 8e 3e c6 60 0c 3e 02 57 a8 3e a4 a3 27 be
       0.27884397 0.13708791 0.32878882 -0.16371018
000340 d7 7e 82 bd e4 58 6c 3e 17 a7 9f bd dc 04 04 bf
       -0.06371849 0.23080784 -0.07795542 -0.51569915
000350 54 8f 2c bd 18 6d 1a 3f 4c a4 1c 3e 52 52 d0 be
       -0.042128876 0.60322714 0.1529705 -0.40687805
000360 2a 25 2d bf c8 24 9a be 2a e8 cc be 5b 66 ba be
       -0.6763483 -0.30106187 -0.40020877 -0.36406216
000370 f8 01 d7 3d 63 6c 7e 3d c0 17 09 3f 37 7d 19 3f
       0.104984224 0.062115084 0.53551865 0.5995669
000380 d2 52 c3 3e 30 59 91 be 90 58 31 3c bd 72 21 be
       0.38149124 -0.28388357 0.010824338 -0.15766425
000390 27 8a a1 3e a2 32 0d bd 89 1d 29 be 61 c2 bf 3e
       0.31550714 -0.034472115 -0.16515173 0.37452987
0003a0 a3 75 e3 3e ee 4e 29 3d cc 28 a0 bd c7 a0 f0 3d
       0.44425687 0.04133504 -0.078202814 0.11749416
0003b0 7b 96 ec 3e 5f 7b e8 bd 98 09 06 bd 79 34 19 3c
       0.46208557 -0.11351656 -0.032723993 0.009350889
0003c0 a9 8b 13 bf 65 7c 4d bd 49 ca be be cc dc c5 be
       -0.5763498 -0.05016746 -0.37263706 -0.38645017
0003d0 b6 7b d2 3d 52 7d 30 be a2 c6 ca 3e 6c 23 fc bd
       0.10277502 -0.17235306 0.3960467 -0.12311444
0003e0 bb d6 25 be 1f 82 96 be db 10 98 bd 5c 3d 87 be
       -0.16195194 -0.2939615 -0.0742509 -0.26414
0003f0 78 4f b7 be 86 05 de 3e 3d 42 f7 bd 70 f2 9e be
       -0.35802817 0.4336359 -0.12073181 -0.3104434

bias_ih_l0 f4 [192]
000000 fd dd bf bd fb ec 0d 3f 89 d5 02 be c2 07 55 3e
       -0.09368513 0.5543973 -0.1277677 0.2080374
000010 41 9a 4b 3e d4 ba 26 3d f5 8d d6 be 2b 07 97 3d
       0.19883062 0.040705517 -0.4190518 0.07374414
000020 2f d7 c6 3d c9 ae ba 3e b1 d7 45 3f 6c 04 97 3e
       0.09709012 0.36461475 0.77282244 0.2949556
000030 eb 15 02 bd 23 9f 7e 3d 07 fd 0c 3f 4f cb fd 3e
       -0.031759184 0.062163483 0.5507359 0.49569175
000040 d8 50 78 3e 1d 9e 64 3e 35 a5 21 bd a7 11 6c 3e
       0.2424959 0.2232594 -0.039464194 0.23053609
000050 9e da f2 3e fe 87 8a 3d 24 c5 02 3d 73 dd b8 bd
       0.47432417 0.0676422 0.03192629 -0.09026613
000060 cf 4c 5a 3e a3 22 08 bf 00 d3 9f 3d 69 9a 37 be
       0.21318363 -0.5317785 0.07803917 -0.17929997
000070 f6 87 96 3d 3d 7f af 3e d4 a4 9c 3e 98 bb 17 3f
       0.07350151 0.34276763 0.30594504 0.5927062
000080 79 1d 58 3d 52 d0 53 3b 78 d8 0a 3d 75 e5 93 3e
       0.052762482 0.0032320214 0.033897847 0.28886
000090 02 07 07 3e 87 78 3a 3d e2 ce 8e 3e 68 a8 5d 3e
       0.13186267 0.0455251 0.27892214 0.21646273
0000a0 e2 93 43 3e 70 33 99 3d 3a a8 53 bd 3b 81 d9 bc
       0.19099382 0.07480514 -0.051674105 -0.02655088
0000b0 f4 d7 4f bd 6d 5b 03 3e e8 04 d3 3e 1b 90 e4 bd
       -0.05074306 0.12827845 0.4121468 -0.111602984
0000c0 b6 aa 91 3d ab 8b 30 3d db bf e2 3e c2 e2 a3 3e
       0.07112639 0.043101948 0.44287 0.3200894
0000d0 a2 47 5a bd 76 f2 7c 3e 32 b2 2e 3e b3 86 7d 3e
       -0.05329097 0.24701867 0.17060164 0.24758415
0000e0 7c 2e ab 3e 56 72 9d 3d 4b a0 29 3f 62 90 fb 3d
       0.33433902 0.076878235 0.6626021 0.12283398
0000f0 07 e5 c2 3e 52 d4 7c be cb 94 9b b9 1d 96 9c 3c
       0.3806536 -0.24690369 -0.00029674763 0.019114548
000100 e1 ed 4a be a1 52 a2 3e 47 8d 3e 3d 91 18 58 3f
       -0.19817306 0.31703666 0.04652145 0.84412485
000110 68 ce 17 3f 71 8a 74 3f d2 17 28 3f cc b8 8f 3f
       0.59299326 0.95523745 0.65661347 1.122827
000120 c5 8a 60 3f 6c 62 11 3f 0d 76 38 bf b2 06 0e bf
       0.87711746 0.56790805 -0.7205513 -0.55478966
000130 7c 12 b5 3d 0c b2 ff 3e aa 91 c3 3f c6 a3 f4 3e
       0.08841416 0.49940526 1.5278828 0.477812
000140 ef 96 c9 3e ca 15 3b be f3 4c 38 be ad 13 bd 3e
       0.39372966 -0.1827003 -0.17998104 0.36929074
000150 bd 88 a6 3c a5 d9 df be c3 db 36 bd d6 66 1e 3f
       0.020328874 -0.43720737 -0.044643175 0.61875665
000160 22 31 4c 3f c5 e7 fb 3d cb ef 8c 3f 91 45 8b 3e
       0.7976247 0.12300066 1.1010679 0.27201512
000170 e6 64 89 3e 9c ce 1d 3f 87 e7 63 3f 12 ad 19 bc
       0.26834792 0.61643386 0.8902516 -0.009379642
000180 a2 87 05 bd b6 0a 5b 3f ea a2 fb 3e 8c d5 01 bd
       -0.032600053 0.8556322 0.4914773 -0.031697795
000190 b8 1a 1e 3e 9f dc aa 3e c4 46 6e 3e c3 07 ce 3e
       0.1543988 0.33371446 0.23269182 0.40240297
0001a0 36 79 f6 3e c2 25 0f 40 23 d5 fe 3c b2 e0 90 3e
       0.48139352 2.2366796 0.03110749 0.2829643
0001b0 78 2b a0 bd 86 3b d5 3e 24 66 aa be 89 30 89 3f
       -0.07820791 0.41646975 -0.33281052 1.0717937
0001c0 d2 8b 44 be 47 84 f9 3e f1 b9 8e 3f 56 bf bd be
       -0.19193962 0.48733732 1.1150495 -0.3706004
0001d0 67 14 80 3e f3 e0 e1 3e 11 15 ac 3e 40 96 eb 3f
       0.25015566 0.44116935 0.33609822 1.8405228
0001e0 f7 94 dd bd 80 e6 05 3e b9 52 33 3f 2b df 8c 3e
       -0.108194284 0.1307621 0.700481 0.27514014
0001f0 e7 8e 55 be 39 bd 75 3e cd 22 2e 3f bd f3 d2 3f
       -0.20855294 0.23997964 0.6802185 1.6480633
000200 48 4e 2e bf cb 61 86 bd 32 cb 28 3e 55 b9 09 bf
       -0.680882 -0.06561621 0.16483763 -0.5379842
000210 e6 0d e6 ba 93 9f b4 3c a9 24 d4 be 13 42 8d 3f
       -0.001755175 0.022048747 -0.4143422 1.1035789
000220 ab e9 32 3f e8 6e 09 3e db 6b ce be 61 f9 a0 3f
       0.698878 0.13421214 -0.40316662 1.2576104
000230 4c 96 0a bd 5a f1 67 bf 6b 94 0d 3f e1 ad 1b 3f
       -0.03383474 -0.9060265 0.5530459 0.60812193
000240 58 29 87 3e e8 2e 6c bf dd 65 5c be 06 3d 09 3d
       0.2639873 -0.92259073 -0.21523233 0.033505462
000250 92 b1 2b 3f be 8f b1 be 0a b8 53 3c 9f 22 b6 bd
       0.67067826 -0.3467998 0.012922296 -0.08893322
000260 22 b9 81 3e 6d ec a0 bf 87 72 d9 3f bc bd 52 bf
       0.25336558 -1.2572151 1.6988076 -0.8232076
000270 e4 69 02 3f f9 bb 6b 3f b6 73 5e 3f e0 94 fb be
       0.50942826 0.920837 0.8689531 -0.4913702
000280 26 d5 f9 3e e5 f3 3e bf 0c 88 c8 3e 79 8a 20 3f
       0.48795432 -0.74590904 0.39166296 0.6271129
000290 f2 7a 72 3f 88 71 dd be 7f 0a 88 be d1 ad ad bf
       0.9471885 -0.4325068 -0.26570508 -1.356867
0002a0 57 4a 1a 3e 04 f9 5f bd f6 d4 60 bf bf 76 51 3f
       0.15067421 -0.05468084 -0.8782495 0.8182182
0002b0 54 d4 86 3f c3 d1 fa be 3b 0f 88 3d 26 a3 9b 3c
       1.0533547 -0.4898816 0.0664353 0.018998694
0002c0 fc 4b b6 bd d8 c1 86 3e 2e e2 b8 3e 69 19 87 3f
       -0.089012116 0.26319766 0.3611006 1.055463
0002d0 f4 6e 36 3f 73 18 ae bd 43 b0 54 be e7 e6 6b 3f
       0.7126305 -0.08500757 -0.20770364 0.92149204
0002e0 8d d3 1d bf c9 48 1a 3e b5 a9 59 3f 52 84 6a be
       -0.61650926 0.15066828 0.8502458 -0.22902039
0002f0 01 ee f2 3b fc 20 08 bf 76 af 73 3e 9f 15 06 3f
       0.007413626 -0.5317533 0.23797402 0.5237674

bias_hh_l0 f4 [192]
000000 b2 fe 87 bd aa a5 14 3f 80 09 4d be 2b 59 8f 3e
       -0.06640376 0.58065283 -0.20023155 0.27997717
000010 7a 06 b9 3e 46 9a 6d 3e 88 c6 9f be f1 bd 40 bd
       0.36137754 0.23203382 -0.31206155 -0.047056142
000020 78 89 b1 bd 74 ad cf 3e b3 ab 38 3f ed ce 5c 3e
       -0.08668798 0.40562022 0.7213699 0.21563311
000030 bb 55 96 3d 99 73 f9 3d e6 51 dc 3e 04 a9 d9 3e
       0.073405705 0.12180252 0.43031234 0.4251176
000040 78 0c 61 3e f5 63 9a 3e 4a 0b 86 be 1b 98 28 3e
       0.21977413 0.30154386 -0.26180488 0.16464274
000050 95 24 ff 3e b2 67 58 3d 17 33 df 3c 3d ff 1a 3c
       0.49832597 0.052833267 0.027246041 0.009460268
000060 17 89 5e 3e 7b 8e 10 bf 1e 26 10 3d f7 9b a8 bd
       0.21731983 -0.5646741 0.0351926 -0.08232873
000070 14 c1 1d 3e cb b8 85 3e a5 8d 79 3e f0 6e 04 3f
       0.15405685 0.26117548 0.2437044 0.5173178
000080 dc 2f c1 3d f0 a0 e1 3d 93 a0 93 bd 55 99 72 3e
       0.094329566 0.110170245 -0.072083615 0.23691304
000090 a5 3a 7b 3d f2 e5 0e be 6c 58 7a 3e c1 07 e4 3d
       0.061335225 -0.13954905 0.24447793 0.111342914
0000a0 77 4c 15 3e 58 5e c8 3c 76 3e 10 be da 71 fb 3c
       0.1457995 0.02445905 -0.14086327 0.030693937
0000b0 ac 71 1a 3e 59 35 2b 3e 19 63 97 3e 8b 2f 75 be
       0.15082425 0.1671957 0.29567793 -0.23943917
0000c0 61 58 92 3e 76 1e c1 3d 6a 06 ad 3e ef 9f bd 3e
       0.28583053 0.09429638 0.33793956 0.37036082
0000d0 4a 7d 5a bd ac 69 90 3e fb 54 3c 3e 9e b2 d9 3d
       -0.05334214 0.2820562 0.18391792 0.10629772
0000e0 5c 60 83 3e 50 1b d5 bc 65 59 36 3f b1 32 6e 3e
       0.25659454 -0.026014 0.71230155 0.23261525
0000f0 bd 60 a7 3e 3c d3 27 be 60 77 b2 bd 33 2a 57 3e
       0.32690993 -0.16389173 -0.08714175 0.21012191
000100 8d 8e 18 be e0 3a ed 3e a7 1a b1 3d 6c 6b 5c 3f
       -0.14898129 0.4633398 0.08647662 0.8610141
000110 d2 a6 23 3f 69 f2 80 3f 90 cf 1d 3f cc fd 91 3f
       0.6392642 1.0073978 0.6164484 1.1405578
000120 e8 9d 57 3f 9e 72 00 3f 64 26 53 bf d0 93 f6 be
       0.8422532 0.5017489 -0.82480454 -0.48159647
000130 7b 03 de ba 0e 96 d3 3e 0b 70 d2 3f 0e 68 12 3f
       -0.0016938293 0.4132542 1.6440443 0.57190025
000140 a5 c9 0f 3f 81 59 41 be 6e 28 8e be 48 b0 0f 3f
       0.5616706 -0.188818 -0.2776522 0.5612836
000150 67 93 28 3d 27 7e d7 be 06 ed 23 be 26 47 05 3f
       0.0411562 -0.42088434 -0.16008386 0.5206169
000160 a7 f3 43 3f 7b 79 78 3d 0e 99 86 3f e7 ed 1b 3e
       0.7654366 0.060662728 1.0515459 0.15227471
000170 79 fb 2c 3e 2f 4e 21 3f ab 00 58 3f a1 93 10 be
       0.16892804 0.63009924 0.8437602 -0.14118816
000180 79 74 0e bd ab df 6d 3f eb f1 1b 3f 7a 70 47 bd
       -0.034779046 0.92919415 0.6091601 -0.04869125
000190 d1 73 13 3e 63 42 33 3e 95 d4 98 3e 4a ac de 3e
       0.14399649 0.17505793 0.29849687 0.4349082
0001a0 87 5f 18 3f 8f be 0e 40 37 6b 5d 3d 1b d0 6b 3e
       0.59520763 2.2303808 0.054057326 0.23028605
0001b0 ea 5f 44 be 5e 07 a7 3e bd e8 67 be 77 43 9b 3f
       -0.19177213 0.32622808 -0.22647376 1.2129964
0001c0 a3 e4 b4 be a5 25 ae 3e 6a 15 86 3f 74 0e ae be
       -0.35330686 0.34013095 1.0475285 -0.33995402
0001d0 56 40 33 3e 02 7a 07 3f 25 4c aa 3e 44 5c fa 3f
       0.17505011 0.52920544 0.3326122 1.9559407
0001e0 74 af f4 bd 83 39 9e bc 25 9c 4d 3f 9d 33 89 3e
       -0.119475275 -0.019314533 0.8031638 0.2679719
0001f0 cb 7f 84 be d3 d1 92 3e 92 f5 2b 3f 9d d8 c4 3f
       -0.25878748 0.28675708 0.67171586 1.5378605
000200 51 60 4c bd bd d0 bb 3d 68 b7 3d 3e 6f 52 7d 3d
       -0.049896542 0.09170673 0.18526995 0.061846193
000210 a0 62 4a be 96 3c 7a be 33 be 66 be fe 5f 02 3f
       -0.19764185 -0.24437174 -0.22533493 0.5092772
000220 10 2f d4 3e 07 f6 c0 be 41 2f 97 3d 44 44 03 3f
       0.41442156 -0.37687704 0.0738206 0.5127604
000230 af 3e e8 3d 0b 1a ca be 2b 08 1a 3f aa 64 7e 3e
       0.11340081 -0.39472994 0.60168713 0.24843088
000240 a2 cd c8 3e 28 b8 97 be 28 f7 34 bf 72 7e f4 bd
       0.39219385 -0.29632688 -0.7068963 -0.1193818
000250 95 c8 42 3e 8d 91 1c be 83 1a c2 3d d8 61 8e be
       0.19021828 -0.15289898 0.09477713 -0.27809024
000260 b0 4b 1d 3e d3 9f ac be d5 3a ba 3e 96 13 07 bf
       0.15360904 -0.33715686 0.3637301 -0.5276426
000270 55 38 a3 be 9a a5 91 3e 76 80 5e 3f 15 4d 20 bf
       -0.31878915 0.28446656 0.86914766 -0.6261762
000280 0d 10 42 3e 1e d8 94 be c1 d0 04 3f 3c 92 10 3f
       0.18951435 -0.29071134 0.51881033 0.56473136
000290 c0 0e 30 3f 92 30 ab bd 64 be 5f 3e ce 24 34 bf
       0.68772507 -0.083588734 0.21849972 -0.7036866
0002a0 48 6b c7 3e 4b e9 ae 3e 15 e7 fa bd 42 aa 4e 3e
       0.38949037 0.34162363 -0.12251107 0.20182136
0002b0 84 c5 87 3e 73 f4 05 bf 6c a3 2f 3d a4 79 5d 3d
       0.2651788 -0.52326125 0.04288046 0.054071084
0002c0 bd 85 a0 be 86 8e 14 3e 9e 12 c6 bd 12 5b 6c 3e
       -0.31352034 0.14507493 -0.0967152 0.23081616
0002d0 e9 cc 6b 3d 3e b1 3b be 8b 32 86 be 9c 2d 11 3f
       0.057568464 -0.18329331 -0.26210436 0.5671022
0002e0 a1 8b 2a bf 67 50 89 be 34 73 4f 3f 10 a2 49 be
       -0.66619307 -0.26819155 0.8103516 -0.19690728
0002f0 4b fb 4e be 42 49 21 bf 9e 42 86 be f3 49 6f bd
       -0.20213048 -0.6300241 -0.262227 -0.058420133

weight f4 [10, 64]
000000 02 a6 6a 3c 42 e2 66 3f e0 ed 11 be 57 7b 4d 3f
       0.014321806 0.9018899 -0.14250898 0.80266327
000010 17 01 5d 3d 88 48 a5 bf d5 f6 ee 3f bb 15 90 3f
       0.053956117 -1.291276 1.8669077 1.1256632
000020 03 9f 95 be b7 85 29 be 30 8b 6b 3e 79 a4 44 be
       -0.2922288 -0.16554914 0.23002315 -0.19203366
000030 22 ec 3d 3d 53 d9 10 3f 9e c2 f4 3e 83 0a 29 bf
       0.046367772 0.5658161 0.4780473 -0.66031665
000040 9c 80 98 3e e3 c8 d4 3e f7 e5 54 be 10 6b e4 3e
       0.2978562 0.41559514 -0.2079085 0.44612932
000050 8c 3f ec 3e 8a 90 8b 3e b2 0d 73 bc eb b6 39 bd
       0.46142232 0.27258712 -0.014834808 -0.04534046
000060 e0 0c 20 be ad c9 c6 3e 66 20 7e 3e 39 eb 27 bf
       -0.15629911 0.3882574 0.24817047 -0.65593296
000070 a2 7d 3d 3f 9b 00 54 bf ce 73 51 bd cc d0 1b bf
       0.74019825 -0.82813424 -0.05113583 -0.60865474
000080 5e 04 f0 3e 61 a6 25 3e 79 f3 1d bd 3f 3a bc 3c
       0.46878332 0.1617675 -0.03856227 0.022976993
000090 7e e3 88 be 77 c6 53 3e f9 a8 ea be a9 8d f8 be
       -0.26736063 0.20681177 -0.4583204 -0.48545578
0000a0 e4 1d 97 bf df 30 4f be b6 81 d3 be af 26 38 bf
       -1.1805997 -0.20233487 -0.413099 -0.71934026
0000b0 e2 6d a3 3e 32 70 35 3f 7f 2c 38 3e ff 1b ce 3f
       0.3191977 0.7087432 0.17985724 1.6102294
0000c0 ae 07 a9 3e 1c fc 28 bf 31 b4 0f 3f 40 0b 90 3d
       0.33013672 -0.6600969 0.56134325 0.07033396
0000d0 6c 00 89 3e 4e 05 63 bc 08 ef 0d 3e 8d 1e 1e 3e
       0.26758134 -0.013856245 0.13860714 0.15441342
0000e0 70 fb 48 3f 4f c9 15 3f d5 e9 43 bf fb 4a 9e bd
       0.78508663 0.585103 -0.76528674 -0.07729145
0000f0 78 c8 56 3c 55 1f 29 3f 3b 6d 8b bf 02 6c 29 bf
       0.013109319 0.66063434 -1.089271 -0.6618043
000100 07 77 69 3e c6 66 30 bf e5 ee 09 bc d9 58 3d bf
       0.22799312 -0.6890682 -0.008418773 -0.73963696
000110 9b dd 41 bf 4d d5 b4 3e 64 4e f7 3d 8b 54 af bd
       -0.7572877 0.35318986 0.12075499 -0.08561047
000120 9b b0 96 3f 90 93 db 3e b9 cb d4 be 94 1f bc 3c
       1.1772646 0.4288602 -0.41561678 0.022964276
000130 90 ab fa 3c 32 61 d8 be 81 7c 79 3f 6f 38 1b 3f
       0.030599385 -0.42261654 0.974556 0.60632986
000140 11 62 8e bf df ec 0a bf e3 54 8d 3e c9 5d 1b 3f
       -1.1123677 -0.54267687 0.27603826 0.6068998
000150 f3 97 64 3f 5a b1 d8 bd 90 da d5 be 03 f6 9a 3c
       0.89294356 -0.10580702 -0.41768312 0.018916136
000160 89 c9 2b 3e 50 13 97 3e 7c df 93 3f dc 1b 73 3f
       0.16776098 0.29506922 1.1552577 0.94964385
000170 68 db 8e be 13 ca 99 3d f2 ae fa be 8c f1 96 be
       -0.2790177 0.07509246 -0.48961598 -0.2948116
000180 bc 67 a3 be 6b bd a6 3e df 8f 0b bf d4 6f fc 3e
       -0.3191508 0.3256639 -0.54516405 0.49304068
000190 5a 78 28 3d 95 c4 5f 3f 29 e6 0a 3e aa 2c 96 3d
       0.0411304 0.87409335 0.13564362 0.07332738
0001a0 0a cd c3 be 91 fc f2 3e 88 54 8a 3e 13 ce 4a 3f
       -0.3824237 0.47458318 0.27017617 0.79220694
0001b0 b5 84 01 bf 55 e7 43 be 89 35 9d 3d 12 2b 05 bf
       -0.5059312 -0.19131215 0.07676227 -0.52018845
0001c0 95 15 c8 3b 45 65 46 be 42 e6 52 bf f8 55 23 3f
       0.0061060884 -0.19374569 -0.82382596 0.6380305
0001d0 34 4e 76 be 7b 08 10 bf 17 de 07 be 62 70 db 3e
       -0.2405327 -0.5626294 -0.13268314 0.4285918
0001e0 16 31 ba 3d e7 1d 3a bf 80 67 6c 3f 2d 3e da bd
       0.09091394 -0.7270188 0.9234543 -0.1065639
0001f0 c0 c7 11 bf 6a f5 38 be 5c 62 3b 3f d1 2c 6a 3f
       -0.5694542 -0.18062368 0.7319696 0.91474634
000200 77 57 f3 be 72 cd fd 3e 4a 9f e4 be cb 62 fc be
       -0.47527668 0.49570805 -0.44652778 -0.49294123
000210 37 d0 12 3f 23 76 37 3f ae 58 57 bf 50 3b 3b 3f
       0.5734896 0.7166464 -0.8411969 0.7313738
000220 3e 41 ec be d4 94 d8 3d d5 3f 98 be 37 17 8b be
       -0.46143526 0.10575262 -0.297362 -0.2716615
000230 ac 54 bb be a5 c1 cb be 55 c9 0d bf 2a 06 8c 3f
       -0.36588037 -0.39796177 -0.55385333 1.0939381
000240 31 e0 06 3f 33 47 ff bd b0 13 e9 3d a1 bd 8e bd
       0.5268584 -0.12464752 0.11380708 -0.069697626
000250 d7 c5 b5 3e 8d dc 85 bd e5 80 a5 be 35 97 30 3f
       0.35502502 -0.06536207 -0.323249 0.68980724
000260 0f 05 95 3e a5 a8 d8 bc a4 c5 ba bf cc e6 6f bf
       0.29105422 -0.026447603 -1.4591565 -0.93711543
000270 6d 42 15 be 24 bf 2b bf 45 b9 e6 be 70 7c 3e 3d
       -0.1457612 -0.6708853 -0.45063224 0.04650539
000280 9f 82 0d bf 9b b7 06 3f a6 14 a6 be 52 f9 db 3d
       -0.55277437 0.5262391 -0.32437629 0.107409135
000290 46 60 1c be 6f 0b 37 3e 12 7e 24 bf ce 23 6d 3f
       -0.152711 0.17875455 -0.6425487 0.9263276
0002a0 fa 7b 61 be 2f 9e 7b bf 89 ce 89 bd cb 28 a8 be
       -0.2201995 -0.98288244 -0.067288466 -0.32843623
0002b0 4c 43 08 bc 5d 0a a6 bd 4a 40 d3 3f 82 ee 5d bf
       -0.008316826 -0.081074454 1.6503994 -0.8669206
0002c0 1c dd 69 bc d1 e6 5f 3e 46 6f 21 3f f9 7d 86 be
       -0.014273908 0.21865393 0.63060415 -0.26267985
0002d0 9e 45 18 bf eb 0c 9d bc d7 ac ed bd 59 ca c3 3e
       -0.5948123 -0.019171199 -0.11605232 0.38240317
0002e0 69 f0 7c 3e d4 4f 0e be d8 97 98 3e bf 22 77 3f
       0.24701084 -0.1389764 0.29803348 0.96537393
0002f0 17 6f af 3e b1 6d d1 be d8 56 b3 bd 66 a9 d3 be
       0.34264442 -0.40904 -0.087567985 -0.41340178
000300 6a 63 2f bf 7f b0 29 bf 4e e3 e2 bd c8 aa 14 bf
       -0.6851107 -0.66284937 -0.11078511 -0.5807309
000310 5c 86 7c 3f 90 e8 9b 3f fa d5 92 bf 32 92 7e 3f
       0.98642516 1.2180347 -1.147155 0.99441826
000320 9e b6 9b bf dd 96 cc be 5e 25 03 3e b2 e2 98 3e
       -1.2165105 -0.3995885 0.12807223 0.29860455
000330 f5 f1 fa 3d 9e 59 29 3f 3b e9 21 bf 1e b4 3f bd
       0.12253181 0.6615237 -0.63246506 -0.046802633
000340 70 8f ce be 9e bf 3e bf 0e f1 b5 3e 6b 56 8c 3e
       -0.4034381 -0.74511135 0.35535473 0.27409682
000350 60 68 e4 be a7 ad 98 3e 58 f6 85 3e ba f2 0c be
       -0.44610882 0.29819986 0.26164508 -0.13764468
000360 cb e1 9e 3d fb 8e f7 bc 1f 78 1f 3e be 8a d5 be
       0.0775791 -0.030219546 0.15573166 -0.41707414
000370 b6 4c 26 bf be a6 eb bd 8c 68 2d bd 4e d7 38 3e
       -0.649608 -0.11506413 -0.04233603 0.18050882
000380 e8 ef ec 3e 11 b0 fe bd f1 10 1a 3d f0 e5 46 bf
       0.46276784 -0.12435926 0.037613813 -0.77694607
000390 62 b8 28 3e 6f 73 3c 3f 94 c5 32 be 2f 8d 58 be
       0.16476586 0.7361364 -0.17458183 -0.21147607
0003a0 e4 f7 03 3f f5 2c ac bf 79 16 76 3f 60 fa fc be
       0.51550126 -1.345122 0.9612804 -0.4940977
0003b0 51 97 d5 3d 7a 6e 33 be 80 64 12 bf f9 7c d3 bf
       0.10429252 -0.17522612 -0.571846 -1.6522514
0003c0 c7 c3 75 be 71 8e 2e 3e ca bc 94 3f fa 83 cd 3e
       -0.24000464 0.17046525 1.1620114 0.40139753
0003d0 fc c8 18 3f d2 8a b8 be 5d 4f f5 be 86 7a e5 be
       0.5968168 -0.36043411 -0.47912112 -0.4482004
0003e0 35 57 f2 be 53 b3 cc 3e e8 21 42 bf e0 d0 06 be
       -0.4733216 0.39980564 -0.75832987 -0.13165617
0003f0 e0 52 e5 bd 8d 4a 2e be 93 3d 5d 3f 3f 65 2e be
       -0.11197448 -0.17020626 0.8642208 -0.1703081

bias f4 [10]
000000 cb 71 82 be 9a 77 b2 3d f2 f6 bc be a6 ae 57 be
       -0.25477442 0.087142184 -0.36907154 -0.21062717
000010 22 c1 75 3d e4 fe 1d 3f f6 02 ff be 47 13 73 3f
       0.05999864 0.6171706 -0.49806947 0.9495129
000020 19 cf 03 3e d3 32 5b be
       0.1287197 -0.21406107
