model/new/64_gru.model (torch_old, 85317 bytes, 6 tensors)

weight_ih_l0 f4 [192, 28]
00000000: 8454 bf3d 8993 d1bc 37d4 3d3c a49c 8c3d
00000010: 7b40 363c 7abe af3e 5c68 293c add2 e63d
00000020: 7244 0c3e 2092 423e 91e5 d63d a45d 063e
00000030: b90e 88bd 27f3 623d 4e54 063e 4179 6ebc
00000040: 23fa 9e3d 2f9a 0fbd ace0 613d 72b1 a83d
00000050: 78f9 4f3e 09dc 02bd f8a9 2ebd 05ad 4ebc
00000060: 623c a4bd 28d4 0abd c551 843d 2889 d13d
00000070: 0ab5 28be c081 073d 4dac 84bc 0c77 443c
00000080: 4d21 cc3d 5e9e b73e 5de9 c83e fbb4 af3d
00000090: cc8c f03e b048 16bf 474d 06bf b3e6 3abe
000000a0: 5053 d63e 02ef 14be f95d 9ebe 1bea 723f
000000b0: 9aac 223f dab4 903f daf8 523e fbec c2bd
000000c0: f17f 21bb 4c95 933e 9a63 023d 2fb8 09be
000000d0: 1f0f 83be ae44 b13c c424 cc3d 8a38 2e3d
000000e0: 70ed cdbd fecc 32be a79a 5ebc 80b5 13bc
000000f0: eb66 c0bd c2c5 623d 6d26 c43d c0f3 383d
00000100: bdc7 0d3d f4ee d23e 8fe2 cf3d 115d 2f3e
00000110: 295c 373c a183 153e b724 f73e 46ea 003d
00000120: 08f0 55be cd36 acbe ac0d cabd 4e1a f7bd
00000130: 3574 83be 7517 92be a0b1 bebe 11b6 80be
00000140: d415 76be 95ca 4bbe d820 babd c09c fdbd
00000150: afdd 9b3c f6a5 01be 931c 37be b029 93bd
00000160: 8ee4 58be fd5e 4c3d 021f 87bd 1719 99bd
00000170: 6bcf 48bc ac9c d63c c98c 4d3f 9af3 263f
00000180: f2f2 003c a30e d3be b6e0 cdbe 6961 ecbe
00000190: 9447 833d aee9 173e 0ae0 9f3e f558 83bc
000001a0: 77b0 6ebc 7303 b7bd 57de fa3d d202 7cbe
000001b0: 6b66 31be b36a 40bd 8c9d acbc dea0 6c3d
000001c0: 77cc 0c3e 15b5 8fbd c2ba 193c f646 ac3d
000001d0: 86fa db3d 9c60 783d 2bf6 d63c c895 8dbc
000001e0: d6e6 97be 6f23 07be a73e b5be 4e92 33be
000001f0: 0b49 043f d4a1 733e 6a18 b3bd 3266 afbe
00000200: 336a fcbd d4cf 90bc 3f04 a0bd dc51 28be
00000210: 7591 18be 6bd8 2bbd b8bc 2a3e a67a a83e
00000220: 303a 2c3e 862c 76bc cb22 8dbd 6cd4 afbd
00000230: 76b0 3dbe 900a 0abe 2608 79be 7744 23bd
00000240: e21e c83c 77fc a23e a61f c03e 4d5b ef3e
00000250: da86 9f3e 06e1 e53b 8c31 9d3e b0a8 b23e
00000260: 05b6 513e 212a c33e 0e29 773d 9229 b3bd
00000270: 66ac 8d3d 7baa bcbe 0951 23be 389f 1cbf
00000280: bac2 97bf 87ae 6dbf 6d91 eebe 63ce 90be
00000290: f2a0 b2be 42b8 5cbe b2a0 62be 3ca5 42be
000002a0: e54e 90bc 003c f73c 0f1c fc3d 8462 853e
000002b0: 7f09 773e 0ea5 093f 07bc 273f 571e 383f
000002c0: 918a 283f 11c8 e23e dd63 e53e ea5e 0d3f
000002d0: 746c fa3e d16d 3a3e 76da e9be e9b6 00bf
000002e0: c798 d1be 34ca 3d3e 61fc 2fbe 8f41 d8bc
000002f0: a49c e33d 5db8 54bd 0b05 d2be 3bfb d0be
00000300: 7cf8 3ebe dc92 a2bd 1897 423e 83cd 64bb
00000310: 01f1 623d e80e 9b3d f066 c23d 9ef7 e1bd
00000320: 1ca7 27be 6812 cbbe 8137 71be 408c 1abf
00000330: d48c a2bc abd7 06bf 72e3 2bbe 26bf a0be
00000340: 1813 f83e 5832 313f b2e8 943f ffe4 28bd
00000350: f1a3 e4be d8d1 45bd be8b bdbe 0a78 c3be
00000360: 9cd0 08bf 4a52 3dbf 7f8e 20bf cc4e 09bf
00000370: d153 62be 1796 c93d 0ddd e5bd 3ab5 bfbd
00000380: c6b8 6fbc 689e 2abe f8d7 acbd 18b9 a83c
00000390: 4b8e f73b 6c9e 583d 66f5 54bd 4fb8 0fbf
000003a0: f7a8 e5bd d7f1 20be d949 e13d e633 2dbe
000003b0: 885d b53d 3090 403f 7136 103f cdbd 043f
000003c0: 8849 933e 419a b33e 64f1 2e3e 6918 6abd
000003d0: 407e ccbd aafd 533d 51fd 84be dda3 0ebf
000003e0: 7a29 d4be ab09 d7bd 6b4c 09ba 8f89 e5bd
000003f0: 6333 dcbd adec 38bd 58a4 23bd f7c0 b6bd
0.09342292 -0.025583046 0.0115862405 0.06865814 0.011123772 0.3432501 0.010339823 0.11270652
0.13697985 0.19001055 0.10493005 0.13121659 -0.06643433 0.05540767 0.13118097 -0.014555276
0.077625535 -0.03505915 0.055145904 0.0823697 0.20310009 -0.031948123 -0.042642564 -0.012614493
-0.080193296 -0.033893734 0.06460909 0.102312386 -0.16475311 0.033082724 -0.01619544 0.011991274
0.09967289 0.35863012 0.39240542 0.08579441 0.4698242 -0.5870466 -0.52461666 -0.18252067
0.41860437 -0.14544299 -0.3093107 0.94888467 0.6354462 1.1305192 0.20602742 -0.09517857
-0.002464291 0.28824842 0.03183327 -0.13449167 -0.25597474 0.021639194 0.0996795 0.04253439
-0.10055053 -0.17461011 -0.013586677 -0.009015441 -0.0939463 0.055364378 0.09577642 0.045154333
0.034614313 0.41197932 0.101506345 0.17125346 0.011191406 0.14600994 0.482702 0.03147342
-0.20892346 -0.3363556 -0.09865889 -0.12065564 -0.25674596 -0.2853352 -0.37244892 -0.25138906
-0.24031764 -0.19901498 -0.09088296 -0.12383413 0.019026605 -0.12660965 -0.17881994 -0.07185686
-0.21180937 0.049895275 -0.06597711 -0.07475489 -0.012256484 0.026197754 0.80292946 0.65215456
0.007870423 -0.41222104 -0.40210503 -0.46168068 0.06410137 0.14835235 0.31225616 -0.016033629
-0.01456844 -0.08936205 0.12249439 -0.24610451 -0.17324226 -0.046976756 -0.021071218 0.057770602
0.13749872 -0.070169605 0.009382905 0.08411972 0.10741143 0.06063901 0.026240429 -0.017283335
-0.296683 -0.1319711 -0.35399362 -0.1753628 0.51673955 0.23792201 -0.08744891 -0.34257656
-0.123249434 -0.017677225 -0.0781331 -0.16437477 -0.14899237 -0.04195444 0.16673553 0.32906073
0.16819072 -0.015025264 -0.06891402 -0.08585438 -0.18524346 -0.13480592 -0.24319515 -0.039860215
0.024428789 0.3183324 0.37524146 0.46749344 0.3115757 0.0070153503 0.30701864 0.34894323
0.20479591 0.3811808 0.060341887 -0.08748163 0.06917648 -0.36848816 -0.15948881 -0.6118045
-1.1856301 -0.9284443 -0.46595326 -0.2828246 -0.34888417 -0.21554664 -0.22131613 -0.19008344
-0.017615745 0.030179977 0.12310039 0.26051724 0.24124716 0.5376748 0.6552128 0.71921295
0.65836436 0.44293264 0.44802752 0.5522295 0.48910868 0.18205954 -0.45674485 -0.502791
-0.40936872 0.18534166 -0.17186119 -0.026398448 0.11113861 -0.051933635 -0.41019472 -0.40816674
-0.18649477 -0.079381675 0.1900295 -0.0034912534 0.05540562 0.075712025 0.0949229 -0.11033557
-0.16372341 -0.3966248 -0.2355633 -0.60370255 -0.019842543 -0.52672833 -0.16785982 -0.31395835
0.48452067 0.69217443 1.1633513 -0.041234013 -0.44656327 -0.048295826 -0.37020677 -0.3817752
-0.5344331 -0.7395369 -0.6271743 -0.5363586 -0.22102286 0.098430805 -0.11223803 -0.09360738
-0.014631456 -0.1666199 -0.0843963 0.020596072 0.0075548044 0.052885458 -0.051991843 -0.5614061
-0.11213868 -0.15717255 0.110004134 -0.16914329 0.0885573 0.7522001 0.5633307 0.51852113
0.28767037 0.35078624 0.1708427 -0.057152186 -0.09985018 0.051755585 -0.25974515 -0.55718786
-0.41437894 -0.10499891 -0.00052375224 -0.11207878 -0.10751989 -0.045147587 -0.039951652 -0.08923524

weight_hh_l0 f4 [192, 64]
00000000: 653b 3cbe 8377 7fbe 11a1 f33c ab55 34bf
00000010: 9209 edbd 97f1 57bc 770a eabd 30e3 7abc
00000020: 6c88 2cbd d4c1 e3bd d2e3 eb3c aa4f ef3d
00000030: 0beb 0f3c d6ac 253e 58c0 0cbf 2c53 203e
00000040: 4465 aa3e b1a7 273d 4828 b53e 718a 74be
00000050: d183 5e3d 1e3c 17be 7a7e 1a3e f92d d639
00000060: da0b 5c3e 6b6d 8e3d 80d9 acbe 9010 cebe
00000070: 278e ec3d 40ce f73c 341d ae3e 0735 763e
00000080: dcd2 573e 2fba b4be 89b3 1ebe 6c55 75be
00000090: b67a 4a3d 92d7 833e de5b 9bbd 6d88 4c3e
000000a0: 88db 1c3f 444b 70bf e397 efbd 231d 833e
000000b0: d00c f73d f915 a33e 4668 e0be a3d7 0e3e
000000c0: 4769 033e 6487 20bc 8db7 903c 90a2 cc3e
000000d0: ba4d 3a3e 9c87 a6be d6af e83e 91b3 49be
000000e0: 6610 76bd 56df 62bd d3b6 7abe d180 97bd
000000f0: a2f0 d1bd 99b0 213d eb0b 7a3e 83da d0be
00000100: 49d0 39bf 680c 9d3e 27a4 b13e 2fe3 f03e
00000110: 76c9 953e 9bee 333f 5e5d f23c 1d0b 383e
00000120: 5202 64bf 76e8 debe 5005 4dbe afb1 32be
00000130: 1929 25be 2e9f 4f3e 9c9f 9a3e 8c72 2e3e
00000140: 5134 8d3d 4fb1 a3be 901c 45bf 4726 873e
00000150: bc5c 733e c921 c23e 6765 363e 614a bcbe
00000160: 3e87 c43e 66b0 d9be fd92 99be c3bc f9be
00000170: a4c4 303f a699 5d3e addd 603d 0344 323f
00000180: 527a 2abd 0974 1ebf cdd9 393d 7b5b 81be
00000190: 9391 a1bd 811b 4c3f 088b 63be 5e11 8fbe
000001a0: 7bb5 fdbd 0d62 b7bb fe2f 4b3f d2dd d13e
000001b0: 7710 003f ee11 3bbd 2b7d 8dbd cc60 0c3f
000001c0: c655 2bbf 2a11 ed3e 401d dabc c5c4 7cbe
000001d0: 36a6 39bc 96de b63e 9fdb 66be b4dd f93e
000001e0: 9dc8 4ebe 7e01 273e b86d 9abe c9da 35bf
000001f0: 3fee 95bc 1872 bdbe 565b 1b3f a374 c03c
00000200: 2cfe d8bc 9fd2 873e 01ce 9cbd fa87 aebe
00000210: b46f 62bd 9e59 88bd 05a4 46be c14a b9be
00000220: 82d7 40bd ea43 003e fbb6 03be dc3a 9cbd
00000230: d61e 0abe 7d93 ebbd 573e 9d3d d62e cfbc
00000240: 45d6 c53d d614 203e 1a7f 5ebe 1ef4 cdbe
00000250: 4f94 793d 76a6 073d b6c7 2d3e 17ac ba3e
00000260: 327e 62be f63f 9b3e c814 9cbe af28 96be
00000270: 1f70 eebd c812 e63e 6728 b63e 0787 a6be
00000280: bc4b 09be 9e38 f1be 9124 e73d e03c ce3d
00000290: 1144 3b3e 3270 4cbd 7945 e53d b1b5 8abe
000002a0: d055 0a3e f90a 863d fff4 26be 44be c63c
000002b0: 4510 623e 62cd adbe c33e 7d3d 2d48 8bbe
000002c0: 284c 82be 22be e93b 4fbd 81bc 03f6 febd
000002d0: 430c 923c fb3e 0a3e 5b08 ab3d 3491 a9be
000002e0: 2147 ea3c 43a6 bb3d 553b 823e 6345 80be
000002f0: 3719 963e 987f d3ba 4257 e73c b5e3 043d
00000300: 35d8 14be fcfe ad3e 192d 6abd 3a5e 163f
00000310: be4f 493f a44c f3be 9156 bd3d d404 06bf
00000320: f454 6dbe 6832 81be f684 3ebe 6f44 403e
00000330: 063a 093f 76d1 04be 10bf 7c3e dbd3 563c
00000340: 0d2d dbbe a675 343e 92dc 973e 39e4 19bf
00000350: 444b afbe c956 763f f419 b5bd 9e04 7ebe
00000360: b9f0 773e aa24 323e e83b 273e 9f31 62be
00000370: ce6c 7dbd 29da 18be f0fe d93e 52a9 3f3f
00000380: a9ab fb3d 72a4 e0be 0e9f f5bd d871 8e3e
00000390: 5c6d 0e3f 3c25 773e ba15 a13d ca90 2a3f
000003a0: 0ee3 573e d2c4 be3d 822b 3a3d 42ca fe3e
000003b0: 8f0f ee3e d74c b2be ee83 9bbe 9955 babe
000003c0: 3eda 56bf 9752 b33e dc3f 99be 09fb a9be
000003d0: 1b86 d53e 8b1a 82bd a943 803e 073b 3bbe
000003e0: 0606 0d3e 4aa0 0e3f 9a57 22be fd47 cebe
000003f0: a657 33be 85db 093f a9ea 8c3e 09f7 5a3d
-0.18382032 -0.24947934 0.029739888 -0.7044322 -0.11574091 -0.013180158 -0.11427777 -0.015312955
-0.04212229 -0.11120954 0.028795157 0.116851166 0.008784066 0.16179213 -0.54980993 0.15656728
0.33280385 0.040931407 0.35382295 -0.23880936 0.05432493 -0.14769027 0.1508731 0.00040851513
0.21488896 0.069544636 -0.3375969 -0.4024701 0.11550551 0.030249715 0.34006655 0.24043666
0.2107653 -0.35298297 -0.15498175 -0.23958367 0.049433433 0.25750405 -0.07585882 0.19973917
0.6127248 -0.93864846 -0.11698892 0.25608167 0.12062991 0.318527 -0.43829554 0.13949446
0.12833129 -0.009797905 0.017665649 0.39967775 0.18193713 -0.32525337 0.45446652 -0.19697405
-0.060074233 -0.05538877 -0.24483804 -0.07397617 -0.10250975 0.039475057 0.24418609 -0.4079171
-0.7258344 0.30673528 0.3469555 0.47048327 0.29255265 0.7028596 0.029585537 0.1797299
-0.8906604 -0.4353673 -0.20021558 -0.17450593 -0.16128959 0.20275566 0.30199897 0.17035884
0.06894744 -0.31971213 -0.7699671 0.2639639 0.23765844 0.379164 0.1781212 -0.36775497
0.38384432 -0.42517394 -0.29994956 -0.48776826 0.6905005 0.21640643 0.054898906 0.6963503
-0.04162056 -0.61895806 0.045373727 -0.25265107 -0.07889094 0.7972947 -0.22221005 -0.27942938
-0.1238813 -0.0055964054 0.79370105 0.40989548 0.50025123 -0.045671396 -0.069086395 0.548352
-0.66927755 0.46302158 -0.026625276 -0.24684437 -0.011331132 0.35716695 -0.22544716 0.4880196
-0.20193715 0.16309163 -0.30161834 -0.71036965 -0.018302081 -0.3700111 0.6068624 0.023493117
-0.026488386 0.2652788 -0.076564796 -0.34088117 -0.05528231 -0.06657718 -0.19398506 -0.36189845
-0.047080524 0.12525907 -0.1286277 -0.07628414 -0.13488325 -0.115027405 0.07677906 -0.025290888
0.09660009 0.15632948 -0.21728173 -0.4022531 0.060932454 0.033117734 0.16970715 0.3645942
-0.22118452 0.30322236 -0.30484605 -0.29327914 -0.11642479 0.44936204 0.355777 -0.32524893
-0.13407797 -0.47113508 0.11286271 0.10070205 0.18287684 -0.049911685 0.111948915 -0.27091745
0.13509297 0.065450616 -0.16304396 0.024260648 0.22076519 -0.33945757 0.061827432 -0.27203503
-0.25448728 0.0071332613 -0.01583734 -0.12449267 0.017828112 0.13500588 0.08351203 -0.33118594
0.02859837 0.09162571 0.25435892 -0.25052938 0.29316112 -0.0016136048 0.02823985 0.03244372
-0.14535601 0.339836 -0.057171915 0.5873753 0.786373 -0.4751941 0.09245027 -0.5235112
-0.23176938 -0.2523377 -0.18605408 0.18776105 0.5360416 -0.12970528 0.2468226 0.013112034
-0.4280781 0.17623004 0.2966047 -0.60113865 -0.3423711 0.96226174 -0.08842841 -0.24806449
0.24212922 0.17396799 0.16331446 -0.22089241 -0.061871342 -0.14926971 0.42577314 0.7486774
0.12288601 -0.43875462 -0.11993228 0.2782123 0.5563562 0.24135298 0.07865472 0.6662718
0.21082708 0.09314884 0.04545165 0.49763685 0.46496245 -0.3482425 -0.30374092 -0.3639343
-0.8392676 0.3502395 -0.29931533 -0.33199337 0.41703877 -0.06352719 0.2505162 -0.18284236
0.13771829 0.5571333 -0.1585373 -0.40289298 -0.17513904 0.53850585 0.27522781 0.053458247

bias_ih_l0 f4 [192]
00000000: aa6a ddbd cc34 4a3e 80d5 313e ae41 033e
00000010: a305 f4bd 6ad1 5b3e e7ea 92be a095 db3d
00000020: 7781 893e 59dc b13e 0d1b fb3e b858 543e
00000030: 0c81 b33d 9586 e6bd c72a 263f 9756 173f
00000040: 5fba a63e f4c9 5e3e f40d 023f 2ee6 e33d
00000050: be3c 663f f701 f03d 1c31 403e 1cf5 6f3e
00000060: 7e96 953e bc84 2fbf db5d 60be 9ad0 e43d
00000070: f5a0 bfbe 4e02 9b3e 9f2c 073f f16c cf3e
00000080: 753e 5f3d 6a61 cabc c01d f3bb 633b f03d
00000090: fa1d 983b d979 0a3f 746a 713e de1a dd3e
000000a0: fb0b 713e c460 5f3c 86e0 ab3d 55ab d73d
000000b0: 218a 0abe 1ede dd3c ac33 1a3e 9f4e 053e
000000c0: 3a4a ee3d 75cd 65be 3196 f93e 6fb3 8c3e
000000d0: da8d db3d e329 153f 6767 1e3e 6f34 f53e
000000e0: 62da 2a3f 14d3 033d 0b42 c33e 4c00 643e
000000f0: fbec ce3e 0b6c 7abe e990 a73e 2e56 db3d
00000100: 2b0f 55be 7635 f33d a68f 7a3c bb9e 853f
00000110: 9584 dc3c 9942 8e3f 1461 633f 4710 a83f
00000120: b38e 1f3f 4488 603f 7240 c1be 1791 e2be
00000130: b6c9 61be 66d2 8f3e be99 683f da22 bb3e
00000140: 5b55 e63e 69fb 95be 28df b2be af75 1c3e
00000150: c2f2 15be 9bbd 8fbe a6ba 98bb 4e16 2e3f
00000160: 01aa 5d3f 37c3 033d f10c 6d3f a4f1 023e
00000170: e854 b93e 7d95 2d3f cc37 c03e 3829 833e
00000180: 751f 32be 8721 283f 23a3 223e a660 bcbd
00000190: 96e6 c33e 77b2 893e dcb4 f8bd 3f54 fb3e
000001a0: 8c93 793d 025b 1840 3b56 cb3e 384f 003f
000001b0: 56ab 04bd a581 df3e e91e 6fbe 1fb3 a93f
000001c0: d744 4d3c 1fba dd3e df8f 983f a8e7 7ebd
000001d0: f935 eb3d 44fe a93e b8a8 103f da92 b13f
000001e0: de81 c6bd 3421 943e 30ac 153f 3ed0 fe3e
000001f0: fab6 e43a 275a a13e 6bd6 9e3e 1548 b43f
00000200: 9c42 3dbf bdaf bf3e d8f2 5d3e d6af e3be
00000210: 5633 a23e 3796 923e 556d 5bbf 5359 353f
00000220: 0b45 2b3f 02eb 6bbd 71cd 33bf 420b a13f
00000230: 38fe 1ebe 820d 3dbf 7bee eb3e 67c0 763f
00000240: e8d2 d33e 32a0 0bbf b8f4 dfbe 51a2 1c3e
00000250: ab9f 2c3f 86a3 0cbf 6e8c ef3e 7fd4 983c
00000260: d77c bd3e acff c6bf 092e c53f 7620 1ebf
00000270: e15f 303f 3d41 9b3f 0864 9b3e 6bdb 25bf
00000280: ccb6 333f 92bf 95bf dcdc 353e bf86 2b3e
00000290: cdcf 253f 9847 4dbe 6c2c 05be 7740 9cbf
000002a0: 1751 99bc d50b f63d 11b4 4ebf 9bd1 533f
000002b0: f2ca 793f 9be0 93be be58 5abe 1e77 573e
000002c0: 4c3b 053e bb51 ed3e fb70 833e beda 4d3f
000002d0: c10e 213f 0538 5f3e e729 06bf c29e ca3e
000002e0: 490b 76bf 9204 423e c4d6 193f d8c9 f8be
000002f0: b5cd 343f 2dd3 44bf 69fd 5c3e dbee 233f
-0.1081136 0.19746703 0.173666 0.12818024 -0.119151376 0.21466604 -0.2869484 0.10721898
0.26856586 0.34738424 0.49044076 0.20736969 0.08764848 -0.11256138 0.64909023 0.591165
0.32564065 0.21756727 0.5080254 0.11127888 0.89936435 0.11719125 0.18768734 0.23433346
0.2921638 -0.6856191 -0.21910803 0.111726 -0.37427488 0.30275196 0.5280246 0.40512803
0.054502923 -0.024704654 -0.007419318 0.11730077 0.0046422454 0.54092175 0.23575765 0.4318456
0.23539726 0.013633911 0.08392434 0.10530726 -0.13529254 0.027083453 0.15058774 0.13018273
0.11635251 -0.22441657 0.487474 0.27480647 0.107204154 0.5826704 0.15469132 0.47891566
0.66739476 0.03218372 0.38136324 0.22265738 0.40415177 -0.24455278 0.32727745 0.10709797
-0.20806567 0.11875431 0.0152930375 1.0439066 0.026918689 1.1114074 0.88820004 1.3129967
0.62327117 0.87707925 -0.3774448 -0.4425132 -0.22049603 0.2809021 0.9085959 0.36550027
0.44986996 -0.29293373 -0.3493588 0.15279268 -0.14643386 -0.28074345 -0.004660922 0.68002784
0.8658753 0.032168593 0.9259787 0.12787491 0.3619759 0.67806226 0.3754257 0.25617385
-0.17394812 0.6567616 0.15882544 -0.09198122 0.3826186 0.2689397 -0.12143871 0.49087712
0.060931727 2.3805547 0.39714226 0.5012088 -0.03238996 0.43653598 -0.23351635 1.3257788
0.01252862 0.43306062 1.1918906 -0.062232643 0.11484904 0.33201802 0.56507444 1.387294
-0.09692739 0.28931582 0.5846586 0.4976825 0.0017449551 0.31514093 0.31022963 1.4084498
-0.7392976 0.37438765 0.21674669 -0.4447009 0.3167979 0.2863023 -0.857137 0.7083942
0.66902226 -0.057597168 -0.70235354 1.2581561 -0.15526664 -0.73848736 0.46080384 0.9638733
0.41371846 -0.54541314 -0.43741393 0.15296294 0.67431134 -0.54937017 0.46786827 0.018656014
0.37009308 -1.5546775 1.5404674 -0.6176828 0.688963 1.2129284 0.30349755 -0.6478793
0.702008 -1.1699088 0.17760032 0.1675062 0.64770204 -0.20046842 -0.13005227 -1.2207173
-0.018715424 0.120139755 -0.8074351 0.8274171 0.97575295 -0.28882298 -0.21322915 0.21041533
0.13010901 0.46351418 0.25672135 0.804119 0.6291314 0.21798714 -0.5240769 0.39574248
-0.9611097 0.18947056 0.6009333 -0.48591495 0.70626384 -0.7688473 0.21581043 0.6403634

bias_hh_l0 f4 [192]
00000000: 1e8b a5bd 1217 653e 5142 cf3d cdeb 4c3e
00000010: 9cbe 313d 7ede cf3e 6b46 38be 8b81 5ebc
00000020: 40a6 ad3d fcda c63e bdc2 e03e 351f 033e
00000030: c470 453e 7cc4 58bd a756 073f 5445 053f
00000040: 3618 9b3e 9b79 973e 5c45 923e 04e7 393d
00000050: ce61 6c3f 01ae d13d 4466 3b3e d509 ab3e
00000060: a7b4 973e b8f0 37bf e11e 86be 2cb5 553e
00000070: ba62 96be 5777 623e 907b ee3e 67d3 a83e
00000080: 95c0 c43d fa69 a83d 083e e8bd e4d8 853d
00000090: 6bef 86bd ce31 b63e 3325 4e3e 8948 a73e
000000a0: dec4 423e 405f 16bd f28c acbb 4974 263e
000000b0: d4ba 873d 622c 873d 97c2 0b3d d0c5 193b
000000c0: 9b80 a93e f560 31be 9fdc c33e 5370 a63e
000000d0: 0073 db3d 3822 1e3f 380a 2c3e 93dd ac3e
000000e0: 2ef3 163f cacf 90bd 1cb4 dc3e 2735 aa3e
000000f0: e668 b33e 226b 25be 3234 763e 13a1 983e
00000100: 94af 22be 9db5 873e a24d 623d 33c8 873f
00000110: 9fe4 953d d2ef 943f c318 593f 2155 aa3f
00000120: d8a1 163f 2998 4f3f f0a0 f6be 2317 bdbe
00000130: b007 9fbe f16c 473e 312b 833f 474f eb3e
00000140: 8228 1e3f 381d 99be 1ae1 e4be 4487 b03e
00000150: e49e 00be 4562 87be 75f6 f5bd 28f6 143f
00000160: 906c 553f 8826 f7bc ac5f 603f 6830 053c
00000170: cd6d 863e 0415 313f ef69 a83e beb2 fe3d
00000180: a15a 34be 83f6 3a3f a192 8d3e 882e dfbd
00000190: 2693 be3e c2db e13d 88e0 63bd 74fc 053f
000001a0: a6f0 323e e1f3 1740 5916 d73e 9ca5 e53e
000001b0: fa74 15be b24d b13e a13b 02be 38c6 bb3f
000001c0: c868 18be b75b 923e 62eb 8f3f 835f 01bd
000001d0: 6bc8 223d 8711 d73e 36c4 0f3f d258 c03f
000001e0: 959c ddbd e593 0e3e 82f5 2f3f 7124 fb3e
000001f0: 329e 46bd 614d b93e f47b 9a3e f72c a63f
00000200: d81d 9dbe 0536 03be 70b9 95bd d5a3 81be
00000210: b055 6cbe 745b 99bd fdc5 48be 4610 053f
00000220: c00e 923e c409 b3be 015a abbe 6582 bf3e
00000230: 7b79 00bd 7cb0 c6be 540f 1b3f 5c31 d13e
00000240: 8b24 563e c3f6 9bbe 4da7 56bf 4a83 553d
00000250: 0f28 d43e 566a 68be 93d3 db3d 6e28 07be
00000260: 6fab e53d 0706 24bf 5d61 8d3e 4990 8ebe
00000270: a611 1a3c 4d44 003f 84f6 a23e bfa8 05bf
00000280: c29f eb3e 31bb 1dbf d4fe 893e a54c 163f
00000290: 2d1f 183f 8bde 55bd 3081 9d3e 5b73 2dbf
000002a0: 7eac 883e b40b c93e 2bdc bdbd 7ab1 b33e
000002b0: ba02 5f3e 39ce cfbe f153 50be 4ac1 e0bd
000002c0: d89e 72be e631 d63a 6777 8ebc 31f3 bcbe
000002d0: d5c8 35be ff36 9bbe 297f d3be 0516 6a3d
000002e0: 6371 2cbf 979e 88bd e447 4a3f f1d0 97be
000002f0: 22fc 543e 3830 5ebf 385d 26bd 2692 d43d
-0.08083175 0.22372082 0.10120071 0.20011826 0.04339467 0.40599436 -0.17995612 -0.01358069
0.08478975 0.38838947 0.43898574 0.12804873 0.19281298 -0.052921757 0.52866596 0.5205891
0.3029191 0.29584965 0.28568542 0.04538633 0.9233674 0.10238267 0.1830073 0.3340594
0.29630014 -0.7185168 -0.26195434 0.20869893 -0.29372197 0.22115837 0.46578646 0.32973787
0.096070446 0.082233384 -0.113399565 0.06535509 -0.06588634 0.35584873 0.20131378 0.32672527
0.19020411 -0.03671193 -0.0052658254 0.16255297 0.066274315 0.06600262 0.034121122 0.0023463853
0.3310593 -0.17322142 0.38254258 0.32507572 0.10715294 0.61770964 0.16800773 0.33762798
0.5896481 -0.070708826 0.43106163 0.33243677 0.3504097 -0.16154149 0.24043348 0.2981039
-0.1588729 0.26505747 0.055249818 1.0607971 0.07318997 1.1635687 0.8480341 1.3307229
0.58840704 0.8109155 -0.4816966 -0.36931714 -0.31060553 0.19475152 1.0247556 0.4595892
0.6178056 -0.29905105 -0.4470299 0.344782 -0.12560612 -0.2644216 -0.120098986 0.58188105
0.8336878 -0.03016974 0.87645984 0.008129217 0.26255646 0.6917269 0.3289332 0.12436436
-0.17612697 0.730324 0.2765093 -0.10897547 0.3722164 0.110282436 -0.05563405 0.5233834
0.17474613 2.3742602 0.42009237 0.44852912 -0.14595404 0.3462959 -0.12718059 1.4669867
-0.14883721 0.28585598 1.1243708 -0.031585228 0.039741915 0.4200556 0.5615877 1.5027106
-0.10820881 0.13923605 0.6873399 0.4905124 -0.04849071 0.36191848 0.30172694 1.2982472
-0.3068683 -0.12813576 -0.0731076 -0.25320306 -0.23079562 -0.074881464 -0.19606777 0.51977956
0.28526878 -0.34968388 -0.33467105 0.3740417 -0.031365853 -0.38806522 0.60570264 0.4085797
0.20912378 -0.30461702 -0.8384903 0.05212716 0.41436812 -0.22696814 0.10733714 -0.13199016
0.11214339 -0.64071697 0.27613345 -0.27844456 0.009403622 0.5010422 0.31828701 -0.5221061
0.46020323 -0.61613756 0.2695223 0.587107 0.5942257 -0.052214187 0.30762625 -0.67754143
0.266941 0.3926674 -0.09270509 0.3509634 0.21778384 -0.40587023 -0.20344521 -0.10974367
-0.23693407 0.0016341775 -0.01739092 -0.3690429 -0.17752393 -0.30315396 -0.41307953 0.057149906
-0.67360514 -0.066708736 0.79015946 -0.29651597 0.20799306 -0.86792326 -0.040616244 0.10379438

weight f4 [10, 64]
00000000: eae3 8a3d 3afc 483f 1af8 31bf d248 533f
00000010: b688 1a3f 0196 72bf 61ec 2540 62c0 9d3f
00000020: 85c0 203b a285 45be 8991 e83d 51a3 b6bd
00000030: 1535 373d d412 833e 656b f3bd baaf c4be
00000040: 9543 b93e c792 393e 49a6 a1bd cf42 263f
00000050: 3281 b83e b41f 843e 1450 683d 8aef 993e
00000060: f5b9 25bd 8a02 1f3f ccb5 98be d8dc 28be
00000070: 067f 113f a314 07bf d82c 4dbe d523 67bf
00000080: 413a c23e 69dc ba3d 1c74 c5be 5ef3 c23e
00000090: 87ac f7be 241d 5bbd 2882 5abf de87 4ebf
000000a0: 8394 86bf 4db3 d9be 9d37 0bbf 1ad3 e5be
000000b0: b011 c03e d19b f03e ffb4 cc3e 531f a83f
000000c0: 520f 6c3e 0767 d8be 0807 0a3f d13a 203e
000000d0: 40a2 463e 18ba 0dbb 9486 b13e 01f3 483d
000000e0: 7305 4b3f df10 bd3e 1b02 19bf 7684 a4be
000000f0: 78fb d2be 62a7 fb3e 531b 67bf c93c 32bf
00000100: 7b32 13be 6ab9 cdbe 51d3 823e d327 25bf
00000110: cadd f0bd d327 1c3f 0773 f93e 74bb f4bc
00000120: 323c 903e a80e 0e3f 450e 75be 388b f73d
00000130: 785b b83e 96ce 6e3c ae5a 5b3f 52d2 f43d
00000140: 9028 a1bf e793 37bf d57a d03e aead 8b3e
00000150: 7563 f43e 919d d7bc 1d20 a2be 38f0 40bd
00000160: c4d3 843e 8747 e03e 9124 393f 7b42 483f
00000170: ecb3 1ebd 6958 9c3c 49d9 2abf 79fb 0ebf
00000180: ad38 27bd ea60 0f3e ddc9 aebe 36bf b73e
00000190: 5b50 b63d 0cc0 343f 450d af3e fb34 b43d
000001a0: c129 10bf f1de 243f 46d0 bc3d 86ef 273f
000001b0: 1349 02be 73bf a5be b35d a7bd 885e 38bf
000001c0: 0182 833e cbe3 d5be 3971 6cbe e719 c53e
000001d0: b42a 38bd 4e3c 3dbf 6574 24be b016 8c3e
000001e0: 7bfd 8ebd b3ef 06bf 6a49 2e3f e452 1b3e
000001f0: 33bf ffbe 96d9 abbe e6f1 2b3c 9fd4 593f
00000200: c2d5 adbd 0ef7 873e 71e7 8dbe a412 1cbd
00000210: c84f 7abe cbd6 9c3e 46fa c1bf f3d7 2e3f
00000220: 43b7 e4bd fa30 a9bd daf6 e1be 3fe0 8ebe
00000230: 0429 21bf ad1e 0bbf 46a6 f9be 67a4 5d3f
00000240: 90ee cd3e cb7a f8bd 04e0 8a3e 3735 ecbd
00000250: b3f3 883e 4548 0a3e aea5 d9be 6169 263e
00000260: de96 ec3d 9f4e dabe cb7c 44bf 454e d2be
00000270: 1139 173d e16e 02bf 1af4 04bf c30a 8d3e
00000280: 388d febe 497e 1f3f 0330 63be 80d0 743e
00000290: 6603 7ebe 82d2 a73e f206 adbe dddf 563f
000002a0: ffd1 8fbe 041c 83bf 04a1 f13c a50b 19bf
000002b0: d82c 87be e107 7bbe 8c59 c53f a440 88bf
000002c0: 6d6a 90bc 8cf4 a13e a828 2e3f b796 3abe
000002d0: 7746 1bbf 2ae9 01bd a1cb 89be 7bd5 2d3e
000002e0: c34d f53e f5ec 38bf 75d8 2a3e 633f 113f
000002f0: 1437 cebe 893d f0be 3e66 943e 01f3 d7be
00000300: 2d9e 38bf c466 f9be eb7d 053e 6c7a 99bf
00000310: 4156 a93e e7c4 2c3f 986a 93bf 4c70 043f
00000320: 7b31 78bf 464b d4bd 2aae 853e 5cac 933e
00000330: d3ba 1fbf f854 423f 1b75 e7be 5689 9e3e
00000340: 7831 103e 685d 67bf e22b a83e f4b2 3abd
00000350: bfbf 04bf e3aa f03e 5b6e ce3d f25e a2be
00000360: eb32 67be 0dea 443d ceb1 be3c 5877 30bf
00000370: 9ca4 e8be df8d 95be feb7 3abd 5e14 903e
00000380: 114b 9c3e 660d 75be 368b 68be f4b4 4fbf
00000390: 49ba 063f ea3d 083f dc18 73be 1732 163e
000003a0: ee0e f03e 0101 9dbf 7222 7e3f c38c 02bf
000003b0: 7be1 793e c503 debe c88d 13bf a96a c4bf
000003c0: 0aea 73be dcde e23e 7202 953f 76ce 123e
000003d0: 62ea ce3e 5e6c dfbd 1cbd 37bf 6fdc 06bf
000003e0: 4a6e fd3d aca5 d23e 8e1c 06bf cb21 7b3d
000003f0: 7445 e23d bbeb 32bd f52c 1b3f c4b5 e7bd
0.067817524 0.7850987 -0.695192 0.8253299 0.60364854 -0.9476014 2.5925524 1.2324336
0.0024528813 -0.19289258 0.11355884 -0.08917869 0.044728357 0.25600302 -0.11885718 -0.3841532
0.36184373 0.18122397 -0.078930445 0.6494569 0.36036068 0.25805438 0.056716993 0.30065566
-0.040460546 0.6211325 -0.298262 -0.16490495 0.5683445 -0.52765864 -0.20036638 -0.9028905
0.3793507 0.09124071 -0.38565147 0.380763 -0.48373815 -0.053494588 -0.8535485 -0.80676067
-1.0514072 -0.42519608 -0.54381734 -0.4488762 0.37513494 0.46993878 0.3998184 1.3134559
0.23052719 -0.42266104 0.5391698 0.15647437 0.19397831 -0.0021625813 0.34672987 0.04905987
0.7930519 0.36926934 -0.5976884 -0.3213231 -0.4120748 0.4915114 -0.9027607 -0.69624
-0.14374726 -0.40180522 0.25551847 -0.6451389 -0.11761053 0.60998267 0.4872057 -0.02987454
0.28170925 0.55491114 -0.23931225 0.12087101 0.36007285 0.014575621 0.8568524 0.11954178
-1.2590504 -0.71710056 0.40718713 0.27280945 0.4773213 -0.02632025 -0.31665125 -0.04710409
0.25942814 0.4380457 0.7232142 0.7822644 -0.038745806 0.019085126 -0.667378 -0.55852467
-0.040825535 0.14001814 -0.34138384 0.3588807 0.08902045 0.7060554 0.3418981 0.08799168
-0.5631371 0.6440268 0.092194125 0.6559986 -0.12723188 -0.32372627 -0.081721686 -0.72019243
0.25685123 -0.41775355 -0.23090066 0.38496324 -0.0449626 -0.7392014 -0.16060026 0.2736106
-0.06981941 -0.527095 0.6808077 0.15168339 -0.4995056 -0.33564442 0.010494685 0.8509006
-0.08488037 0.26555675 -0.27715638 -0.038103715 -0.24444497 0.30632624 -1.5154502 0.6829826
-0.11167767 -0.08261295 -0.44133645 -0.2790546 -0.6295321 -0.5434368 -0.4875967 0.86578983
0.4022107 -0.12132796 0.27124035 -0.115335874 0.26748428 0.13504131 -0.42509216 0.16251136
0.11552213 -0.42638108 -0.7675292 -0.4107534 0.036919657 -0.5095044 -0.5193497 0.27547273
-0.49717116 0.6230207 -0.22186284 0.23907661 -0.24805984 0.32777792 -0.3379436 0.8393534
-0.28089902 -1.0242925 0.029495724 -0.59783393 -0.264014 -0.24514724 1.5417953 -1.0644727
-0.017628873 0.31631887 0.68030787 -0.18221556 -0.60654396 -0.031716503 -0.2691317 0.16975968
0.4791089 -0.7223657 0.16684134 0.56737345 -0.40276396 -0.46921948 0.28984255 -0.42177585
-0.7211636 -0.48711216 0.13036315 -1.1990485 0.3307362 0.6748795 -1.1516905 0.5173385
-0.969505 -0.1036592 0.2610944 0.28842437 -0.62394446 0.759109 -0.45206532 0.30964154
0.14081371 -0.903769 0.3284598 -0.04558082 -0.5185508 0.47005376 0.100796424 -0.31713063
-0.22578017 0.04807477 0.023278143 -0.68932104 -0.45438087 -0.29209802 -0.045585625 0.2814054
0.3052602 -0.23930892 -0.22709355 -0.8113549 0.52628 0.53219473 -0.23739952 0.14667545
0.4688639 -1.2265931 0.9927131 -0.50996035 0.2440242 -0.4336225 -0.57638216 -1.534505
-0.23819748 0.44310653 1.1641371 0.14336571 0.40413195 -0.10909341 -0.71772933 -0.52680105
0.123745516 0.41142023 -0.5238732 0.061311524 0.110484034 -0.04368184 0.60615474 -0.11313966

bias f4 [10]
00000000: 3413 8abe 5fcf b83d a995 3bbe c861 02be
00000010: cb62 1fbe bd26 0b3f d076 1dbf d580 773f
00000020: 190a 483e 3ea0 18be
-0.26967776 0.09023928 -0.1831881 -0.12732613 -0.1556503 0.54355985 -0.6150942 0.9668096
0.19535102 -0.14904878
