model/new/64_lstm.model (torch_old, 110081 bytes, 6 tensors)

weight_ih_l0 f4 [256, 28]
0	0x3d850fe5	0.06497172
1	0xbd70f876	-0.0588307
2	0x3ca604d9	0.020265983
3	0x3e4224ee	0.189594
4	0x3d32dd02	0.0436678
5	0x3efd0541	0.4941807
6	0x3f26e9ca	0.65200484
7	0x3f20feea	0.6288897
8	0x3ecd2cf8	0.4007337
9	0x3f123ab9	0.57120854
10	0x3ee2001c	0.44140708
11	0x3e1301e8	0.14356196
12	0x3f30461a	0.68856966
13	0x3ee7360f	0.4515843
14	0xbdb13974	-0.086535364
15	0xbe691efd	-0.22765727
16	0xbced1be8	-0.02894397
17	0x3ec058c8	0.37567735
18	0x3ecef6bb	0.40422615
19	0x3ee7115b	0.4513043
20	0xbed1da7f	-0.40987012
21	0xbe5629ed	-0.20914431
22	0xbe2aed87	-0.16692172
23	0xbe0fec52	-0.14054993
24	0xbe64e49f	-0.22352837
25	0xbdaa0414	-0.08301559
26	0xbc22aa16	-0.009928247
27	0x3d9b90f5	0.07596008
28	0x3d1e308f	0.038620528
29	0x3e733f06	0.2375451
30	0x3d2be4fb	0.04196642
31	0x3ed308ce	0.41217655
32	0x3bd93c48	0.0066295005
33	0xbd04e318	-0.032443136
34	0x3e3a4e74	0.1819399
35	0xbebc3233	-0.3675705
36	0xbcff393e	-0.031155225
37	0xbeec76db	-0.4618443
38	0xbe69bf9e	-0.22827002
39	0x3d9a9e28	0.07549697
40	0xbea7675f	-0.32696053
41	0xbddb512d	-0.107088424
42	0x3e120d8c	0.1426298
43	0xbe565b4d	-0.20933266
44	0x3f2c7d48	0.67378664
45	0x3f519eec	0.8188312
46	0x3f262701	0.64903265
47	0x3dbcee33	0.092251204
48	0xbf42e93c	-0.7613714
49	0xbf25cb6c	-0.6476352
50	0xbf8fae43	-1.1225055
51	0xbf4640a7	-0.774424
52	0xbe165fea	-0.14685026
53	0x3bf4c3a8	0.007469613
54	0x3e8d49a3	0.27595243
55	0x3e875b53	0.26436862
56	0xbd05fc66	-0.03271141
57	0xbde63bd7	-0.11241882
58	0x3d2a406e	0.04156535
59	0x3d27f285	0.04100277
60	0xbcd3ee4c	-0.025870465
61	0x3eb98f2f	0.36242053
62	0x3eb76a50	0.35823298
63	0x3ea4bcbd	0.32175246
64	0xbe3f1660	-0.18660879
65	0xbde37b7d	-0.11107538
66	0x3dd6147a	0.10453124
67	0x3e818b5f	0.25301644
68	0x3e7ab835	0.24484332
69	0x3de71d4d	0.112848856
70	0x3e26205c	0.16223282
71	0xbe135ae5	-0.14390142
72	0x3e170534	0.14748079
73	0x3e7729f3	0.24137096
74	0xbd0cffa4	-0.034423485
75	0xbf246bab	-0.6422679
76	0xbf137d7d	-0.57613355
77	0xbb6e7fce	-0.0036392095
78	0xbdea147c	-0.11429688
79	0x3dc95eb2	0.09832515
80	0x3db3a304	0.08771327
81	0xbd3561a2	-0.044282563
82	0x3d47adc6	0.048749708
83	0xbcc63f3f	-0.02420008
84	0xbcef372b	-0.02920111
85	0xbe340414	-0.1757968
86	0xbe3d0f8b	-0.1846296
87	0xbde47d2c	-0.11156687
88	0xbe71947c	-0.23591799
89	0xbe38f111	-0.1806071
90	0xbce9ac9e	-0.028524693
91	0x3e5d53f2	0.21614054
92	0x3eb3659c	0.3503846
93	0xbd99b37f	-0.07504939
94	0xbedbb067	-0.42908022
95	0xbe2ca240	-0.16858768
96	0x3f2f18cc	0.6839721
97	0x3f91237b	1.1338953
98	0x3e856a00	0.26057434
99	0xbf176eb7	-0.5915331
100	0x3cc858af	0.02445635
101	0xbe94d8ad	-0.2907156
102	0xbe8fbb7f	-0.28072736
103	0x3df0a8d6	0.11750953
104	0x3e4ccf1a	0.20000878
105	0x3deb92a7	0.11502581
106	0x3ee0ba29	0.4389203
107	0x3d4ac4d0	0.0495041
108	0xbdbeab98	-0.09310073
109	0xbda86a3d	-0.08223388
110	0xbd3b4baf	-0.045726474
111	0x3afebb73	0.0019434526
112	0x3e1b679f	0.15176247
113	0xbd48c351	-0.049014393
114	0x3cf688c6	0.030094516
115	0x3df4ad97	0.11947172
116	0x3e08f0f5	0.13373168
117	0x3e0e505e	0.13897845
118	0x3dd705c6	0.10499148
119	0xbcc5014d	-0.024048472
120	0x3e8c1854	0.2736231
121	0x3e96d4b7	0.29459164
122	0xbe0dbd74	-0.13841802
123	0xbe0b4652	-0.13601044
124	0x3e0b64aa	0.13612619
125	0x3ec7c432	0.39016873
126	0x3ed1ad84	0.40952694
127	0x3ef01e74	0.46898234
128	0xbd1148e1	-0.035469893
129	0x3f0e45db	0.5557534
130	0xbc2c7edf	-0.010528295
131	0x3d8dc8f8	0.06923097
132	0x3ef0bcf5	0.47019163
133	0x3ebc15db	0.36735424
134	0x3e2b0e68	0.16704714
135	0x3d87230b	0.06598481
136	0x3dc6268c	0.09675321
137	0x3de4f84e	0.11180173
138	0xbd022cd9	-0.03178105
139	0xbd881efa	-0.06646533
140	0x3e4cd9ad	0.20004912
141	0x3e6d6e6d	0.23186655
142	0x3e5284b5	0.20558436
143	0x3e81c6e0	0.25347042
144	0x3e329f6a	0.17443624
145	0x3ead6d8f	0.3387265
146	0x3ebf79a2	0.37397486
147	0x3e301fab	0.1719958
148	0x3e80f31a	0.25185472
149	0xbcfd9302	-0.030953888
150	0xbd212b04	-0.039347664
151	0xbe3a261b	-0.18178599
152	0xbd24da62	-0.04024733
153	0xbde00dc1	-0.10940123
154	0x3e4e978b	0.20174997
155	0x3ecbd362	0.3980971
156	0x3e3e95e8	0.18611872
157	0x3e31b24f	0.17353176
158	0x3f6cab0b	0.9244849
159	0x3f290ee6	0.6603836
160	0x3f463ee2	0.774397
161	0x3f006b92	0.5016414
162	0x3f189cd3	0.59614295
163	0x3f200edf	0.6252269
164	0x3e750f99	0.23931731
165	0x3e8d80eb	0.2763742
166	0x3e50e3b0	0.20399356
167	0x3e714574	0.2356165
168	0xbd76a2bd	-0.060213793
169	0xbc8ff416	-0.017572444
170	0xbc1f1ceb	-0.009711484
171	0x3e4564f9	0.192768
172	0x3e6a17d7	0.22860657
173	0x3e799fbf	0.24377345
174	0x3dea7994	0.114489704
175	0x3ab6c022	0.0013942758
176	0x3de700f8	0.11279482
177	0x3e81b533	0.25333557
178	0xbd1da384	-0.03848602
179	0x3d15d3aa	0.03657881
180	0x3d9644c3	0.07337334
181	0x3dfc43ef	0.12317645
182	0x3f2642e7	0.64945835
183	0x3fa1f92a	1.2654164
184	0x3ed0dd4f	0.40793845
185	0xbd9be4ff	-0.07612037
186	0xbeb23a5d	-0.34810153
187	0xbe22d41a	-0.15901223
188	0x3e9be8af	0.3045096
189	0x3d7b4249	0.06134251
190	0x3e5db940	0.21652699
191	0xbcdff502	-0.027338509
192	0xbda8bf57	-0.0823962
193	0x3e13a409	0.14418043
194	0x3e13e7c7	0.14443885
195	0x39caf275	0.00038709087
196	0x3d04b37a	0.032397725
197	0x3d257edc	0.040404186
198	0x3de4b3c0	0.11167097
199	0xbdcef111	-0.101045735
200	0x3dd6697f	0.104693405
201	0xbdca54e5	-0.098794736
202	0x3e6f8503	0.23390584
203	0x3c212357	0.009835086
204	0xbe3651c1	-0.17804624
205	0xbee6810d	-0.45020333
206	0xbe0f3339	-0.13984384
207	0x3dda9743	0.10673382
208	0x3f1a9cb5	0.60395366
209	0x3f793b53	0.97356147
210	0x3ed70fb2	0.42004162
211	0xbc876ed5	-0.016532341
212	0xbebeb95a	-0.37250787
213	0x3d6a78b0	0.057244003
214	0xbd537080	-0.05162096
215	0xbeadb872	-0.33929783
216	0xbe95b912	-0.2924276
217	0x3d1ce761	0.038306598
218	0x3d5d3762	0.054007895
219	0xbc785aff	-0.015158414
220	0xbe78118b	-0.24225442
221	0x3d4dec5c	0.050274238
222	0xbde84f38	-0.11343235
223	0xbdd93a1e	-0.10606788
224	0xbcead65d	-0.02866667
225	0xbe353a43	-0.17698006
226	0xbdd7bc76	-0.10533993
227	0x3d7acdfd	0.061231602
228	0xbe43db86	-0.1912671
229	0xbe0993e4	-0.13435322
230	0xbe65cc23	-0.22441153
231	0xbe5ed30f	-0.217602
232	0xbe0cb380	-0.13740349
233	0x3e3f8959	0.18704738
234	0x3ead1673	0.3380619
235	0xbe7164bf	-0.23573588
236	0xbf803fba	-1.0019448
237	0xbf2c40ff	-0.67286676
238	0x3daaa35d	0.0833194
239	0xbeec37ab	-0.4613622
240	0x3dccdd2b	0.10003122
241	0xbebef184	-0.37293637
242	0xbf7c3510	-0.98518467
243	0x3dc3810a	0.095460966
244	0xbe8621d6	-0.2619769
245	0xbeb9b586	-0.36271304
246	0xbe737904	-0.23776633
247	0xbe46d574	-0.19417363
248	0x3e9b0d10	0.30283403
249	0x3de9ad8e	0.11410056
250	0xbd0a213a	-0.033723094
251	0xbe01896e	-0.12650082
252	0x3d92ef90	0.07174599
253	0x3e08932a	0.13337389
254	0x3d9b8beb	0.075950466
255	0x3d3c7daa	0.04601828

weight_hh_l0 f4 [256, 64]
0	0xbf089a13	-0.533601
1	0x3e9592f8	0.2921369
2	0xbd9bce6c	-0.07607731
3	0x3e3fec7c	0.18742555
4	0xbe96cec1	-0.29454616
5	0x3de37864	0.11106947
6	0x3de30b10	0.110860944
7	0x3df26dc6	0.11837344
8	0x3d6d6b10	0.05796343
9	0xbdf4bf10	-0.11950505
10	0xbec15cf7	-0.3776624
11	0xbd9be961	-0.07612873
12	0x3d11618a	0.03549341
13	0xbe5cc1c7	-0.21558295
14	0x3eb53dc4	0.35398686
15	0x3ec98660	0.39360332
16	0x3e603fb8	0.21899307
17	0x3d9383a1	0.072028406
18	0x3e975755	0.29558817
19	0x3db0ee26	0.08639173
20	0xbeb0d71d	-0.34539118
21	0x3eafd37e	0.34341043
22	0x3e81146f	0.25210902
23	0xbde3ee5b	-0.11129447
24	0xbe18abd6	-0.149093
25	0xbe678750	-0.22610211
26	0xbe543ba3	-0.20725875
27	0x3efa2dcf	0.48863074
28	0xbe9a44c7	-0.30130598
29	0x3d24e77b	0.04025982
30	0x3e360ee4	0.17779118
31	0xbe88ab47	-0.26693174
32	0xbedc9499	-0.4308212
33	0xbde5d48e	-0.11222182
34	0xbe36cd33	-0.17851715
35	0x3b77551f	0.0037739945
36	0x3ecd617d	0.4011344
37	0x3e07403f	0.13208102
38	0xbd353e08	-0.04424861
39	0x3cfcca32	0.030858133
40	0xbda7de1b	-0.0819666
41	0xbd74e6b3	-0.059790324
42	0x3f316f7f	0.69310755
43	0x3e8d5112	0.27600914
44	0x3e189871	0.14901902
45	0xbe68c92b	-0.2273299
46	0x3bc29398	0.0059380047
47	0x3a07ae72	0.00051758357
48	0xbdeeaa53	-0.116535805
49	0x3f128553	0.57234687
50	0xbef8cc86	-0.4859354
51	0x3e46393f	0.19357775
52	0x3e149b19	0.1451229
53	0xbee8b324	-0.45449173
54	0x3f05c464	0.52252793
55	0x3cc5509b	0.024086287
56	0x3c8d8b27	0.017278267
57	0xbe3d4cfe	-0.18486401
58	0x3df3b75b	0.11900207
59	0x3e1d99f5	0.15390761
60	0xbe2bc05f	-0.16772602
61	0x3ea99821	0.33123878
62	0xbd80f53c	-0.06296775
63	0xbf2eba1c	-0.6825273
64	0xbe84713a	-0.25867635
65	0xbeb22670	-0.3479495
66	0x3f00b002	0.50268567
67	0xbe99bf19	-0.30028608
68	0xbeb8f3df	-0.3612356
69	0xbe98e1eb	-0.29859862
70	0xbcf18d94	-0.029486455
71	0x3e9c60bb	0.3054255
72	0xbfb64291	-1.4239064
73	0x3f750f2b	0.9572627
74	0xbec58de9	-0.3858483
75	0xbe3ec83b	-0.1863107
76	0xbea5ac35	-0.32357946
77	0xbe3759f8	-0.17905414
78	0x3f9ac3f1	1.2091047
79	0x3a0dcbd6	0.0005409097
80	0x3e203aed	0.15647478
81	0xbeb51035	-0.35363927
82	0xbe7a7ea1	-0.24462368
83	0x3e8d55ee	0.27604622
84	0x3e6c2ff5	0.23065169
85	0xbd9058b0	-0.07048166
86	0xbe9b3c45	-0.3031942
87	0xbb23fa0a	-0.002502086
88	0xbe99966b	-0.29997572
89	0x3eb9dfd7	0.3630359
90	0xbc07b706	-0.008283382
91	0x3df1a1c2	0.11798431
92	0xbeab8736	-0.33501595
93	0x3f01d2fc	0.5071256
94	0x3ea1d647	0.31608793
95	0x3f0f56ed	0.55992013
96	0xbeaf12dc	-0.34194076
97	0x3ed872b1	0.42275003
98	0x3eb684a2	0.35648066
99	0xbec8001d	-0.39062586
100	0xbf08d731	-0.53453356
101	0x3ec40433	0.38284454
102	0x3dad59c7	0.08464389
103	0x3b1c7b66	0.0023877262
104	0xbe6ef36e	-0.23335049
105	0xbd31a20d	-0.043367434
106	0xbeb7c638	-0.35893416
107	0x3d813a9f	0.06310009
108	0xbf3538cf	-0.7078981
109	0xbe55c9f4	-0.2087782
110	0x3ed6badd	0.4193944
111	0xbe3d44fb	-0.18483345
112	0xbd12c0f5	-0.03582855
113	0x3f42e083	0.7612383
114	0x3f3bada3	0.73311824
115	0x3f57ed08	0.84346056
116	0xbc64f8c5	-0.013975327
117	0x3d36ea53	0.044657063
118	0x3f8d83ae	1.105581
119	0x3ea3e734	0.3201233
120	0x3ebe0dc9	0.37119892
121	0x3ef5a4a6	0.4797718
122	0xbf32d636	-0.6985811
123	0xbf01cfb2	-0.5070754
124	0x3ebf2bcb	0.373381
125	0xbdb03386	-0.08603577
126	0xbe8186af	-0.25298068
127	0x3e886b06	0.26644152
128	0xbdcc80a9	-0.099854775
129	0xbd8be37d	-0.06830499
130	0x3ce3e88e	0.027820852
131	0x3d969baa	0.07353909
132	0xbb88e7e2	-0.004178033
133	0xbead3322	-0.33828074
134	0xbd6d0a82	-0.05787135
135	0x3bb72605	0.005589249
136	0x3f277a4e	0.65421
137	0xbcbe7fd1	-0.023254307
138	0xbe36d284	-0.17853743
139	0x3dba0785	0.090834655
140	0x3e16bfdd	0.14721628
141	0x3e91a31c	0.28444755
142	0xbeb33749	-0.35003117
143	0x3ef60b75	0.48055616
144	0xbc9b4b69	-0.018956857
145	0xbdb5e131	-0.088808425
146	0xbd34974c	-0.0440896
147	0xbeec39b0	-0.46137762
148	0xbe87a5ea	-0.2649377
149	0x3e98c61a	0.2983864
150	0xbdec9fae	-0.11553894
151	0xbe3f7236	-0.18695912
152	0xbd136431	-0.03598422
153	0xbc9ee4fb	-0.019396296
154	0xbd8be5bf	-0.0683093
155	0x3df6c9ea	0.12050231
156	0xbdd7491c	-0.105119914
157	0xbe843270	-0.2581973
158	0x3e629936	0.22128758
159	0xbe46fc57	-0.19432198
160	0xbdec26ca	-0.11530836
161	0x3ea3ac6f	0.31967494
162	0xbe39df4c	-0.18151587
163	0xbe586dde	-0.21135661
164	0x3d8a2fb8	0.06747383
165	0xbdc973f7	-0.09836572
166	0x3e9acb25	0.30233112
167	0xbf1ba5a0	-0.607996
168	0x3e583d8d	0.2111723
169	0x3e82fa64	0.25581658
170	0x3cbf2803	0.023334509
171	0x3e882f53	0.26598606
172	0xbd324588	-0.04352334
173	0xbeb3e03f	-0.35132024
174	0xbe6699f7	-0.2251967
175	0x3d00b9dc	0.03142725
176	0xbf12e458	-0.57379675
177	0x3e523c4d	0.20530815
178	0x3eae4794	0.34038985
179	0xbe3dec63	-0.18547206
180	0xbf0a6031	-0.54053026
181	0xbcc0f1c3	-0.023552781
182	0xbe9480be	-0.29004472
183	0xbf4f2257	-0.80911773
184	0x3dce84a0	0.1008389
185	0xbc8afd73	-0.016966557
186	0xbf0887f3	-0.5333244
187	0x3e83e180	0.2575798
188	0x3e8d1796	0.27557057
189	0xbc90904d	-0.017646933
190	0x3e723504	0.23653036
191	0xbeee3701	-0.4652634
192	0xbde64b2d	-0.112448074
193	0xbe7d442a	-0.24733034
194	0xbe3c9b50	-0.18418622
195	0x3e91e2d7	0.28493378
196	0x3ee36531	0.4441314
197	0x3e5883e8	0.21144068
198	0x3edd5254	0.43226874
199	0x3e03e008	0.1287843
200	0x3cfd0baf	0.03088936
201	0xbe941673	-0.28923377
202	0x3db590d5	0.08865515
203	0xbe001460	-0.12507772
204	0x3e46131a	0.19343224
205	0x3e0c6aa8	0.13712561
206	0x3e9d1736	0.3068177
207	0xbd6fdfc6	-0.058563016
208	0x3dddac25	0.108238496
209	0xbe770998	-0.24124753
210	0xbe1e53f9	-0.1546172
211	0xbe0c23f4	-0.1368559
212	0xbad7ebf3	-0.0016473517
213	0x3ca77f6b	0.0204465
214	0xbe8aab09	-0.27083614
215	0xbe9b3579	-0.30314234
216	0x3c31d6f6	0.010854473
217	0xbe92900b	-0.2862552
218	0xbd95ddaf	-0.073176734
219	0xbd281bb6	-0.041042052
220	0x3e8c4d3e	0.2740268
221	0x3d41f015	0.0473481
222	0x3d71b4a7	0.059010174
223	0x3eefddc8	0.46848893
224	0xbe9817e7	-0.29705736
225	0xbe485742	-0.19564536
226	0xbf045b06	-0.5170139
227	0x3e898536	0.26859444
228	0xbd789084	-0.060684696
229	0x3eac3450	0.3363366
230	0x3d44bf46	0.048033975
231	0x3e8570b7	0.26062557
232	0x3da6c9c7	0.08143955
233	0x3ee120d2	0.43970352
234	0xbc3f2f9a	-0.011669064
235	0xbe513858	-0.2043165
236	0x3e00a7cb	0.12564008
237	0x3ed22381	0.41042712
238	0x3e87e47e	0.26541513
239	0x3e964549	0.29349735
240	0x3da1b9b8	0.07896751
241	0xbe4d98b5	-0.20077784
242	0xbbd0b91e	-0.006369724
243	0x3da27142	0.079317585
244	0x3eae943f	0.34097478
245	0xbe4fb2d2	-0.20283058
246	0xbf0267ce	-0.50939643
247	0xbe1da282	-0.15394023
248	0xbebf8bb6	-0.37411278
249	0x3bb02893	0.0053759306
250	0x3ebd7073	0.36999854
251	0xbe0bac1a	-0.1363987
252	0xbe3089ca	-0.17240062
253	0xbec5cd53	-0.38633212
254	0xbe38b038	-0.18035972
255	0xbe357e75	-0.17724021

bias_ih_l0 f4 [256]
0	0x3dafc548	0.0858255
1	0xbe8478c7	-0.25873396
2	0x3d5d52a8	0.054033905
3	0x3e3f1711	0.18661143
4	0xbe14d96a	-0.14536062
5	0xbf1637ad	-0.58678705
6	0xbe5fffbe	-0.21874902
7	0xbd507c0e	-0.050899558
8	0x3e6f424e	0.23365137
9	0xbe68fccd	-0.22752686
10	0x3ecd8a35	0.40144506
11	0x3d739ccc	0.059475705
12	0x3b207379	0.002448289
13	0xbe032553	-0.12807207
14	0x3e78bd6f	0.24291013
15	0x3dec77cd	0.11546288
16	0xbe951fcc	-0.29125822
17	0x3df82987	0.12117296
18	0xbe0dbc88	-0.1384145
19	0x3f16c9da	0.5890175
20	0x3f07e0c9	0.5307737
21	0x3ed3dfc7	0.41381666
22	0xbe96993f	-0.29413792
23	0x3e404795	0.18777306
24	0xbe8ab98d	-0.2709469
25	0x3e1917ca	0.14950481
26	0xbe36a400	-0.17835999
27	0xbe9c17af	-0.3048682
28	0xbf8ce425	-1.1007124
29	0x3ec2bada	0.3803318
30	0xbe1c2c21	-0.15251209
31	0x3e68530e	0.22687933
32	0x3eb575ea	0.35441524
33	0x3e752204	0.23938757
34	0xbba7e8b1	-0.0051241745
35	0x3d1645e8	0.03668776
36	0x3eb78d31	0.35849908
37	0x3d95ddcd	0.07317696
38	0x3e0793e3	0.13240008
39	0x3ee8c748	0.4546454
40	0x3e4227e6	0.18960533
41	0xbeca673d	-0.3953189
42	0x3d81e8f6	0.06343262
43	0xbe86d817	-0.26336738
44	0x3d7014f5	0.058613736
45	0x3e22e9ef	0.15909551
46	0x3e2773ff	0.16352843
47	0x3e3bcca5	0.18339784
48	0x3e054457	0.13014351
49	0xbd927c6d	-0.071526386
50	0xbe7c80f7	-0.24658571
51	0xbe6e8933	-0.23294525
52	0xbe1bda4c	-0.15219992
53	0xbe23c15c	-0.1599173
54	0x3f473334	0.77812505
55	0x3e0ad873	0.13559131
56	0x3de3b8ca	0.1111923
57	0xbea3989e	-0.31952375
58	0x3e386f4c	0.18011206
59	0x3d0618d6	0.03273853
60	0x3f105c8c	0.56391215
61	0x3e562c3e	0.20915315
62	0x3e85146f	0.25992152
63	0x3dbbc858	0.09169072
64	0x3eed1dc3	0.4631177
65	0x3eebcc9b	0.4605454
66	0x3ef7c3c8	0.48391557
67	0x3ed76245	0.4206716
68	0xbdc2f758	-0.09519833
69	0x3e702685	0.23452194
70	0x3e9260f2	0.28589588
71	0x3e500a67	0.20316468
72	0x3f0635ab	0.5242564
73	0x3f80c07e	1.0058744
74	0x3dd99f86	0.1062613
75	0x3e48e0e0	0.19617033
76	0x3f2a6c22	0.6657125
77	0x3d23fafa	0.04003427
78	0x3ed1ea1b	0.4099892
79	0x3e925a2b	0.28584418
80	0x3f381c28	0.71917963
81	0x3dd145a3	0.1021836
82	0x3ee77a17	0.45210335
83	0x3f2ee44c	0.68317103
84	0x3f094291	0.536172
85	0x3f0a39e1	0.53994566
86	0x3e4c660a	0.199608
87	0x3f2625ec	0.64901614
88	0x3e52550c	0.20540255
89	0x3e194e86	0.1497136
90	0x3f2490a3	0.642832
91	0x3de63217	0.11240023
92	0x3f5b2539	0.8560367
93	0x3e156e08	0.14592755
94	0x3f4422de	0.76615703
95	0xbdf0acbf	-0.11751699
96	0x3eb53eb4	0.353994
97	0x3ee24691	0.44194463
98	0x3ebef68a	0.3729747
99	0x3efe8234	0.49708712
100	0x3d87faa3	0.06639602
101	0x3e868c4d	0.26278916
102	0x3f00aea5	0.50266486
103	0x3de511a5	0.11185006
104	0x3f5c4e37	0.86056846
105	0x3ed657e2	0.41863924
106	0x3ec440c7	0.3833067
107	0x3e111563	0.14168315
108	0x3f39f225	0.7263511
109	0xbe3df8c0	-0.18551922
110	0xbd6551a6	-0.05598607
111	0x3daa4dc8	0.08315617
112	0x3fa497f2	1.285887
113	0x3efb3c44	0.49069417
114	0x3f1fc6b5	0.6241258
115	0x3f20e563	0.62850016
116	0x3e9e96d9	0.30974463
117	0x3ec49759	0.3839672
118	0x3f1b38d3	0.6063358
119	0x3f109d54	0.56490064
120	0x3f99d384	1.2017674
121	0x3e89591f	0.26825806
122	0x3ec85d56	0.3913371
123	0x3f10e500	0.56599426
124	0x3edf4307	0.43605825
125	0x3c689074	0.014194597
126	0x3f16fc3e	0.5897864
127	0x3f11d4b0	0.5696516
128	0x3f7598a7	0.95936054
129	0x3e9d136f	0.3067889
130	0x3e9163d1	0.28396466
131	0x3f1ea342	0.6196786
132	0xbe19232d	-0.14954825
133	0xbdbb7f73	-0.091551684
134	0xbd380169	-0.04492322
135	0x3e50dfd9	0.20397891
136	0x3f251b28	0.6449456
137	0xbf17f51b	-0.59358376
138	0x3f059b66	0.52190244
139	0x3ef8f6b5	0.48625723
140	0xbecabb69	-0.39596108
141	0xbee874b8	-0.4540155
142	0xbf02f5ca	-0.51156294
143	0xbecfc14b	-0.40577158
144	0xbf1b93d3	-0.60772437
145	0xbd53959e	-0.051656358
146	0x3f0c3ed4	0.5478337
147	0x3e6212b7	0.22077452
148	0x3e42124e	0.18952295
149	0xbeb524d4	-0.3537966
150	0x3f18ced3	0.5969059
151	0xbed1f93f	-0.41010472
152	0xbf2220d6	-0.63331354
153	0xbebfe59a	-0.3747986
154	0xbe31e6c1	-0.17373182
155	0xbe9b9fdd	-0.30395404
156	0x3f8eaa6b	1.1145757
157	0x3eca23b5	0.39480367
158	0xbf2396cb	-0.63901967
159	0xbe942551	-0.2893472
160	0xbf031edc	-0.5121896
161	0x3f20a117	0.62745804
162	0x3ed646d2	0.41850907
163	0x3f45ef48	0.7731824
164	0x3f442dbb	0.7663228
165	0x3d915c5b	0.070976935
166	0x3cafcb40	0.021459222
167	0xbef3299d	-0.47492686
168	0x3ed732f9	0.42031077
169	0xbe70bc77	-0.23509394
170	0x3e1cef1a	0.15325585
171	0xbec4d532	-0.38443905
172	0x3f0a78d1	0.540906
173	0xbf3ecf49	-0.7453504
174	0x3c95e2dc	0.018296652
175	0x3ca22923	0.019795006
176	0xbf0638fa	-0.5243069
177	0x3dd9ea95	0.10640446
178	0xbcdad28c	-0.026711725
179	0x3f1b110c	0.60572886
180	0xbf4191e3	-0.7561323
181	0xbf0e9ea8	-0.5571084
182	0x3fa1600a	1.2607434
183	0xbda4d721	-0.08048845
184	0xbdf0c278	-0.11755842
185	0x3e576b47	0.21037017
186	0xbf837d2e	-1.0272577
187	0xbeb37584	-0.35050595
188	0x3edab890	0.42718935
189	0x3ec1c883	0.3784829
190	0xbced2dec	-0.028952561
191	0x3e17e1d9	0.14832248
192	0x3e91bbe5	0.28463665
193	0x3ef5fbb5	0.480436
194	0x3dbf2bf3	0.093345545
195	0x3e608a54	0.21927768
196	0x3e0f150f	0.13972877
197	0x3e84fb46	0.25972956
198	0xbde8d05c	-0.113678664
199	0x3e2cfcfc	0.16893381
200	0x3e2be4f5	0.16786559
201	0x3f4f5728	0.80992365
202	0x3ebd286f	0.3694491
203	0x3dc8d890	0.09806931
204	0x3e5ca2e7	0.21546517
205	0x3e6ec7fa	0.23318473
206	0x3e07719e	0.13226935
207	0xbe358ebc	-0.1773023
208	0x3f115fab	0.567866
209	0xbdc28a22	-0.09499003
210	0x3f04d0db	0.5188119
211	0x3e6400d7	0.22265945
212	0x3f0098bb	0.5023305
213	0x3f0cc09a	0.54981387
214	0x3ed530af	0.41638705
215	0x3eaf8aae	0.34285492
216	0x3e1d8370	0.1538217
217	0x3e04f04b	0.1298229
218	0x3e6feff4	0.23431379
219	0x3e328512	0.17433575
220	0x3ec2e3bd	0.38064376
221	0x3efc91e4	0.49330056
222	0x3f14e10d	0.581559
223	0x3e908bc6	0.2823164
224	0x3f1d3734	0.6141236
225	0x3e89fbb8	0.2694986
226	0x3f1e1c25	0.61761695
227	0x3e902ff9	0.281616
228	0x3f0d9b69	0.5531526
229	0x3efd4186	0.49464053
230	0x3d8d5db2	0.069026366
231	0x3e94a46d	0.29031697
232	0x3e13a488	0.14418232
233	0x3e802f55	0.2503611
234	0x3f4e2723	0.8052847
235	0x3eb83d2a	0.35984164
236	0x3f13a0a7	0.5766701
237	0x3e126a7c	0.14298433
238	0x3f284905	0.6573642
239	0x3e57559b	0.2102875
240	0x3eb77028	0.35827756
241	0x3ea4c9aa	0.32185107
242	0x3f1140ea	0.56739676
243	0x3ddb9b7a	0.10723014
244	0x3e627de4	0.22118336
245	0x3efd4216	0.49464482
246	0x3f88482c	1.0647025
247	0x3e59833c	0.21241468
248	0x3ee01ffc	0.43774402
249	0x3dad3803	0.08457949
250	0x3df580a1	0.11987425
251	0x3d690462	0.056888945
252	0x3f2efadd	0.68351537
253	0x3f0727de	0.5279521
254	0x3d4c4305	0.049868602
255	0x3e2b4cc0	0.16728497

bias_hh_l0 f4 [256]
0	0xbd801621	-0.06254221
1	0xbeabd0b8	-0.33557677
2	0x3e20d6a8	0.15706885
3	0x3eb4dd4c	0.35325086
4	0xbe16e390	-0.14735246
5	0xbf32d624	-0.69858
6	0x3cb79808	0.022411361
7	0x3e12c233	0.14331894
8	0x3ea99f2f	0.3312926
9	0xbe1de5f8	-0.15419757
10	0x3ee00b10	0.4375844
11	0xbd27ec7b	-0.04099701
12	0x3e4ce7ab	0.2001025
13	0xbe0d6dc5	-0.13811405
14	0x3e5bed3c	0.21477216
15	0x3db00a64	0.08595732
16	0xbeab6249	-0.33473423
17	0x3d62b7c5	0.055351038
18	0x3ceae028	0.02867134
19	0x3f191f88	0.5981374
20	0x3f01fb53	0.50774115
21	0x3eefe259	0.46852377
22	0xbe9954c6	-0.2994749
23	0x3e4036f7	0.18770967
24	0xbe6cc4b4	-0.23121911
25	0x3e0e537d	0.13899036
26	0xbe67c34e	-0.22633097
27	0xbe47e9ae	-0.19522735
28	0xbf8a0856	-1.0783794
29	0x3ea7e6fd	0.32793418
30	0xbe73a5a5	-0.23793657
31	0x3ec3cb08	0.38240838
32	0x3ec46bfd	0.3836364
33	0x3e9aa711	0.30205587
34	0xbc0a1ba4	-0.008429442
35	0xbcf153d0	-0.02945891
36	0x3e7c3cca	0.24632564
37	0xbcb54785	-0.02212883
38	0x3e871cce	0.26389164
39	0x3eae6f5a	0.3406933
40	0x3e15de42	0.14635566
41	0xbeb9ba47	-0.3627493
42	0x3ca9e4de	0.020739015
43	0xbe7f76ff	-0.24947737
44	0x3d3b7123	0.045762192
45	0x3e935b81	0.2878075
46	0x3d8a23f1	0.067451365
47	0x3bbecfe6	0.0058231233
48	0x3e38173e	0.17977616
49	0xbd98bdb3	-0.07458057
50	0xbd90c23d	-0.07068298
51	0xbd9e4a7a	-0.07729049
52	0xbeb2c7b9	-0.34918
53	0xbe1f125d	-0.15534349
54	0x3f3de4ea	0.7417742
55	0x3e58c055	0.21167119
56	0x3e2426e7	0.16030465
57	0xbdfed1a4	-0.124423295
58	0x3cc102e0	0.023560941
59	0x3dffce9a	0.12490578
60	0x3f06e69a	0.5269562
61	0x3e64d2d0	0.22346044
62	0x3e1c2496	0.15248331
63	0x3e43aee3	0.19109683
64	0x3ee2a2e5	0.44264904
65	0x3eec5ef8	0.46166205
66	0x3ed37bef	0.4130549
67	0x3e94968d	0.2902111
68	0xbd20e9fd	-0.03928565
69	0x3e5ddfc6	0.21667394
70	0x3e90ee1d	0.28306666
71	0x3daca913	0.08430686
72	0x3f08bb5e	0.534109
73	0x3f5fe863	0.8746397
74	0x3ea89a51	0.32930234
75	0x3e73bc4a	0.23802295
76	0x3eeb6dd5	0.45982233
77	0x3d1a5b3e	0.03768467
78	0x3e802a51	0.25032285
79	0x3e9dc675	0.30815473
80	0x3f2ee0e1	0.6831189
81	0x3df5cc1e	0.12001823
82	0x3edf44f0	0.43607283
83	0x3f62b10e	0.88551414
84	0x3f30f9f2	0.69131386
85	0x3f2dbf58	0.6787009
86	0x3e4a7fcf	0.19775318
87	0x3f33d207	0.7024235
88	0x3ece5f76	0.40307206
89	0x3e1dcf97	0.1541122
90	0x3f3021e4	0.68801713
91	0x3dd10d55	0.10207621
92	0x3f55c9f0	0.8351126
93	0x3d8de5ab	0.06928571
94	0x3f2b0b19	0.6681381
95	0xbd274809	-0.040840182
96	0x3ecdedd8	0.40220523
97	0x3eadb392	0.33926064
98	0x3e6f759d	0.2338471
99	0x3ef525b4	0.47880328
100	0x3e8303b2	0.25588757
101	0x3ed16cd7	0.4090335
102	0x3eb88d55	0.36045328
103	0x3e03312a	0.12811723
104	0x3f5d65da	0.8648354
105	0x3ef4b377	0.4779317
106	0x3eab0514	0.33402312
107	0x3e0e3e4f	0.13890956
108	0x3f1e6068	0.61865854
109	0xbe204f2a	-0.15655199
110	0x3d02dc70	0.031948507
111	0x3d3c6748	0.045996934
112	0x3faadd69	1.3348819
113	0x3f21d0d9	0.632093
114	0x3ed3a2e7	0.41335222
115	0x3effb7bd	0.4994487
116	0x3ec61b36	0.38692635
117	0x3e9b42ac	0.30324304
118	0x3f405351	0.7512713
119	0x3ed9ae0a	0.42515594
120	0x3f946ffb	1.1596674
121	0x3eac27be	0.3362407
122	0x3e9f38ee	0.3109812
123	0x3f09ecdd	0.5387705
124	0x3e9dc512	0.30814415
125	0xbda580fa	-0.08081241
126	0x3f25ac78	0.6471629
127	0x3f00b0b2	0.50269616
128	0x3f8a9130	1.0825558
129	0x3ea0b606	0.31388873
130	0x3e1d57c4	0.15365511
131	0x3f2138ff	0.62977594
132	0xbe160c76	-0.14653191
133	0xbce33e0d	-0.027739549
134	0xbd97b30c	-0.07407197
135	0x3e892e27	0.26793024
136	0x3f366f5f	0.7126369
137	0xbed6ab0d	-0.41927376
138	0x3eeedf12	0.46654564
139	0x3f014cc2	0.5050775
140	0xbebf1a1f	-0.37324616
141	0xbf0dbd26	-0.5536674
142	0xbe933416	-0.28750676
143	0xbe883601	-0.26603702
144	0xbec9b3b4	-0.39394915
145	0xbde42bea	-0.111411884
146	0x3ec5b2a5	0.38612857
147	0x3e38fa09	0.18064131
148	0x3e32d9f8	0.17465961
149	0xbea29b29	-0.31759003
150	0x3f4061ef	0.75149435
151	0xbf04d6db	-0.51890343
152	0xbf0ba64b	-0.5455062
153	0xbef46776	-0.47735184
154	0xbea18d6e	-0.31553215
155	0xbe0c1ced	-0.1368291
156	0x3f8f4ee3	1.1195949
157	0x3ebccde8	0.36875844
158	0xbf3b948e	-0.7327355
159	0xbe53cb5c	-0.20683044
160	0xbebb7399	-0.36611632
161	0x3f41d78d	0.7571953
162	0x3e8c5d9f	0.27415177
163	0x3f36d360	0.7141628
164	0x3f39aff5	0.72534114
165	0x3e16021b	0.1464924
166	0xbe19df2f	-0.15026544
167	0xbecc9e39	-0.39964464
168	0x3ec510bb	0.38489327
169	0xbe1f43db	-0.15553229
170	0x3e6f26e9	0.23354687
171	0xbeb97a70	-0.36226225
172	0x3f2a8e8f	0.6662378
173	0xbf56cbfd	-0.8390501
174	0xbc92e715	-0.017932454
175	0xbe2bfdfb	-0.16796105
176	0xbf038ca3	-0.5138647
177	0x3e21cd7c	0.15801042
178	0xbcb15616	-0.021647494
179	0x3f2a51e9	0.66531235
180	0xbf5c4cad	-0.860545
181	0xbf01c821	-0.50696
182	0x3fa857b5	1.3151766
183	0xbe4af807	-0.19821177
184	0xbe60d054	-0.21954471
185	0x3e53f1e3	0.20697741
186	0xbf6d63b2	-0.9273025
187	0xbee86292	-0.45387703
188	0x3f01e0ae	0.5073346
189	0x3e5a3707	0.21310054
190	0xbd4aa97f	-0.04947805
191	0x3e15d3b3	0.14631538
192	0x3dd39e1f	0.103328936
193	0x3f047fd8	0.51757574
194	0x3e45ea7e	0.19327733
195	0x3e1b7b5b	0.15183775
196	0x3e5857e4	0.21127278
197	0x3ea3ab26	0.31966513
198	0xbbdbcdc9	-0.006707881
199	0x3e2a3734	0.16622621
200	0x3d26601a	0.040618993
201	0x3f39a251	0.725133
202	0x3ed2d28c	0.4117626
203	0x3d38b6ab	0.04509608
204	0x3e31528a	0.17316642
205	0x3e25ccda	0.16191426
206	0x3de560bf	0.112000935
207	0x3d3f2cb4	0.04667349
208	0x3ef0a57e	0.4700126
209	0xbc80c279	-0.015717732
210	0x3ee8400c	0.45361364
211	0x3e570b7c	0.21000475
212	0x3eed8a45	0.46394554
213	0x3f299601	0.6624451
214	0x3e8d7960	0.27631664
215	0x3ea02307	0.31276724
216	0x3e7453a7	0.23860036
217	0x3dfe7d5c	0.12426254
218	0x3eb1ffaf	0.34765384
219	0x3c91de67	0.017806245
220	0x3e7f3209	0.2492143
221	0x3f0a4a7c	0.54019904
222	0x3f27502e	0.6535672
223	0x3e7094c9	0.23494257
224	0x3f14f3cd	0.5818451
225	0x3e317bc2	0.17332366
226	0x3ee2d4ef	0.4430308
227	0x3e7272b5	0.2367657
228	0x3edac8aa	0.4273122
229	0x3ef6b892	0.4818769
230	0x3e0930ce	0.13397524
231	0x3e78a8fd	0.24283214
232	0x3e53bfb5	0.20678599
233	0x3eeab926	0.45844382
234	0x3f3b8b42	0.73259366
235	0x3eb136bc	0.34612072
236	0x3f00104f	0.50024885
237	0x3e815bbc	0.252653
238	0x3f2419cc	0.6410186
239	0x3da0da60	0.07854152
240	0x3ee39e02	0.44456488
241	0x3e7faf9f	0.24969338
242	0x3ee25fa5	0.44213596
243	0x3d1c7584	0.03819801
244	0x3e2fe15c	0.17175812
245	0x3ec83e64	0.391101
246	0x3f82097c	1.0159144
247	0x3eba26d4	0.36357749
248	0x3f098a7c	0.53726935
249	0x3ea003d9	0.31252936
250	0x3e34df7d	0.17663379
251	0x3e729a2b	0.23691623
252	0x3f29a3a2	0.6626531
253	0x3f1a1d0f	0.6020059
254	0x3c881149	0.016609805
255	0x3e00cfc8	0.12579262

weight f4 [10, 64]
0	0xbd3f362e	-0.04668253
1	0x3f9b4caa	1.2132771
2	0x3ecb6442	0.39724928
3	0xbe92dbff	-0.2868347
4	0xbf6f025d	-0.9336298
5	0x3e723992	0.23654774
6	0x3f0cfd1e	0.55073726
7	0xbf3f0cb0	-0.74628735
8	0xbef15d42	-0.47141463
9	0xbf7e6cf7	-0.9938502
10	0xbf5ca732	-0.8619262
11	0xbf388842	-0.7208291
12	0xbf235573	-0.6380226
13	0x3e67a9d7	0.22623383
14	0x3d031030	0.03199786
15	0x3efd0e11	0.49424794
16	0x3f107210	0.56424046
17	0x3edea723	0.4348689
18	0xbf92f0fb	-1.1479791
19	0xbf471551	-0.777669
20	0xbf0a540c	-0.54034495
21	0xbf6ce082	-0.9253007
22	0x3e8e54cd	0.27799073
23	0x3f9187fa	1.1369622
24	0x3f30d322	0.69072163
25	0x3e25c5a2	0.16188672
26	0x3f7f76dd	0.99790746
27	0x3ec55bdd	0.3854665
28	0x3fd1867e	1.6369169
29	0xbd63fa05	-0.05565836
30	0xbe12ab9f	-0.14323281
31	0xbd1e9879	-0.038719628
32	0xbeba4833	-0.3638321
33	0xbf12a9c2	-0.5729028
34	0xbe359bfb	-0.17735283
35	0xbeaa7a42	-0.332964
36	0xbe6b9703	-0.23006825
37	0xbedd93ed	-0.4327692
38	0x3de2af42	0.11068584
39	0xbe8f0e63	-0.27940664
40	0x3df1d5b6	0.1180834
41	0xbf637649	-0.88852364
42	0xbf0adae1	-0.5424023
43	0xbec417d1	-0.3829942
44	0xbe9410f7	-0.28919193
45	0x3e777d00	0.24168777
46	0x3f486ce1	0.78291136
47	0x3d00aa69	0.031412516
48	0xc007a9ac	-2.119731
49	0xbf04539e	-0.5169009
50	0xbe065eca	-0.13122097
51	0xbe906053	-0.2819849
52	0x3d57496d	0.05256026
53	0xbe9ecf9c	-0.31017768
54	0xbf61a8da	-0.8814827
55	0x3e407696	0.18795237
56	0xbed593c0	-0.41714287
57	0xbf35771e	-0.70884883
58	0x3d108a1c	0.03528796
59	0xbea493b0	-0.32143927
60	0x3dc33d1c	0.0953314
61	0xbd60d11c	-0.054886922
62	0xbf4598ca	-0.7718626
63	0xbf1b5df3	-0.6069023
64	0xbcf64189	-0.030060546
65	0xbedb16f4	-0.4279095
66	0x3e92734e	0.28603595
67	0xbdd38a24	-0.103290826
68	0xbe5a76e4	-0.21334416
69	0xbe921d7e	-0.28538126
70	0xbeaa4ef8	-0.33263373
71	0x3d55fd77	0.052243676
72	0xbf043032	-0.5163604
73	0x3f26e1f3	0.6518852
74	0xbe40a379	-0.1881236
75	0x3d72cbed	0.05927651
76	0xbf2310be	-0.6369742
77	0x3e96f8a9	0.29486588
78	0xbd83b28f	-0.06430542
79	0x3e528e49	0.2056209
80	0xbeb405df	-0.3516073
81	0xbddfeb82	-0.109335914
82	0x3fa8378d	1.3141953
83	0x3ebce151	0.36890653
84	0x3e83eab0	0.2576499
85	0xbf84702d	-1.0346733
86	0xbd837862	-0.064194456
87	0x3da9f66c	0.08298954
88	0xbf665744	-0.89976907
89	0xbee89186	-0.45423526
90	0x3fd638c1	1.673607
91	0x3e88f742	0.26751143
92	0x3dd51147	0.10403686
93	0x3ef2bac6	0.47408122
94	0x3fdfa784	1.7472997
95	0xbd234581	-0.039861206
96	0x3ef0b213	0.4701086
97	0x3e174731	0.14773251
98	0xbf2fd6df	-0.6868724
99	0xbd83c745	-0.06434492
100	0xbf6021f1	-0.8755179
101	0x3f29f71e	0.66392696
102	0x3ef5dda2	0.48020655
103	0xbf22f7d1	-0.6365939
104	0xbfab9917	-1.3406094
105	0xbeb00b08	-0.34383416
106	0xbf2b37e5	-0.66882163
107	0x4001b063	2.0263908
108	0xbf6965ce	-0.91170967
109	0x3aba7f98	0.00142287
110	0xbd49da92	-0.04928071
111	0xbf49c543	-0.7881662
112	0x3e930ecd	0.2872223
113	0x3f8856fb	1.0651544
114	0xbdb7a44a	-0.089668825
115	0xbf0a506d	-0.5402897
116	0x3d79d090	0.060989916
117	0xbf013a7e	-0.50479877
118	0x3f4bf1e8	0.79665995
119	0xbcdb7de2	-0.026793424
120	0xbec364de	-0.38162893
121	0x3cd1139a	0.025522042
122	0x3d64f609	0.0558987
123	0xbf045013	-0.51684684
124	0xbf70920b	-0.93972844
125	0xbf310644	-0.69150186
126	0x3f948a60	1.1604729
127	0x3f90fa9e	1.1326482
128	0x3be9e1ff	0.0071375365
129	0xbff04883	-1.8772129
130	0xbe758811	-0.23977686
131	0xbc86af84	-0.016441114
132	0x3eddafdc	0.43298233
133	0x3f169d1a	0.5883347
134	0x3f8fd491	1.1236745
135	0x3e48a95e	0.19595858
136	0xbf4e2397	-0.80523056
137	0xbf23a157	-0.6391806
138	0x3ebc326c	0.3675722
139	0x3e23d3de	0.1599879
140	0xbe2bcb26	-0.16776714
141	0xbef97b8c	-0.4872707
142	0xbe83541f	-0.25650117
143	0xbc954b0b	-0.01822426
144	0xbf10ec68	-0.5661073
145	0xbd1a29e7	-0.037637617
146	0xbf436faf	-0.7634229
147	0x3f8d6ecc	1.1049438
148	0x3f0620e7	0.52393955
149	0x3f5f349c	0.8718965
150	0x3e33ebc8	0.17570412
151	0xbe089214	-0.13336974
152	0xbf09dd6b	-0.5385348
153	0xbfa16220	-1.260807
154	0xbf42be3b	-0.7607152
155	0x3e84e593	0.259564
156	0x3e368e14	0.17827636
157	0x3e9f6d7b	0.31138214
158	0xbf4b137b	-0.793266
159	0x3f1d547a	0.61457026
160	0xbe1afca0	-0.15135431
161	0x3ea0e1ae	0.3142218
162	0x3f672af0	0.9029989
163	0xbfa38755	-1.2775675
164	0xbd7014fa	-0.058613755
165	0xbd73d359	-0.05952773
166	0xbf106760	-0.5640774
167	0x3e9b107a	0.30286008
168	0xbfc02d82	-1.5013888
169	0xbfba5810	-1.4558125
170	0x3e80730d	0.25087777
171	0xbe7a3e7d	-0.244379
172	0x3e158e99	0.14605178
173	0x3e7b299f	0.24527596
174	0x3f6a52a5	0.91532356
175	0x3e294203	0.16529088
176	0x3f70ffa2	0.94140065
177	0x3f4a7499	0.79084164
178	0x3e8b37e6	0.27191085
179	0xbc0f6c03	-0.008753779
180	0x3e8512bc	0.25990856
181	0x3f3d964c	0.7405746
182	0xbf98659f	-1.1906012
183	0xbe59ae3e	-0.21257874
184	0xbef6e5f3	-0.48222312
185	0x3f4a668a	0.7906271
186	0xbcc7e135	-0.02439938
187	0x3fad1757	1.3522748
188	0xbdbb97b8	-0.091597974
189	0xbf92289d	-1.1418644
190	0xbf11ae32	-0.56906426
191	0xbeb09722	-0.34490305
192	0xbd1691a0	-0.036759973
193	0x3fb40e34	1.4066834
194	0x3eb6944a	0.3566001
195	0xbf6fb966	-0.9364227
196	0xbdb0f925	-0.086412705
197	0x3df310c2	0.11868431
198	0x3ea2fa7e	0.31831735
199	0x3de33afc	0.11095235
200	0x3ef99f86	0.4875452
201	0xbf20e2b1	-0.62845904
202	0x3c660860	0.014040083
203	0x3ea5a994	0.3235594
204	0x3f4f916d	0.8108128
205	0x3eccdaa3	0.40010557
206	0xbd7478a3	-0.05968536
207	0x3e493f4c	0.19653052
208	0xbf5d2117	-0.86378616
209	0x3e736089	0.23767294
210	0xbedc0ac7	-0.42976972
211	0xbf5a0ea3	-0.85178584
212	0xbf52016d	-0.82033426
213	0x3ef6ae4d	0.48179856
214	0xbf883d23	-1.0643657
215	0xbefec6b9	-0.49760988
216	0x3f503cf7	0.81343025
217	0x3e986575	0.29764906
218	0x3dfde0ac	0.123963684
219	0xbe6ef6c3	-0.2333632
220	0x3fb67a0d	1.4255997
221	0xbf4b5cc5	-0.7943843
222	0xbecb0896	-0.39654988
223	0xbd3173b4	-0.043323234
224	0xbe06ce5c	-0.13164657
225	0xbcea59a7	-0.028607203
226	0xbef06a18	-0.46955943
227	0x3cf5cb20	0.030004084
228	0x3ca576b4	0.020198204
229	0x3e925eac	0.28587854
230	0x3d41ab34	0.047282413
231	0x3e36023d	0.17774291
232	0xbf3d2001	-0.7387696
233	0xbf16fbee	-0.58978164
234	0x3f9cd4b4	1.2252412
235	0x3eb4066b	0.35161147
236	0xbec8625b	-0.3913754
237	0xbe3b00b3	-0.18261985
238	0xbfe62e9f	-1.7982978
239	0x3f00158f	0.50032896
240	0x3fb7eb3a	1.436866
241	0x3f9027b6	1.1262119
242	0x3fd38d79	1.6527549
243	0x3f4c4c5b	0.7980401
244	0xbf807b48	-1.0037622
245	0x3e86a760	0.26299572
246	0xbf37c063	-0.71777934
247	0xbe81bcc5	-0.25339332
248	0xbe5d7ea2	-0.21630338
249	0x3e5b8da8	0.21440756
250	0xbf5fce6d	-0.87424356
251	0x3f824663	1.017773
252	0x3df99601	0.12186814
253	0x3eccc194	0.39991438
254	0x3ebc15f2	0.36735493
255	0xbeeaad05	-0.45835128

bias f4 [10]
0	0xbebcf14d	-0.36902848
1	0x3dc4e6e4	0.096143514
2	0xbe7c936b	-0.2466561
3	0xbe491204	-0.19635779
4	0xbd3ea174	-0.046540692
5	0x3ef40350	0.47658777
6	0xbf067630	-0.5252409
7	0x3f893612	1.0719626
8	0xbd41bf10	-0.047301352
9	0x3d304f6b	0.04304449
