model/new/6_gru.model (torch_old, 13389 bytes, 6 tensors)

weight_ih_l0 f4 [18, 28]
00000000: 4fda 493e 38c7 54be c5c0 613d 6df4 123f
00000010: 3785 bfbe c5fc 4ec0 ced6 63c0 2bfb 76c0
00000020: dec6 1ec0 665c d9bf aa96 8abf 5107 89bf
00000030: 80e9 96bf 8e9a 67bf 0896 ad3f eacd de3f
00000040: 3179 ad3f 0a82 1140 0b42 1840 9200 1840
00000050: 19d5 923f ee32 eb3f 74e4 0440 9cf7 f53f
00000060: 5bc2 b13f 6ede 643f 103a d73e 2f59 ac3e
00000070: 3c68 eabd 3d44 0c3f d4f8 c23e 512d 233f
00000080: 1de4 593f 670f 113f 7311 463f 8f17 913f
00000090: 0542 e63f 0214 cc3f 23d6 cf3f e5d7 b23f
000000a0: 6a78 2540 47b2 6f3f e625 953e 62d3 023f
000000b0: 400f 143f 139a 893f 453c 243f 882b 8b3f
000000c0: 9307 2d3f 7794 423f 8c44 033f ceb7 783e
000000d0: 9b9e ed3e 6f46 583d a909 183f d538 093f
000000e0: 503c 59be b78b ecbe 920b 14bd b447 4e3d
000000f0: a913 923d 6703 4c3f 13fd 213f e896 32bd
00000100: 3563 0f3e b030 babe 7890 ffbe 2d96 34bf
00000110: ad0c cdbf 9ff0 a6bf af2c 893f 2165 8b3f
00000120: 5fc6 693f c83d 5e3f 0d89 ce3d 4ffa 98bf
00000130: e6e4 d7bf 29ca 51bf 9afe 14bf 2f1e d53d
00000140: df2f f6be a034 d5be 6eb6 11be 65e9 96be
00000150: 7019 a2bf fed0 debf ab44 eabf d15e b7bf
00000160: 995a 50c0 7fdf 0bc0 e726 e0bf a99c 38c0
00000170: 5a12 ecbf 6376 cebe 018a afbf 5995 88bf
00000180: a066 c4bf 6150 983f 8d39 ce40 4a9a d340
00000190: d5c7 17bf 426e 9fbf eb48 2cbe 5710 68bf
000001a0: 9a93 26bf f23e dfbf 06d7 28c0 dd94 40c0
000001b0: bae1 d3bf e2cd b1bf c434 b3bf 8e6b 99bf
000001c0: ea95 2bbf 3dbf adbf f0cb 66bf 8163 25bf
000001d0: f6dc 46bf d074 f63f b025 c13f 4359 72bf
000001e0: 2e86 26bf 617c 5ebe ac48 d1be 49c2 68be
000001f0: f8ce b83e 55a6 2dbf cfb1 913f 378d 3a40
00000200: 855b 4b3f 4c44 853f 4770 213f bd75 443f
00000210: db2d 873f 9c18 d33f e2e2 3340 811e 983f
00000220: 3540 c7be 184e 5ebf dc67 a4bf e410 b5bf
00000230: d26e 74bf 2c2e a1bb eba0 6a3d 023b d83e
00000240: 0038 1c3b b27c a3bf 554a 0bbf ca3d cb3f
00000250: a948 0340 8839 333f be95 a03e 67f8 6c3f
00000260: 2a29 7d3f 89a2 d23f 88e9 2e3f b2ed 8b3e
00000270: 35ff b03d 38f3 133f 5f4e 903f 81fd 6d3f
00000280: 8ef4 e23e d832 0b3f 001e 9bbf a0f6 5fbf
00000290: f1bf 64bf ad12 3fbf a5f0 80bf 0af3 59bf
000002a0: 652c 2fc0 424a 06c0 dcad 09bf 4799 e63d
000002b0: d5c9 413f 9bef 243f 8aed df3f 70d7 9d3f
000002c0: 42c3 91bf 7d17 4c3e 0ab6 ae3f f756 31bf
000002d0: f93f efbf ef74 8cbf f5fc b0be 3af5 f1be
000002e0: 6bf2 f9be ee81 9dbe 047b bcbf 4b1c f7bf
000002f0: 1299 a2bf eac0 b7be a562 58bf 64b3 afbf
00000300: f271 00bf 2eb4 12bf ccf0 7dbf 2caa 10c0
00000310: dfb3 5dbf 7ac8 2cbf b38e 16be 5970 9d3e
00000320: 830b c83f aa3c 8bbd c04e 04c0 f1fa 0e3c
00000330: c2ff 04c0 41fe d2bf 5bbb cebf f936 29be
00000340: 8a37 66bf 3eb6 2e40 35b3 2f40 ee6e 243f
00000350: f3aa 60bf 2f54 39bd 72f0 d33e 1a31 8ebe
00000360: 56b2 773b 31c9 f93e 9e44 aabd e65a f23f
00000370: 5811 713f b5d7 923f b803 d5bf 53ef a8bf
00000380: f7cb 28c0 ad45 41c0 53bb e8bf df21 08c0
00000390: 9f69 49bf 0751 96bf 4b5a 1bc0 b881 abbf
000003a0: e2ef c1bf 6375 9ebf 4e17 0fbf dc43 33bf
000003b0: 6e7a 53bf 9140 eb3d 1769 ee3b cfcb 3a40
000003c0: a5a3 a740 b1ed 8f40 ca11 7b40 7bef 993f
000003d0: a0c3 0940 cff5 3c40 2943 3240 7ee6 8540
000003e0: 0e0b 3040 5fc1 b4bf 2a96 06c0 d7ad 49c0
000003f0: 027d 38c0 4be8 2cc0 d775 32c0 9792 4bc0
0.19712184 -0.20779121 0.05511548 0.57404214 -0.37406322 -3.2341778 -3.5599856 -3.85908
-2.480888 -1.6981323 -1.0827229 -1.0705358 -1.1790009 -0.90470207 1.3561411 1.740659
1.355261 2.273562 2.379031 2.3750348 1.1471282 1.8374918 2.0764437 1.9216189
1.3887438 0.894019 0.42036486 0.33661792 -0.114456624 0.54791623 0.38080466 0.6374102
0.851137 0.5666413 0.77370375 1.1335315 1.7988898 1.5943606 1.6237224 1.3972136
2.5854745 0.93631405 0.29130477 0.51103795 0.5783577 1.0750145 0.64154464 1.087266
0.6758968 0.7600779 0.5127647 0.24288866 0.4641007 0.052801546 0.5938974 0.53602344
-0.21214414 -0.46200344 -0.036143847 0.05036135 0.07132656 0.7969269 0.63276786 -0.043600947
0.14002688 -0.3636527 -0.49914908 -0.7054165 -1.6019493 -1.3042182 1.0716761 1.0890237
0.91318315 0.8681302 0.10084734 -1.1951388 -1.6866729 -0.81949097 -0.5820099 0.10406148
-0.48083398 -0.41641712 -0.14229748 -0.2947494 -1.2664013 -1.7407529 -1.8302206 -1.4325811
-3.2555296 -2.185516 -1.7511872 -2.8845618 -1.84431 -0.40324697 -1.371399 -1.0670577
-1.5343819 1.189953 6.4445252 6.612584 -0.59289294 -1.2455523 -0.16824691 -0.9064993
-0.6506897 -1.7441084 -2.638124 -3.009086 -1.6553261 -1.3890955 -1.4000478 -1.1985948
-0.67025626 -1.3573986 -0.90154934 -0.64604956 -0.7768091 1.9254398 1.5089626 -0.9466745
-0.6504849 -0.21727134 -0.40875757 -0.22730364 0.36095405 -0.6783193 1.1382388 2.914869
0.7943652 1.0411468 0.63061947 0.76742154 1.0560869 1.6491885 2.8107228 1.1884309
-0.38916174 -0.8683791 -1.2844195 -1.414578 -0.954816 -0.004918834 0.05728237 0.4223252
0.002383709 -1.2772429 -0.54410297 1.5878232 2.0513098 0.7000966 0.31364244 0.9256653
0.98890936 1.6455852 0.6832509 0.27329785 0.08642427 0.57793 1.1273917 0.9296494
0.44327205 0.54374456 -1.211853 -0.87485695 -0.8935538 -0.7463787 -1.0073439 -0.85136473
-2.7370846 -2.0982823 -0.53780913 0.11259704 0.75698596 0.6442811 1.7494366 1.2331371
-1.1387713 0.19930835 1.3649304 -0.6927332 -1.8691398 -1.0973185 -0.3456799 -0.47257406
-0.48817763 -0.3076319 -1.4725041 -1.9305509 -1.2702963 -0.3588937 -0.8452552 -1.3726621
-0.50173867 -0.5730618 -0.9919555 -2.2603865 -0.86602587 -0.674934 -0.14702873 0.30749777
1.5628513 -0.0679868 -2.0673065 0.008726821 -2.0781102 -1.6483842 -1.6150926 -0.16524877
-0.89928496 2.7298732 2.745313 0.64231765 -0.8776085 -0.0452463 0.41394383 -0.27771837
0.0037795505 0.4878631 -0.08313869 1.893399 0.9416709 1.1472079 -1.664176 -1.3198036
-2.637449 -3.0198777 -1.8182167 -2.1270673 -0.7867679 -1.1743478 -2.427386 -1.3398962
-1.5151331 -1.2379574 -0.55894935 -0.7002542 -0.8260869 0.114869244 0.0072757113 2.9186895
5.238726 4.497765 3.9229608 1.2026209 2.152565 2.952503 2.7853491 4.1843863
2.7506747 -1.4121512 -2.1029153 -3.1512353 -2.8826299 -2.701678 -2.7884424 -3.1808221

weight_hh_l0 f4 [18, 6]
00000000: f8c9 f3bf b2c5 ddbe 5c64 583e 028c 6dbd
00000010: eee3 b240 404d 86bf 9c95 bdbf cde8 14bf
00000020: 0083 0a3f 8b9b 703f ca42 9f3f aa08 26c0
00000030: c008 1f3d e5c8 51bf b7eb a83e 9245 cbbe
00000040: 0a3c d83d d13d 30bd 382d 7140 3aa6 6640
00000050: 005b dbbf f489 783e 93b6 513e 9b9b 7840
00000060: 74f4 ba3e 187f 1c40 3815 f4bf 8c69 6dbf
00000070: 210e 19bf 8aa8 383f aa14 1e3f d4b7 4d3e
00000080: a63e 803e 1101 343f 838e 0b3f 46f3 f33f
00000090: 3d58 0941 2d46 6ac1 2252 77c0 4dc8 0cc0
000000a0: 6b37 b340 7bb8 4840 6fd1 2cbf e4bf 943f
000000b0: 2db6 713f 3a15 1d3e 3402 86be 02dc 3fc1
000000c0: 97ff c43f 8ca4 b1be 75b9 94c0 dc9d 82c0
000000d0: fef5 88bf 7cfe f5c0 a101 8240 e79c a140
000000e0: 750b 89c1 23a5 86c0 f340 e93f 9ec5 4d40
000000f0: 7e62 0d40 6e4f d2c0 f350 e3bf 31c0 d3be
00000100: c0ca bc3f 8e7a 44c0 8742 f1bf e6e9 ae3e
00000110: 8a57 993d ddbe 9ac0 7b26 ab3e 7139 5d3f
00000120: ce69 333f f8fe b740 6649 51c0 f88d ae3f
00000130: 1218 c5be 797a 3840 fc9a d7bf 57e6 a53f
00000140: 1edf 62c0 39b8 8b3f b552 d43f 327b 73c0
00000150: 000d 143f 5fb6 ccbf 5112 e63f dbeb b93f
00000160: 2a7c cfbf 5cee a7bf bc6b 8d40 6934 c53f
00000170: 6516 24c1 0f38 bcbe f54b 1b3f 332d 1b3f
00000180: ad14 9740 2e71 bcbf 852f 6dbe f041 1abf
00000190: 2ab6 3041 0957 3640 210e e0bb 1308 ff40
000001a0: 3799 31c1 0136 263f 07ef 753f 7668 2040
-1.9046011 -0.43314892 0.21132034 -0.05799485 5.5903234 -1.0492325 -1.4811282 -0.58167726
0.5410614 0.9398734 1.2442257 -2.5942788 0.038826704 -0.81947166 0.32992336 -0.39701515
0.105583265 -0.043027703 3.768385 3.6038957 -1.7137146 0.24271375 0.20479803 3.8844974
0.36514628 2.4452572 -1.9068975 -0.92739177 -0.59787184 0.7213217 0.6175028 0.20089656
0.25047797 0.7031413 0.5451433 1.9058616 8.584043 -14.642133 -3.864388 -2.1997254
5.600515 3.1362598 -0.6750707 1.162106 0.94418603 0.15340129 -0.26173556 -11.991213
1.53905 -0.34695852 -4.647639 -4.08177 -1.0700071 -7.687315 4.062699 5.050403
-17.130594 -4.2076583 1.8222946 3.2151866 2.2091365 -6.572196 -1.7759079 -0.41357568
1.4749374 -3.0699801 -1.8848428 0.34162825 0.074874 -4.8357987 0.33427796 0.86415774
0.7008332 5.749874 -3.270105 1.3637075 -0.38494927 2.8824751 -1.6844172 1.2960919
-3.544868 1.0915595 1.658774 -3.8043942 0.57832336 -1.5993155 1.797434 1.4525102
-1.6209767 -1.3119617 4.419401 1.5406619 -10.255467 -0.3676152 0.60662776 0.60615844
4.721274 -1.472204 -0.23162659 -0.6025686 11.044474 2.8490622 -0.006837622 7.9697356
-11.099906 0.64926153 0.9606785 2.5063758

bias_ih_l0 f4 [18]
00000000: f742 8fbd 769d cdbe a265 0b3f b634 7540
00000010: 9029 2940 8a07 ff3f d762 cb40 17b8 2e40
00000020: 5a64 e940 fd86 d640 14a8 a940 acb9 7d40
00000030: d8d0 4e40 59f5 0941 c4c5 7cc0 f8dd 20c0
00000040: 0911 0b40 216d 7640
-0.069951944 -0.40159196 0.54451954 3.8313422 2.6431618 1.9924176 6.3558154 2.729986
7.2935 6.703978 5.3017673 3.9644575 3.2314968 8.622399 -3.9495707 -2.513548
2.1729147 3.8504107

bias_hh_l0 f4 [18]
00000000: 428a b93e ee57 29bf ee35 f03e 1426 5840
00000010: c107 1540 78ab dc3f d9c5 bf40 ca79 1d40
00000020: bc1e db40 ca61 d340 80f5 9e40 b786 7140
00000030: 9635 e73f e7ff e13f 3d57 aabf eeb9 bcbf
00000040: bd44 48c0 4be4 8640
0.36238295 -0.66149795 0.46916145 3.377324 2.3285983 1.7239828 5.9929013 2.4605584
6.8475018 6.605687 4.9674683 3.7738473 1.8063228 1.765622 -1.3307873 -1.4744241
-3.1291955 4.215368

weight f4 [10, 6]
00000000: aa03 b53e 18d6 8dbe 5e3c 4640 3834 28c0
00000010: 0cdf 13c1 705f 8f40 ce52 fcc0 d44a dcbd
00000020: 3fae b63f 1a07 0f40 b81d 3ac0 9142 7740
00000030: cff0 ee3f 1ade b5c0 e0c8 15c0 c49d 8abf
00000040: ad4c d540 cb3e acc0 2d6e c73e 82a0 6b3f
00000050: 4422 1dc0 553d 67bf 5e09 f940 45dd 87bf
00000060: 8f95 6f3f b06b 0b40 1124 1240 9681 aabf
00000070: 3e49 033f 063f b43f 6716 323f afcd 813f
00000080: cd96 79c0 4db1 d53f 293c 303f 609b 09c0
00000090: ddb9 bc3f 9d89 3dc1 6d26 9e3f 93d5 0d40
000000a0: 1f21 12c1 b0ea a0c0 8c7c 923e e9eb bd40
000000b0: 877c 26c0 1779 9dbf 6b0c 0341 8d43 f7bf
000000c0: 5f65 e3bc cb00 0340 1152 1c40 cadd 793f
000000d0: 87dc bfc0 68a2 7140 536f b53f 5acc 9a40
000000e0: 08a4 493e f84f 943e af61 2740 0c57 403f
0.35354358 -0.27702403 3.0974345 -2.6281872 -9.241955 4.4804 -7.885108 -0.1075646
1.4271926 2.2348084 -2.908064 3.863438 1.8667239 -5.683362 -2.3403854 -1.0829396
6.66561 -5.382665 0.38951245 0.9204179 -2.4552164 -0.9032796 7.7823935 -1.0614401
0.93587583 2.1784477 2.2834513 -1.3320796 0.51283634 1.4081733 0.69565433 1.0140895
-3.8998291 1.6694733 0.688418 -2.1501083 1.4744221 -11.846097 1.2355477 2.2161605
-9.133086 -5.0286484 0.28610647 5.9350476 -2.6013505 -1.2302579 8.190532 -1.931749
-0.027758298 2.0469234 2.442509 0.9760405 -5.99567 3.7755375 1.4174598 4.8374453
0.19691479 0.2896726 2.6153371 0.75132823

bias f4 [10]
00000000: eb0d 5ebf 3da8 8940 6581 d8c0 2448 78c0
00000010: a666 aa3f 375b 2c3f 43d5 7cc0 3131 0240
00000020: 9c97 5740 8635 6340
-0.8673999 4.301787 -6.765795 -3.879403 1.3312576 0.6732668 -3.9505165 2.0342524
3.3686285 3.5501418
