model/new/6_gru.model (torch_old, 13406 bytes, 6 tensors)

weight_ih_l0 f4 [18, 28]
0.5917373 0.15049845 0.24652575 0.33985624 -0.2711858 0.058516767 -0.7763393 -0.4410991
-0.9223692 -1.7934617 2.0651264 1.0674734 -0.85932535 -0.22164963 7.028308 3.3953772
-0.61911 -0.9499438 0.6846919 1.4044819 0.10263429 -0.7175111 -0.83822036 -0.44682798
0.019098328 0.26545343 0.6559072 0.5896667 -0.99146223 -0.338993 -0.35291004 -0.031122101
0.066586845 -0.18511488 -0.030394388 0.10422994 0.6094691 0.39334163 0.38656494 -0.052162137
0.5172248 0.29066062 0.2002608 -0.19784969 -0.35686556 0.33196688 0.33932063 0.65817726
-0.006010637 0.111773625 -0.05251508 0.0372447 0.19569932 -0.42945397 -0.13712046 -0.2406926
4.2880726 4.036567 4.566589 5.3440113 6.963526 8.423474 8.634092 6.508664
4.820126 5.3026023 4.5421224 6.180887 9.038892 13.426797 11.325439 7.8510184
6.780331 5.7201824 5.402392 5.158933 6.735336 8.445496 8.5181875 7.7347107
5.172796 4.620999 4.7075667 4.238643 -2.8345878 -3.3061051 -3.325143 -2.846503
-2.8793547 -3.3690941 -4.6317425 -5.72436 -5.380049 -5.409994 -6.1738567 -7.5818315
-6.4030166 -1.4683311 11.130216 15.11317 7.661668 -2.7036848 -4.213193 -2.8135104
-1.7622454 -3.2925732 -4.8477135 -6.174714 -5.1313 -4.4909925 -3.3396108 -2.7919807
-0.40156406 -1.0808297 -0.73021287 -0.66019946 -0.8361108 -0.8582027 -0.5482766 0.58938855
0.53966826 0.2842732 0.03752684 0.25648782 0.620617 -0.6049289 -0.052614402 1.0123807
1.1610497 1.9925588 1.3432633 1.3027233 0.9239194 0.66760397 0.54238975 0.35201892
-0.27205732 -0.7029488 -1.1539984 -1.1484016 1.1201005 1.254613 1.0173912 1.0663296
-1.871542 -7.8060827 -8.85492 -9.46165 -12.028805 -8.730053 -4.684895 -3.8168547
-3.9418926 -3.7020524 -4.128572 -4.1729584 -4.455349 -3.9922886 0.5847001 1.6681358
1.4448327 1.8979391 1.8887914 2.3902965 1.6024994 1.1872905 0.7628629 1.2482733
0.7480136 1.0311283 1.5870471 1.2853551 -0.094065666 -0.81192446 -0.779194 -0.60008156
-1.3924248 -1.9302927 -3.94393 -5.0101275 -6.1094823 -6.668928 -4.0477033 -3.7531116
-2.0187552 0.43130764 0.46992254 0.5454189 0.19430645 -0.40280345 -0.16234946 -0.8410751
-0.62140167 0.9970857 1.6212243 0.7575941 -0.4502188 -0.07683157 -0.39011917 -1.3043044
-0.9908342 -0.2568803 -0.5051828 -0.41626972 -0.13382924 -0.2207037 -0.24854352 -0.26540965
-0.14884469 -0.11205804 -0.05094804 0.5096076 -1.4977005 -0.28467214 -0.097950615 0.120043874
0.044748325 0.08227054 -0.0070997053 0.2934866 -0.3072986 0.017564896 -0.54192895 -1.224067
1.206315 0.71914136 1.3330413 1.8897015 1.2832031 -0.170788 -1.9734006 -1.7229003
-1.8013157 -3.2424722 -3.3956425 -2.613714 -1.1874801 -6.7481995 -8.625978 -6.2923746
0.03676085 5.270548 4.7849603 4.998475 2.8762128 1.379519 1.1617594 5.062227
3.307317 1.6974478 1.2982926 0.8203799 0.34403366 0.51413566 0.730484 0.49571663
00000000: 187c 173f 441c 1a3e 3f71 7c3e a301 ae3e
00000010: ddd8 8abe 47af 6f3d 2cbe 46bf bed7 e1be
00000020: 6320 6cbf 2790 e5bf 082b 0440 f8a2 883f
00000030: bffc 5bbf 1ff8 62be e6e7 e040 dc4d 5940
00000040: fe7d 1ebf 842f 73bf f847 2f3f 10c6 b33f
00000050: ed31 d23d cfae 37bf 9c95 56bf a3c6 e4be
00000060: 1974 9c3c 83e9 873e 89e9 273f 66f4 163f
00000070: 78d0 7dbf 7e90 adbe a0b0 b4be c7f3 febc
00000080: af5e 883d c18e 3dbe a7fd f8bc 8276 d53d
00000090: 2b06 1c3f 1364 c93e d7eb c53e f7a7 55bd
000000a0: d868 043f 78d1 943e 2b11 4d3e 1c99 4abe
000000b0: 15b7 b6be 90f7 a93e 6fbb ad3e 4e7e 283f
000000c0: e1f4 c4bb 92e9 e43d 0d1a 57bd e68d 183d
000000d0: 6765 483e 64e1 dbbe 4e69 0cbe 1f78 76be
000000e0: e437 8940 8f2b 8140 7f21 9240 2402 ab40
000000f0: 34d5 de40 8dc6 0641 3e25 0a41 fa46 d040
00000100: 793e 9a40 ebae a940 1159 9140 d4c9 c540
00000110: 4d9f 1041 29d4 5641 0035 3541 8b3b fb40
00000120: 79f8 d840 bc0b b740 65e0 ac40 fb15 a540
00000130: df87 d740 c020 0741 7f4a 0841 c082 f740
00000140: 8b87 a540 39df 9340 63a4 9640 f7a2 8740
00000150: e369 35c0 3a97 53c0 25cf 54c0 1b2d 36c0
00000160: 5947 38c0 3d9f 57c0 3c37 94c0 f52d b7c0
00000170: 5d29 acc0 ac1e adc0 3c90 c5c0 5d9e f2c0
00000180: 83e5 ccc0 46f2 bbbf 5d15 3241 8bcf 7141
00000190: 622c f540 2c09 2dc0 7ad2 86c0 8e10 34c0
000001a0: 4291 e1bf 85b9 52c0 7820 9bc0 4297 c5c0
000001b0: 9c33 a4c0 36b6 8fc0 2fbc 55c0 d0af 32c0
000001c0: ce99 cdbe a158 8abf 3bef 3abf d502 29bf
000001d0: 5b0b 56bf 2cb3 5bbf db5b 0cbf 2be2 163f
000001e0: b327 0a3f 428c 913e beb5 193d 5f52 833e
000001f0: c1e0 1e3f 9fdc 1abf 3382 57bd b195 813f
00000200: 479d 943f 2b0c ff3f 0df0 ab3f a3bf a63f
00000210: fb85 6c3f 18e8 2a3f 0eda 0a3f d33b b43e
00000220: 194b 8bbe 74f4 33bf 38b6 93bf d3fe 92bf
00000230: 745f 8f3f 2997 a03f e039 823f 7d7d 883f
00000240: b08e efbf 6ecb f9c0 c1ad 0dc1 eb62 17c1
00000250: fc75 40c1 4cae 0bc1 a9ea 95c0 5947 74c0
00000260: f847 7cc0 6dee 6cc0 431d 84c0 e088 85c0
00000270: 3892 8ec0 a881 7fc0 e8ae 153f 7985 d53f
00000280: 47f0 b83f abef f23f ebc3 f13f 9efa 1840
00000290: b31e cd3f 23f9 973f fc4a 433f 6bc7 9f3f
000002a0: d27d 3f3f 03fc 833f 5c24 cb3f 8486 a43f
000002b0: 80a5 c0bd 48da 4fbf 4279 47bf f29e 19bf
000002c0: fa3a b2bf d513 f7bf 5969 7cc0 f752 a0c0
000002d0: e180 c3c0 dc67 d5c0 c986 81c0 fb32 70c0
000002e0: 4933 01c0 5bd4 dc3e b099 f03e 93a0 0b3f
000002f0: 45f8 463e 413c cebe f03e 26be b350 57bf
00000300: 2e14 1fbf 0241 7f3f 4784 cf3f b0f1 413f
00000310: 1483 e6be df59 9dbd b3bd c7be 72f3 a6bf
00000320: 4fa7 7dbf d185 83be a953 01bf 4e21 d5be
00000330: 880a 09be 2700 62be 3182 7ebe c6e3 87be
00000340: be6a 18be b07e e5bd e4ae 50bd a575 023f
00000350: a6b4 bfbf 8cc0 91be 559a c8bd 90d9 f53d
00000360: 054a 373d 757d a83d a5a4 e8bb e043 963e
00000370: 3e56 9dbe 42e4 8f3c dbbb 0abf 3aae 9cbf
00000380: 8868 9a3f a619 383f 19a1 aa3f bde1 f13f
00000390: 0040 a43f 0de3 2ebe 6498 fcbf ff87 dcbf
000003a0: 8391 e6bf aa84 4fc0 3552 59c0 1747 27c0
000003b0: 59ff 97bf 40f1 d7c0 0204 0ac1 225b c9c0
000003c0: 8c92 163d 54a8 a840 651e 9940 82f3 9f40
000003d0: df13 3840 1494 b03f 88b4 943f c3fd a140
000003e0: 15ab 5340 f845 d93f 742e a63f 6b04 523f
000003f0: 2e25 b03e 659e 033f 0001 3b3f 92ce fd3e

weight_hh_l0 f4 [18, 6]
-0.13857427 -1.6865617 -0.19178195 -0.3932829 1.3173826 -0.9301855 0.016316492 0.909631
-1.3860238 -0.19630325 0.56538606 -0.32332495 4.35729 -12.084466 9.777881 8.584618
12.976256 -11.33372 0.8531755 0.8405885 5.7902365 -6.2004566 -0.62997764 -9.095788
-0.48446798 1.2904919 -1.3084064 -1.3029869 1.0355498 0.0902104 -2.1329305 -3.6913671
4.768536 7.5066457 2.882867 0.5264963 0.22130053 -2.5516636 6.849815 0.7619073
1.3321638 2.41678 0.4174001 9.164882 6.115333 -0.00089012797 0.23581545 4.5968347
-0.06621315 0.4766388 -3.5032945 0.098601885 -0.17102437 -3.70137 -0.29250124 0.31321913
-3.1025667 1.2895281 0.36167064 0.3114226 13.562489 1.5619531 2.400975 0.08077782
-2.130914 2.7472067 0.057716224 -0.16951379 -5.291528 -10.722679 0.01412136 2.2818182
-0.5961161 0.7360801 -4.1741743 0.1637582 -2.9795003 0.7847024 2.554341 2.6267426
-3.2754896 -0.13970111 1.8965176 -0.4449405 -0.65649813 0.5295745 14.47895 -4.058978
-4.0345306 3.5095246 19.499355 -24.276077 10.199706 23.246511 -19.029678 -19.073278
-3.2971075 1.9695112 -0.76961523 -0.78268206 0.9093449 1.2120758 -2.778457 6.483536
-5.395328 4.299498 2.0093186 6.0315943
00000000: 6ae6 0dbe 41e1 d7bf 7d62 44be 605c c9be
00000010: fe9f a83f a320 6ebf 2aaa 853c 94dd 683f
00000020: 3a69 b1bf b803 49be 24bd 103f d98a a5be
00000030: eb6e 8b40 f959 41c1 3372 1c41 985a 0941
00000040: bf9e 4f41 eb56 35c1 b669 5a3f cf30 573f
00000050: 9e49 b940 246a c6c0 3746 21bf 5988 11c1
00000060: 300c f8be d72e a53f dc79 a7bf 46c8 a6bf
00000070: e58c 843f 3bc0 b83d ef81 08c0 5c3f 6cc0
00000080: d997 9840 7136 f040 e580 3840 76c8 063f
00000090: 9b9c 623e 754e 23c0 af31 db40 5b0c 433f
000000a0: 5884 aa3f 86ac 1a40 77b5 d53e 5ba3 1241
000000b0: cfb0 c340 7a57 69ba 9b79 713e 4519 9340
000000c0: c39a 87bd 000a f43e fa35 60c0 c9ef c93d
000000d0: 0321 2fbe 3fe3 6cc0 b9c2 95be 425e a03e
000000e0: 7490 46c0 420f a53f e52c b93e c872 9f3e
000000f0: f4ff 5841 14ee c73f 93a9 1940 d76e a53d
00000100: e560 08c0 3cd2 2f40 d967 6c3d 0695 2dbe
00000110: 3354 a9c0 1890 2bc1 475d 673c 4f09 1240
00000120: 119b 18bf bf6f 3c3f d692 85c0 3bb0 273e
00000130: 22b0 3ec0 42e2 483f 537a 2340 8d1c 2840
00000140: 9fa1 51c0 cf0d 0fbe 17c1 f23f 3ecf e3be
00000150: 4310 28bf 3292 073f c7a9 6741 26e3 81c0
00000160: e01a 81c0 0d9c 6040 aefe 9b41 6835 c2c1
00000170: ff31 2341 dbf8 b941 c83c 98c1 1396 98c1
00000180: cf03 53c0 f118 fc3f 8105 45bf da5d 48bf
00000190: d4ca 683f 4d25 9b3f 3dd2 31c0 2079 cf40
000001a0: 87a6 acc0 7d95 8940 ad98 0040 d202 c140

bias_ih_l0 f4 [18]
-0.9963549 1.5100716 -10.061953 7.530019 2.007904 -2.9023044 -2.1178298 1.8440549
-2.304314 -0.9191396 5.9627986 -2.698555 -6.2755957 3.8370898 4.8592744 -25.861845
4.2359195 8.482235
00000000: 1d11 7fbf 074a c13f c2fd 20c1 eaf5 f040
00000010: 8081 0040 5bbf 39c0 868a 07c0 fe09 ec3f
00000020: e179 13c0 bc4c 6bbf 3fcf be40 20b5 2cc0
00000030: aed1 c8c0 e192 7540 2d7f 9b40 0fe5 cec1
00000040: a78c 8740 3cb7 0741

bias_hh_l0 f4 [18]
-0.5640252 1.250163 -10.1373205 7.0759845 1.6933377 -3.1707385 -2.4807463 1.5746132
-2.75029 -1.0174278 5.628508 -2.8891733 2.7234354 3.1976855 7.408916 -26.471724
-0.8987432 1.9076301
00000000: f563 10bf 5705 a03f 7732 22c1 776e e240
00000010: 4abf d83f 61ed 4ac0 8cc4 1ec0 ed8c c93f
00000020: c004 30c0 133b 82bf bd1c b440 37e8 38c0
00000030: c44c 2e40 e1a6 4c40 d715 ed40 17c6 d3c1
00000040: 0914 66bf 392d f43f

weight f4 [10, 6]
1.0270032 0.35357526 2.7946584 -0.6028993 -1.6699743 -0.29885232 0.16131128 -11.855123
2.1836193 -0.03277627 0.2584696 -1.2083793 0.21030085 2.6669774 1.318015 1.2974008
-0.6657866 -1.7028108 0.6796453 4.9741993 -1.1417851 0.13162114 -0.6909583 0.9839738
-1.6416225 2.7937858 -0.7634211 -0.1945523 2.150217 -0.08929069 0.21386133 0.5110544
-0.71138144 -0.09760955 -1.0244954 0.40920022 2.09702 -3.6079443 3.9722865 -0.7973078
-1.2865598 -7.7065406 -2.3533278 5.055739 -3.7444098 -0.04632695 1.5892522 4.0814896
0.7689708 -2.7037368 -0.2798444 0.33342442 -1.0310465 1.327778 -1.657071 0.8301925
-4.2411733 0.21822338 1.5471247 2.9273775
00000000: d774 833f d107 b53e afdb 3240 9c57 1abf
00000010: b8c1 d5bf 2c03 99be c92e 253e 95ae 3dc1
00000020: 6bc0 0b40 6940 06bd 2156 843e 2cac 9abf
00000030: 1b59 573e c2af 2a40 b7b4 a83f 3b11 a63f
00000040: fe70 2abf b4f5 d9bf 3cfd 2d3f a42c 9f40
00000050: 0426 92bf b1c7 063e a5e2 30bf b5e5 7b3f
00000060: b020 d2bf 63cd 3240 916f 43bf b838 47be
00000070: 289d 0940 0ade b6bd 77fe 5a3e 76d4 023f
00000080: 181d 36bf 84e7 c7bd aa22 83bf b182 d13e
00000090: 9335 0640 8fe8 66c0 f139 7e40 5d1c 4cbf
000000a0: fead a4bf fb9b f6c0 ec9c 16c0 9dc8 a140
000000b0: 69a4 6fc0 54c1 3dbd 9e6c cb3f 909b 8240
000000c0: 45db 443f 060a 2dc0 c447 8fbe 9bb6 aa3e
000000d0: 55f9 83bf a1f4 a93f e71a d4bf 7f87 543f
000000e0: b1b7 87c0 f375 5f3e 2f08 c63f 275a 3b40

bias f4 [10]
-2.406734 2.9046729 -1.6994556 -0.4131527 -2.1353188 1.8599968 -6.917379 -0.1931727
4.284347 4.5123534
00000000: ee07 1ac0 29e6 3940 c387 d9bf c088 d3be
00000010: 10a9 08c0 6014 ee3f 2b5b ddc0 10cf 45be
00000020: 5f19 8940 3365 9040
