model/new/6_lstm.model (torch_old, 14971 bytes, 6 tensors)

weight_ih_l0 f4 [24, 28]
0	0x3f6fd40f	0.9368295
1	0x3f08e3d0	0.53472614
2	0x3e8e41cf	0.27784583
3	0x3b9cbada	0.0047830166
4	0xbf97573d	-1.1823498
5	0xbe772e2f	-0.24138711
6	0xbebc0769	-0.36724404
7	0xbf1bb2c2	-0.6081964
8	0xbed2c826	-0.41168326
9	0x3e43ea48	0.1913234
10	0x3e01d1aa	0.12677637
11	0x3f76ef38	0.9645877
12	0xbf177b9e	-0.59173
13	0x3e7d61d4	0.2474435
14	0xc03bc926	-2.9341521
15	0xc064feb7	-3.5780466
16	0xc0593ad5	-3.3942158
17	0xbff670b2	-1.9253142
18	0xc00246da	-2.0355744
19	0xc05bf490	-3.436802
20	0xbf7abc43	-0.97943515
21	0x3fa16451	1.2608739
22	0x3f3074d6	0.6892828
23	0x3fa5b669	1.2946292
24	0x3f8c625a	1.0967515
25	0xbd97e086	-0.07415871
26	0x3f88839f	1.0665168
27	0x3f8b8be2	1.0902064
28	0x3fb0dd6b	1.3817571
29	0x400223c4	2.033433
30	0x3fe73e14	1.806582
31	0x405f7f08	3.4921284
32	0x40944eeb	4.6346335
33	0x401e072b	2.4691875
34	0x3faa4449	1.3302089
35	0x3fb29abe	1.3953474
36	0x4015852c	2.3362532
37	0x3faeecec	1.3666053
38	0x3f3fdf18	0.7494979
39	0x40aafff7	5.3437457
40	0xbe8babca	-0.27279502
41	0xbf8657ab	-1.0495504
42	0x3fd4eb9f	1.6634406
43	0xbe5eeada	-0.21769276
44	0x3fdebca2	1.7401316
45	0x402dc134	2.7149172
46	0x3fc33942	1.5251849
47	0x3fe01d03	1.7508854
48	0x3faea614	1.3644433
49	0x3fcf4c46	1.6195152
50	0x40259400	2.5871582
51	0x4058a382	3.3849797
52	0x40056e9b	2.0848758
53	0x3f3c2ab6	0.7350267
54	0x3fe6f10a	1.8042309
55	0x400641a8	2.0977573
56	0xbf8a50a0	-1.0805855
57	0xbfab4773	-1.338118
58	0xbec5082d	-0.384828
59	0xbf40272c	-0.7505977
60	0xbfd395ac	-1.6530051
61	0xbfd738b7	-1.6814183
62	0xbf1401b1	-0.5781508
63	0xbf240922	-0.64076436
64	0xbfb090fd	-1.3794247
65	0xbfb20cd1	-1.3910161
66	0xc0053bbb	-2.0817707
67	0xbfed7d55	-1.8553873
68	0xbebfa559	-0.37430838
69	0x404686e5	3.1019833
70	0x40a49889	5.14362
71	0x4098d7d0	4.7763443
72	0x4080071b	4.0008674
73	0x3f071f7f	0.52782434
74	0x3f82c16d	1.0215279
75	0x3f55dfcc	0.8354461
76	0xbe8bec86	-0.2732889
77	0x3f569533	0.8382141
78	0xbe2ed32b	-0.17072742
79	0xc05aa243	-3.4161537
80	0xc0242ea5	-2.565347
81	0xbfa03e7e	-1.2519071
82	0xbf8dca86	-1.107743
83	0xbf91073c	-1.1330333
84	0x400df58c	2.218112
85	0x3fc6afa6	1.5522354
86	0x3ff659e7	1.9246186
87	0x3ebeb030	0.37243795
88	0xc012fe85	-2.2967846
89	0xbefd044d	-0.49417344
90	0xbf99757a	-1.1988976
91	0xbf2bbf9f	-0.67089266
92	0xbf08725c	-0.532995
93	0xbf025cb0	-0.5092268
94	0xbf14d250	-0.5813341
95	0x3d0bf8a8	0.034172684
96	0x3e8c4050	0.27392817
97	0xc00c7800	-2.1948242
98	0xbfabbf74	-1.3417802
99	0x3f4d8c15	0.80291873
100	0x3f5502cf	0.8320741
101	0x3f149099	0.5803314
102	0x3f5b465f	0.8565425
103	0xbe215453	-0.15754823
104	0x3fec1022	1.8442423
105	0x3f91785d	1.1364857
106	0x3f8fb279	1.122634
107	0x3fdd6cf3	1.7298874
108	0x3d328380	0.04358244
109	0xc09f210a	-4.972783
110	0x3f63a1f1	0.8891898
111	0x401215be	2.282577
112	0x3f66ac14	0.9010632
113	0x3e0638a9	0.13107552
114	0xbc6c0b79	-0.014407032
115	0xbf1e972c	-0.6194942
116	0xbfa0212b	-1.2510122
117	0xbf38484d	-0.7198532
118	0xbf5be9f9	-0.8590389
119	0xbf38a14f	-0.7212114
120	0xbf8b0d47	-1.0863427
121	0xbe98591c	-0.29755485
122	0xbece6bdf	-0.40316674
123	0x3dd5f9f5	0.10448066
124	0x40c775fa	6.2331514
125	0x41139d66	9.225927
126	0x410d227d	8.82092
127	0x40e67aaf	7.202476
128	0x4090b0ba	4.521573
129	0x3fcf96b9	1.6217872
130	0xbea67c84	-0.32516873
131	0x3e6ddff9	0.2322997
132	0xbf0236be	-0.5086478
133	0xbfadd493	-1.3580498
134	0xbfc58b90	-1.5433216
135	0xbfb99e7f	-1.4501494
136	0xbf1775ef	-0.5916433
137	0x3e051bb0	0.12998843
138	0x3e4947e4	0.1965633
139	0x3e45f9b5	0.19333537
140	0xbf6fb27d	-0.93631727
141	0xbf3c8e17	-0.7365431
142	0xbf46588b	-0.77478856
143	0xbd2b9b94	-0.041896418
144	0x3eeab99e	0.4584474
145	0x3f08bf4b	0.5341689
146	0x3f59bc10	0.85052586
147	0x3f1958b5	0.5990098
148	0x3f077b0f	0.5292215
149	0x3f2132f8	0.629684
150	0x3e8891d8	0.2667377
151	0xbeb18a63	-0.34675893
152	0x4029c356	2.6525474
153	0x3f67c498	0.90534353
154	0x3e5b388d	0.21408291
155	0xc01b4ee4	-2.42669
156	0xbf702782	-0.93810284
157	0xc031e3f1	-2.7795374
158	0xbf45a238	-0.7720065
159	0xc007ec24	-2.1237879
160	0xbeeead9c	-0.46616828
161	0xbde839b3	-0.1133913
162	0x3ed3ff7b	0.41405854
163	0xbf8c003f	-1.0937575
164	0xbed7f460	-0.4217863
165	0xbe0456c8	-0.1292373
166	0xbf3768ff	-0.71644586
167	0xbf5bfc78	-0.8593211
168	0xc000f7f4	-2.0151339
169	0xbff24dfc	-1.8930049
170	0xbfeb3240	-1.837471
171	0xbfca9f36	-1.5829837
172	0xbfe46be7	-1.7845429
173	0xbf7e654e	-0.9937333
174	0xbf933c4c	-1.1502776
175	0xbf9c8b47	-1.2230004
176	0xbeb91a56	-0.36152905
177	0xbfcbdd5a	-1.5926926
178	0xc02b7a91	-2.6793559
179	0xc03fc11e	-2.996162
180	0xc03a5859	-2.9116423
181	0xbfc45076	-1.5337055
182	0xc00bf032	-2.1865354
183	0xc02df87b	-2.718291
184	0x3e42c707	0.19021235
185	0xc002db8f	-2.0446508
186	0xbf809ef6	-1.0048511
187	0xbe83c74b	-0.25737986
188	0xbf064b4d	-0.5245865
189	0xbf6fe2bb	-0.9370534
190	0x3f0f7483	0.5603716
191	0xbf255eae	-0.64597595
192	0xbf0c698f	-0.5484857
193	0xbfc27a71	-1.5193616
194	0xbf8d1d96	-1.1024654
195	0xbff23e64	-1.892529
196	0xbe91c978	-0.2847402
197	0xbedefc65	-0.43551937
198	0xbf75d697	-0.96030563
199	0xbf2d54d3	-0.67707556
200	0xbf82c8cb	-1.0217527
201	0xbf06fe5c	-0.5273187
202	0xbf2d2498	-0.6763396
203	0xbe05a0b0	-0.13049579
204	0xbe598690	-0.21242738
205	0xbeddf885	-0.43353668
206	0xbd9647fe	-0.0733795
207	0xbf15bb09	-0.5848852
208	0xbe346fa5	-0.17620714
209	0xbd99b2df	-0.0750482
210	0xbe13e209	-0.14441694
211	0x3e191f0e	0.14953253
212	0x3e58f5e8	0.21187556
213	0x3e00eb14	0.12589675
214	0x3e177d10	0.14793801
215	0x3d71a8cd	0.05899887
216	0x3f152824	0.58264375
217	0x3fb0135d	1.3755909
218	0x3fda61be	1.7061079
219	0x40078794	2.11765
220	0x3f92e112	1.1474936
221	0x3f252082	0.6450273
222	0xbee2be45	-0.4428579
223	0xbf26ccff	-0.6515655
224	0x3f409b34	0.7523682
225	0x3e8a919d	0.2706422
226	0x3f92b09e	1.1460149
227	0x3f33e85e	0.7027644
228	0x3eb9c079	0.36279657
229	0x3f8bf712	1.0934775
230	0x3e5bc88b	0.2146322
231	0x3edeb1e1	0.43495086
232	0x3f8b2440	1.0870438
233	0x3f5ef7dc	0.87096953
234	0x3f30859d	0.6895388
235	0x3eb9ab4b	0.362635
236	0x3f110613	0.56649894
237	0x3f79fb83	0.976494
238	0x3ed70cb9	0.42001894
239	0xbd2703d5	-0.04077514
240	0xbe9ea59a	-0.3098572
241	0xbff72eb9	-1.9311134
242	0xc0502b9e	-3.2526622
243	0xc04396cd	-3.0560791
244	0xc09398fb	-4.6124244
245	0xc03ed440	-2.9817047
246	0xbfabf6b7	-1.3434666
247	0xbf949658	-1.1608381
248	0xbfae86d5	-1.3634897
249	0x3f3fa957	0.7486777
250	0x3f0b619f	0.5444583
251	0x3ebed2df	0.37270257
252	0xbf8efe73	-1.1171402
253	0xbf3838b2	-0.7196151
254	0xbfb7ca63	-1.4358639
255	0x3ec7f8d3	0.39057025

weight_hh_l0 f4 [24, 6]
0	0xc0862873	-4.1924376
1	0xbfc0f56f	-1.50749
2	0x3f9c8abf	1.2229842
3	0xbe455cf6	-0.19273743
4	0xbfd51251	-1.6646215
5	0xc0324df5	-2.7860081
6	0x408612e8	4.189808
7	0xc12aa613	-10.665545
8	0x40fdabe0	7.927231
9	0xc0cf76cc	-6.4832516
10	0xbfa4bcc5	-1.2870108
11	0x402733fd	2.612548
12	0xc0454b90	-3.082737
13	0x4090c8a1	4.524491
14	0xbfd90252	-1.6953833
15	0xc0d6dc00	-6.7143555
16	0x40203a14	2.5035448
17	0x40b0db03	5.526735
18	0x408458b6	4.135829
19	0x403ba7fb	2.9321277
20	0xbf0d474a	-0.55186903
21	0xc07143e9	-3.76977
22	0x402de300	2.71698
23	0x4103927a	8.223261
24	0x4077de82	3.8729558
25	0xbf411f84	-0.75438714
26	0xc032978b	-2.7904994
27	0xc07fdfda	-3.9980378
28	0x4065e91b	3.5923526
29	0x40835745	4.104403
30	0xc0516f57	-3.2724206
31	0x40b1c6e4	5.5555286
32	0xc049a8c8	-3.1509266
33	0xc0262a36	-2.5963264
34	0x40aa9e29	5.3318067
35	0x3e2edf4a	0.17077366
36	0x40dd0df4	6.9079533
37	0xc02bcc85	-2.684358
38	0x3fffa631	1.9972593
39	0x4067bc8d	3.6208832
40	0x400f7410	2.241459
41	0xbee548a8	-0.44781995
42	0xbf9173cb	-1.1363462
43	0x3f913241	1.1343461
44	0xbf85d538	-1.0455694
45	0xc0356f94	-2.8349352
46	0xbf7abd97	-0.9794554
47	0x400419e7	2.064081
48	0xbfeb2a7e	-1.8372343
49	0xbdfc9ae6	-0.12334232
50	0x3f3cb66d	0.7371586
51	0x3f8ad766	1.0846984
52	0xbe528a92	-0.20560673
53	0xc01fc25c	-2.4962378
54	0x405cd8ff	3.4507444
55	0xbfa61d85	-1.2977759
56	0xbe4bcb11	-0.19901682
57	0x406d5cad	3.7087815
58	0x3e5d7342	0.21625999
59	0xbed901ab	-0.42384085
60	0xbe121a8e	-0.14267942
61	0x3f9cba67	1.2244385
62	0x3f8ddd86	1.1083229
63	0x3feba2e5	1.8409086
64	0x3e12de3e	0.14342591
65	0xbfdefdd8	-1.7421217
66	0xc0d0c31e	-6.523818
67	0x3fa367e8	1.2766085
68	0xc0ab7c05	-5.358889
69	0x3e4641d3	0.19361047
70	0x4090be78	4.5232506
71	0xbfa6ccb6	-1.3031223
72	0x3f27480f	0.6534433
73	0x40380d92	2.8758283
74	0x4050e7f7	3.264158
75	0x3f415d55	0.7553304
76	0x3f53a1e0	0.82668877
77	0xbed3b02f	-0.41345355
78	0xbfd34c97	-1.6507748
79	0xc0e9768f	-7.2957225
80	0xc12fb44d	-10.981519
81	0xbf6d2071	-0.92627627
82	0x40055239	2.0831435
83	0x405dab67	3.4635866
84	0xbee50dcf	-0.44737098
85	0xbff91503	-1.9459537
86	0x3f88db97	1.0692014
87	0xbece5ea7	-0.4030659
88	0x3fa78751	1.308817
89	0xc00cba16	-2.1988578
90	0xc15dcac7	-13.862006
91	0x4152e773	13.181506
92	0x3f91824e	1.1367891
93	0xc0297768	-2.647913
94	0x3f2f2a81	0.6842423
95	0x3f4a3d07	0.7899937
96	0xc0ab3e1f	-5.351333
97	0xbf471d1f	-0.7777881
98	0xc0134413	-2.30103
99	0x3f884a00	1.0647583
100	0x4077d9c6	3.8726668
101	0x3feb3658	1.8375959
102	0xbf321d23	-0.6957571
103	0x3ffce140	1.9756241
104	0xc0c5cd1a	-6.181287
105	0x4019ce6f	2.4032247
106	0x3f89de47	1.0770959
107	0x40bd372a	5.912984
108	0x4063cb4f	3.559284
109	0xbe9de534	-0.3083893
110	0x40a5609c	5.168043
111	0xbfbd68c5	-1.4797598
112	0x3f9e1ed7	1.2353162
113	0xc0799e61	-3.9002917
114	0xc0378c83	-2.8679512
115	0xc095da81	-4.682923
116	0x3ff8f4d1	1.9449712
117	0x3fd89aa7	1.6922196
118	0x3fe401de	1.781307
119	0xc032f8f2	-2.7964444
120	0xc0b7fada	-5.7493715
121	0x404beb4d	3.1862366
122	0x3f39a289	0.72513634
123	0x40c9c9af	6.3058696
124	0xbf37d869	-0.7181459
125	0x3fc5af8d	1.5444199
126	0xbf398832	-0.7247344
127	0xc08b23e3	-4.3481307
128	0x3eae9799	0.34100035
129	0x3eb85caf	0.36008212
130	0xbfb73819	-1.4313995
131	0xbf9b593f	-1.2136611
132	0x4043b082	3.0576482
133	0xc026d58a	-2.6067834
134	0x40b160c8	5.543064
135	0x40a47c25	5.1401544
136	0x4083da64	4.120409
137	0xc05a8d4f	-3.4148748
138	0xc04ea835	-3.2290165
139	0xbdc9c572	-0.09852113
140	0xc104c7a6	-8.298742
141	0x3faaa6b0	1.3332119
142	0x4037b35e	2.8703227
143	0x403e150a	2.9700341

bias_ih_l0 f4 [24]
0	0xbfbe000b	-1.4843763
1	0xc073e399	-3.8107665
2	0x402c02f2	2.6876798
3	0xc095d841	-4.682648
4	0xbf68558a	-0.9075552
5	0x4005b0e2	2.088921
6	0x406c4e05	3.692262
7	0x3fa28d59	1.2699386
8	0xbf9fbdc9	-1.2479793
9	0x4022c9bb	2.5435627
10	0x3fb05a34	1.3777528
11	0x404d34da	3.2063508
12	0xbe67d681	-0.2264042
13	0x403f795e	2.9917827
14	0xc0578117	-3.367254
15	0xc08cf098	-4.4043694
16	0x402a4660	2.6605453
17	0x40b7e8fa	5.7471895
18	0x4056300d	3.3466828
19	0x3f6bdade	0.9213084
20	0x40837a3c	4.108671
21	0x4047de9e	3.1229625
22	0xbf9ab094	-1.2085137
23	0x404f5f91	3.240208

bias_hh_l0 f4 [24]
0	0xbfccbd86	-1.5995338
1	0xc08d2b58	-4.411541
2	0x40098e49	2.1493094
3	0xc095a0b7	-4.6758685
4	0xbf8ab4ad	-1.0836388
5	0x3fb66986	1.4250953
6	0x40638933	3.555249
7	0x3f8a1752	1.0788367
8	0xbfb094d3	-1.3795418
9	0x403edf8c	2.9823942
10	0x3f8a2a43	1.0794147
11	0x404f3866	3.2378173
12	0xbe83a094	-0.2570845
13	0x4043a443	3.0569007
14	0xc06da55b	-3.7132175
15	0xc0926b33	-4.575586
16	0x40126ecd	2.2880127
17	0x40ba48c2	5.8213816
18	0x403985e1	2.8987963
19	0x3f2ff13b	0.68727463
20	0x40800ee0	4.001816
21	0x405d609c	3.4590216
22	0xbfab7ef3	-1.3398117
23	0x404d6b49	3.2096732

weight f4 [10, 6]
0	0x3e4e9ad0	0.20176244
1	0x3fcee4d4	1.6163583
2	0x3f49b08f	0.7878503
3	0xc10227ab	-8.134685
4	0x4016a5ff	2.3538816
5	0xc036ae0a	-2.8543725
6	0xc09c10bd	-4.8770432
7	0xc10bd7f7	-8.740226
8	0x40811f22	4.0350504
9	0xc09c6664	-4.887499
10	0x3fe10f32	1.7582762
11	0xbf833a43	-1.0252155
12	0x403b3bc5	2.925523
13	0xbed06113	-0.40699062
14	0x3ff71ffb	1.9306635
15	0x4060c622	3.512093
16	0x409eb361	4.959397
17	0xc039269d	-2.8929818
18	0xbf80e1a6	-1.0068862
19	0xbfe4552c	-1.7838492
20	0x3fc483cb	1.535272
21	0x3ffe5d84	1.9872289
22	0xbf955be4	-1.1668668
23	0xbeca3844	-0.39496052
24	0xc01736c0	-2.3627167
25	0x40d20521	6.563126
26	0xbf2092af	-0.6272382
27	0x409f4c71	4.978081
28	0xc043e101	-3.0606081
29	0x401087d4	2.2582903
30	0x3ef84601	0.4849091
31	0xbfd31fc6	-1.6494071
32	0xbefb4273	-0.49074134
33	0x3fd2535d	1.643169
34	0xbfa35960	-1.276165
35	0xbebf552b	-0.37369666
36	0x40ee8384	7.453554
37	0x405c3380	3.4406433
38	0xbf265d56	-0.6498617
39	0x3f8d516b	1.1040472
40	0xc05de959	-3.4673674
41	0xc0b8cd12	-5.775033
42	0xbee3940a	-0.44448882
43	0xbf06af94	-0.5261166
44	0xc0a5bc54	-5.1792393
45	0x401040cc	2.253955
46	0x3fdbb129	1.716344
47	0x4097c545	4.7428308
48	0xc03fc48e	-2.9963717
49	0xbf86bc6b	-1.0526251
50	0x400ef6a9	2.233805
51	0xc091fb45	-4.5619226
52	0x3f4a30cd	0.78980714
53	0x3f5685de	0.83798015
54	0xbf016726	-0.5054802
55	0x4052f042	3.2959142
56	0xc076e3f4	-3.8576632
57	0x4013911e	2.3057323
58	0xc008d0a2	-2.137734
59	0x40c165c0	6.0436707

bias f4 [10]
0	0xc011e335	-2.2794926
1	0x407d505d	3.95803
2	0xbf5143f3	-0.8174431
3	0x4000f232	2.0147824
4	0xc09c67da	-4.887677
5	0x406d636c	3.7091932
6	0xc087a3a9	-4.238728
7	0x40374eec	2.864192
8	0x3faa7040	1.3315506
9	0xbf907c90	-1.1288013
