model/new/6_lstm.model (torch_old, 14950 bytes, 6 tensors)

weight_ih_l0 f4 [24, 28]
0.46026227 0.086534545 0.23065425 0.5010126 -0.79836357 -0.93738174 -1.0031502 0.689597
1.3673987 1.5508306 1.7202173 6.9328485 6.5057592 -6.7892027 -3.0682077 -1.8337276
-3.5626523 0.37083995 3.1513126 1.2784365 2.7056282 2.2518039 3.5682502 3.0512772
1.2976947 0.24239232 0.2944867 0.45652443 -0.09415055 0.6347656 1.4664247 2.1241891
0.70819986 1.1507236 0.37438428 0.37679616 0.57594067 0.83417535 0.06900635 -0.26131332
0.3032094 -0.25823963 -0.40497965 -0.5180911 0.44702244 0.7171631 0.34957868 0.23811333
0.01058146 0.46244496 0.16450208 -2.4394436 -2.682137 -0.8722598 0.6844422 0.75755775
-1.7856826 -2.0493622 -1.1107174 -0.06138696 -1.9947765 -2.9679117 -2.1405895 0.95562536
2.7735329 2.091658 1.4549546 1.5309409 2.4298291 3.3417597 3.4458256 2.024769
3.5405388 0.8906801 0.2837503 -1.209263 -1.4982003 -0.26731813 -0.54104066 -0.6877063
-1.1655517 -1.1281937 -2.0449226 -1.8730441 1.8600098 1.4672357 2.0683334 1.1665883
-2.1898153 -2.367564 -1.7347262 -3.4643185 -2.6467228 -3.0214007 -3.215405 -3.4027908
-3.2361457 -1.626328 0.47594076 0.026803793 0.057582382 0.2047955 1.1077913 0.60424453
0.51673204 0.39436767 0.4041325 0.7502322 0.43480703 -0.8593489 0.78540206 1.8589687
1.9570462 1.2987298 1.525495 2.9290955 1.6755142 0.88751954 2.4291203 1.6062967
2.015157 1.6364836 -0.52959025 -2.2029653 -3.7510784 -3.7447383 -3.90109 -9.500642
-9.8601675 0.03561781 2.4831016 1.0395007 -0.10182972 0.14092065 0.16707054 0.5740158
0.18964712 1.3880036 0.885798 1.2257318 -0.6816542 -0.5069689 -0.6233553 0.17846781
-0.027090998 -1.0377686 -0.6748331 -1.7099228 -1.6995016 -1.9706967 -0.9569801 -1.1438456
-2.4723797 -2.1811624 -0.7131179 -0.44753423 -1.2298372 -0.30369118 -0.020667376 0.5585574
-1.5750885 -0.94341236 0.15077357 -0.74951404 -0.27003345 0.08370038 -0.34733242 -0.5834823
-0.058982547 0.2267809 0.039592784 -0.05356083 0.8811316 2.166792 2.7001295 3.478962
1.9263308 2.3313892 2.5627759 2.3193755 -0.5377107 -2.7403238 0.6025639 0.0496769
0.9330045 1.3072376 -2.2594855 -2.255436 -3.4394832 -4.1260223 -1.828732 -0.6694415
-0.4545283 0.31353462 0.5720713 -0.07311044 -0.52315307 -0.54650545 0.101494834 -0.111727506
0.5063374 1.1555599 -0.11042409 0.29246837 0.11294537 -1.07808 -0.79612774 0.7113305
1.5185227 1.6742165 0.68191624 1.2125888 0.03880823 0.8400654 1.1107775 1.0800594
0.5473316 0.118372366 0.89443886 0.79875743 0.27566186 -1.0262781 -1.2464453 -0.8611324
0.37989 -0.23718263 0.5613854 0.65505975 0.65122586 1.1146615 0.76272017 1.3195734
1.374736 0.736886 0.6156353 2.012655 0.878181 2.989384 1.164182 0.35998577
-2.44435 -3.237891 -3.509813 -1.697815 -2.0872328 -2.0417984 -1.4680088 -2.9122732
-1.5862947 0.6531943 0.33649105 0.07731011 -2.1310492 -1.7534385 -0.48097393 0.3898946
00000000: 7fa7 eb3e 0639 b13d a130 6c3e 5d42 003f
00000010: 8e61 4cbf 40f8 6fbf 3a67 80bf 6e89 303f
00000020: ec06 af3f 9e81 c63f 1530 dc3f e5d9 dd40
00000030: 2e2f d040 2641 d9c0 845d 44c0 96b7 eabf
00000040: 7f02 64c0 bcde bd3e 1baf 4940 cfa3 a33f
00000050: 0329 2d40 8e1d 1040 365e 6440 2048 4340
00000060: dc1a a63f b135 783e f6c6 963e 92bd e93e
00000070: 01d2 c0bd 0080 223f ceb3 bb3f b7f2 0740
00000080: 964c 353f e94a 933f 4caf bf3e 6deb c03e
00000090: d970 133f 848c 553f 3453 8d3d dcca 85be
000000a0: 433e 9b3e fc37 84be 7e59 cfbe 9ea1 04bf
000000b0: 20e0 e43e 0098 373f fafb b23e fbd3 733e
000000c0: dc5d 2d3c 96c5 ec3e 3c73 283e d81f 1cc0
000000d0: 22a8 2bc0 6b4c 5fbf 9b37 2f3f 4eef 413f
000000e0: 3f91 e4bf c028 03c0 fd2b 8ebf e570 7bbd
000000f0: d654 ffbf 44f2 3dc0 6bff 08c0 dda3 743f
00000100: 9081 3140 badd 0540 f43b ba3f dff5 c33f
00000110: 5282 1b40 64df 5540 6888 5c40 d195 0140
00000120: 3098 6240 9c03 643f b847 913e 21c9 9abf
00000130: 07c5 bfbf ecdd 88be a481 0abf 850d 30bf
00000140: cc30 95bf a768 90bf 03e0 02c0 e9bf efbf
00000150: cd14 ee3f 61ce bb3f 935f 0440 c452 953f
00000160: ef25 0cc0 2b86 17c0 820b debf 65b7 5dc0
00000170: e863 29c0 a15e 41c0 32c9 4dc0 53c7 59c0
00000180: 031d 4fc0 842b d0bf 82ae f33e a193 db3c
00000190: 81db 6b3d e9b5 513e 1bcc 8d3f c5af 1a3f
000001a0: 8d48 043f 8fea c93e 74ea ce3e 380f 403f
000001b0: 079f de3e 4afe 5bbf 1c10 493f b0f2 ed3f
000001c0: 7d80 fa3f c73c a63f 6c43 c33f 4d76 3b40
000001d0: 4077 d63f 7b34 633f b576 1b40 219b cd3f
000001e0: 55f8 0040 4b78 d13f 3a93 07bf 62fd 0cc0
000001f0: ab11 70c0 cba9 6fc0 75ab 79c0 a102 18c1
00000200: 3fc3 1dc1 fbe3 113d 23eb 1e40 5c0e 853f
00000210: 1a8c d0bd 814d 103e 8a14 2b3e b3f2 123f
00000220: db32 423e 1aaa b13f a8c3 623f c8e4 9c3f
00000230: e480 2ebf b7c8 01bf 3794 1fbf 44c0 363e
00000240: f1ed ddbc 9ad5 84bf ddc1 2cbf c0de dabf
00000250: 4589 d9bf ca3f fcbf a6fc 74bf 8869 92bf
00000260: 783b 1ec0 2a98 0bc0 e58e 36bf 3523 e5be
00000270: 4e6b 9dbf 697d 9bbe a14e a9bc 9efd 0e3f
00000280: 809c c9bf 7983 71bf 6364 1a3e 27e0 3fbf
00000290: d341 8abe 1b6b ab3d 8ed5 b1be 195f 15bf
000002a0: af97 71bd 4139 683e 0b2c 223d 9a62 5bbd
000002b0: d791 613f b8ac 0a40 ecce 2c40 50a7 5e40
000002c0: 0292 f63f 7b35 1540 8504 2440 a670 1440
000002d0: 69a7 09bf 7761 2fc0 a141 1a3f 017a 4b3d
000002e0: 62d9 6e3f 9053 a73f 699b 10c0 1059 10c0
000002f0: 7e20 5cc0 6008 84c0 e413 eabf 8560 2bbf
00000300: efb7 e8be 9c87 a03e 4473 123f edba 95bd
00000310: 5ced 05bf c8e7 0bbf 86dc cf3d 64d1 e4bd
00000320: 549f 013f 63e9 933f 0626 e2bd 6abe 953e
00000330: e74f e73d 87fe 89bf 07cf 4bbf c119 363f
00000340: f45e c23f ba4c d63f 1092 2e3f 1c36 9b3f
00000350: 61f5 1e3d 870e 573f f52d 8e3f 633f 8a3f
00000360: ec1d 0c3f 366d f23d f2f9 643f 5e7b 4c3f
00000370: 8d23 8d3e 155d 83bf 858b 9fbf 2c73 5cbf
00000380: f180 c23e 01e0 72be f4b6 0f3f ffb1 273f
00000390: bdb6 263f 3aad 8e3f a141 433f c8e7 a83f
000003a0: 59f7 af3f 90a4 3c3f 469a 1d3f 57cf 0040
000003b0: 78d0 603f 1152 3f40 ea03 953f 0e50 b83e
000003c0: 3b70 1cc0 9b39 4fc0 c7a0 60c0 0052 d9bf
000003d0: 3995 05c0 d3ac 02c0 b6e7 bbbf af62 3ac0
000003e0: b40b cbbf be37 273f 8e48 ac3e c354 9e3d
000003f0: 1c63 08c0 ac70 e0bf 3742 f6be 44a0 c73e

weight_hh_l0 f4 [24, 6]
0.34302786 1.8534132 -0.49542645 0.25369945 1.2375137 2.0798502 6.5409083 -7.704117
2.7517095 -1.2927052 -4.2310667 -0.22782052 0.4891632 1.0362592 -4.2162914 -7.585366
1.7238395 1.314455 6.927359 -6.1592565 1.3838086 1.1048092 -0.6123615 -1.5196077
-15.137799 9.816283 -2.2629733 -5.34432 6.808668 -0.15384564 -10.031389 -0.13692388
-12.5914345 0.24525619 -0.43407035 8.601029 9.362042 -0.7215988 8.918401 1.8350548
-3.2555459 -2.1541367 -3.3657155 1.7072681 -1.677698 -0.030487288 4.873304 0.8593912
-1.9173149 -0.60518795 6.825409 0.4486159 -4.5650597 -0.6128017 -4.066691 6.302549
7.9804726 -3.1658728 1.7515401 4.497548 -1.6666499 -2.7240076 -5.0886874 -1.7450919
-3.4567676 0.07015872 -10.219315 -1.8747967 -6.280498 -1.4618686 -2.7787197 -12.457975
1.483048 1.2562275 7.346754 2.2743757 -0.8279958 -0.55994266 -1.6406025 1.0077888
-13.905253 -1.8434044 0.19513437 12.912153 1.6254864 -0.94771785 3.0224562 -2.3574905
-1.1518 0.047993124 0.6746551 4.9440327 -1.9061164 0.07992037 -0.6168292 -3.1354172
1.6099811 -1.6937685 -15.630939 0.15614687 5.341141 0.50584024 1.0821662 1.802065
-2.1449242 0.5986662 -1.9898798 2.2954597 4.9814835 -9.257881 2.6458988 6.994063
-1.2086796 -3.691499 -8.364175 -3.2359579 -2.90298 0.36388576 7.3189144 -1.2275609
0.8332799 -0.8313028 -2.6279042 1.2715762 -0.8559713 1.1142182 -1.9805207 -0.3465393
1.8192174 7.2117143 0.27965802 -1.0244136 2.690519 -2.2955947 -0.41188833 0.012624295
0.47779354 -0.13624014 3.8424156 2.5392368 3.6660407 0.38016704 2.2432494 1.6584572
00000000: 59a1 af3e a53c ed3f 89a8 fdbe e5e4 813e
00000010: d966 9e3f 441c 0540 1f4f d140 2088 f6c0
00000020: 021c 3040 5d77 a5bf e664 87c0 c849 69be
00000030: 9973 fa3e 24a4 843f dceb 86c0 51bb f2c0
00000040: c6a6 dc3f 1040 a83f edac dd40 a118 c5c0
00000050: a420 b13f 636a 8d3f b9c3 1cbf 8182 c2bf
00000060: 6d34 72c1 7f0f 1d41 8ed4 10c0 ab04 abc0
00000070: 9ce0 d940 b689 1dbe 9280 20c1 c635 0cbe
00000080: 8476 49c1 7024 7b3e 783e debe d19d 0941
00000090: edca 1541 b3ba 38bf c5b1 0e41 13e3 ea3f
000000a0: dd5a 50c0 60dd 09c0 e267 57c0 c387 da3f
000000b0: cfbe d6bf 7ac0 f9bc 1bf2 9b40 1001 5c3f
000000c0: 936a f5bf 99ed 1abf c069 da40 fcb0 e53e
000000d0: f814 92c0 92e0 1cbf 5522 82c0 7bae c940
000000e0: 0860 ff40 a99d 4ac0 7732 e03f eaeb 8f40
000000f0: c954 d5bf 2456 2ec0 87d6 a2c0 2c5f dfbf
00000100: ae3b 5dc0 60af 8f3d 5082 23c1 57f9 efbf
00000110: d7f9 c8c0 831e bbbf 8bd6 31c0 de53 47c1
00000120: 84d4 bd3f 10cc a03f 9c18 eb40 5f8f 1140
00000130: 88f7 53bf 6758 0fbf 43ff d1bf 39ff 803f
00000140: eb7b 5ec1 adf4 ebbf 4ed1 473e 2e98 4e41
00000150: f00f d03f a39d 72bf ec6f 4140 20e1 16c0
00000160: 2f6e 93bf 7094 443d 32b6 2c3f 8435 9e40
00000170: 9ffb f3bf 4aad a33d 85e8 1dbf adaa 48c0
00000180: dc13 ce3f 68cd d8bf 5318 7ac1 f7e4 1f3e
00000190: a1ea aa40 bf7e 013f 6c84 8a3f 11aa e63f
000001a0: 7046 09c0 3042 193f 62b4 febf d0e8 1240
000001b0: 5068 9f40 4820 14c1 6856 2940 5dcf df40
000001c0: 03b6 9abf 8541 6cc0 a9d3 05c1 ef19 4fc0
000001d0: 6dca 39c0 3c4f ba3e 8c34 ea40 b720 9dbf
000001e0: d551 553f 43d0 54bf 952f 28c0 02c3 a23f
000001f0: ef20 5bbf b49e 8e3f b481 fdbf 996d b1be
00000200: 1edc e83f 5dc6 e640 562f 8f3e fc1f 83bf
00000210: 7731 2c40 06eb 12c0 07e3 d2be 22d6 4e3c
00000220: 5ba1 f43e 8982 0bbe 23ea 7540 db82 2240
00000230: 69a0 6a40 41a5 c23e 6691 0f40 5348 d43f

bias_ih_l0 f4 [24]
-0.2981998 -0.33047232 4.3585825 -3.877404 -3.3425326 1.4928724 -0.8271678 1.871389
-0.40078864 4.946529 2.4856703 6.4028134 5.286154 1.1336868 -4.4105253 4.3583746
2.2898462 3.7952743 3.4597871 2.3131945 4.2718067 1.9155759 1.4193742 2.6775627
00000000: a5ad 98be ab33 a9be 8279 8b40 6327 78c0
00000010: 0eec 55c0 7116 bf3f 45c1 53bf ad89 ef3f
00000020: 2b34 cdbe f749 9e40 3915 1f40 d9e3 cc40
00000030: 2c28 a940 a61c 913f 0623 8dc0 ce77 8b40
00000040: d78c 1240 c6e5 7240 276d 5d40 610b 1440
00000050: a4b2 8840 9731 f53f 0eae b53f 305d 2b40

bias_hh_l0 f4 [24]
-0.41335246 -0.9312364 3.8202164 -3.8706226 -3.5186079 0.8290374 -0.96418715 1.6802889
-0.5323522 5.385365 2.187324 6.4342794 5.2554736 1.1988046 -4.756493 4.1871414
1.9173148 3.8694735 3.0118887 2.0791748 4.1649413 2.2516344 1.2880783 2.647024
00000000: efa2 d3be 8265 6ebf 6d7e 7440 48b8 77c0
00000010: df30 61c0 cc3b 543f f8d4 76bf b513 d73f
00000020: 3c48 08bf e954 ac40 1efd 0b40 9ee5 cd40
00000030: d72c a840 6e72 993f 3135 98c0 10fd 8540
00000040: 926a f53f 74a5 7740 c9c2 4040 3311 0540
00000050: 3347 8540 c71a 1040 c0df a43f d768 2940

weight f4 [10, 6]
5.3773565 0.8752102 5.1179547 -3.4880803 -3.6566691 -4.96963 -0.37888813 -4.5010176
-1.1402572 3.578924 4.6557045 2.6624563 6.5379305 -0.1476513 -2.4981358 5.353659
-2.2672756 -1.427031 -0.7344945 2.0399644 -4.2002945 2.1597762 0.995906 -0.6041072
2.2564876 1.2869655 4.040006 -1.8476739 -2.005529 2.540393 -3.9862728 -0.5398287
-3.5715265 -0.66656035 2.6872556 -0.86807746 -2.14428 -3.9018888 6.6254673 0.6607628
-1.5529529 -1.4560628 -3.608675 2.7240255 -5.4858365 0.43074036 -0.6312392 3.0368912
-1.9353552 -0.123953655 3.4696107 -3.1179514 2.2634237 -0.9122447 -2.5107915 3.0449684
-2.6390743 -2.863381 -0.019788777 2.563983
00000000: 4e13 ac40 c70d 603f 49c6 a340 b53c 5fc0
00000010: de06 6ac0 3507 9fc0 a0fd c1be 5608 90c0
00000020: f3f3 91bf 170d 6540 88fb 9440 af65 2a40
00000030: ba36 d140 e731 17be 75e1 1fc0 2d51 ab40
00000040: 0b1b 11c0 f4a8 b6bf d507 3cbf c78e 0240
00000050: d068 86c0 c639 0a40 b2f3 7e3f c5a6 1abf
00000060: 4b6a 1040 49bb a43f bb47 8140 9480 ecbf
00000070: 965a 00c0 cd95 2240 181f 7fc0 3732 0abf
00000080: e493 64c0 b3a3 2abf fffb 2b40 533a 5ebf
00000090: e23b 09c0 8cb8 79c0 d403 d440 c027 293f
000000a0: 29c7 c6bf 4460 babf 88f4 66c0 6f56 2e40
000000b0: f98b afc0 008a dc3e e498 21bf 6d5c 4240
000000c0: b8b9 f7bf 6adb fdbd 1a0e 5e40 848c 47c0
000000d0: efdb 1040 de88 69bf cfb0 20c0 c3e0 4240
000000e0: 98e6 28c0 a241 37c0 131c a2bc 4c18 2440

bias f4 [10]
-4.415284 -2.2996652 -1.3534092 2.2054877 -0.9105244 5.4531784 -6.262757 3.1393518
0.6297559 4.3396807
00000000: 024a 8dc0 b72d 13c0 833c adbf b626 0d40
00000010: 2118 69bf 7080 ae40 8168 c8c0 24eb 4840
00000020: af37 213f aade 8a40
