model/new/8_gru.model (torch_old, 14517 bytes, 6 tensors)

weight_ih_l0 f4 [24, 28]
-0.051436935 -0.35219392 -0.32343587 -0.30206674 -0.67547274 -0.26482016 -0.1995678 0.5285642
1.2432743 1.221386 0.75411826 1.7820543 2.6469193 3.9875586 2.2152028 -1.0322143
-1.4598963 -1.1939901 -1.2851028 -1.127095 -0.8633541 -0.41315794 -0.8196671 -1.0625814
-1.5024548 -0.5617264 -0.19567831 -0.046270907 -2.1407816 -1.5631014 -1.7875463 -1.6664569
-1.2122016 -2.235118 -1.6814221 -0.8160248 -0.8039099 0.7181585 2.9241827 8.353124
8.0517645 7.633256 2.9326184 0.4951472 3.9066246 5.7585626 2.980705 -1.2632834
-0.40165138 -1.442843 -2.5057452 -2.8455677 -1.798332 -1.6649556 -1.1045007 -1.5009341
0.1951377 -0.018570816 0.46122596 0.8208621 0.974022 1.5874503 -0.21862487 -0.85202414
0.541668 2.113384 2.3980253 1.0990536 -3.2844188 -7.214313 -3.1926978 -1.0796643
-0.3161048 -4.396145 -6.626462 -2.9148538 1.3065937 2.0692005 0.45383987 1.0568569
0.78111744 -0.11329157 0.23216142 0.16320191 -0.4738308 -0.8390162 -0.8873888 -0.018464431
-0.738536 0.12894638 0.39548728 -0.2055074 -0.37176827 -0.11774508 0.7527896 1.5315948
-0.13245475 0.51798695 2.093725 2.1795373 1.6554865 -0.4551549 -1.2041525 -1.3289001
-0.9405571 -0.4825748 0.1023153 0.37892434 0.13081665 -0.12444327 -0.42231235 -0.4616964
-0.31898808 -0.878654 -0.5719199 -0.28734127 -0.2035526 0.016130567 -0.1595203 0.18216227
-0.06700527 -0.09509098 0.27156016 0.12026229 0.39640698 0.080097005 0.01867915 0.25195593
0.45145932 0.8878054 0.35251907 0.42830828 0.107800215 -0.46291688 -0.4213154 -0.3394257
-0.49960947 -0.7062045 -1.1992384 -0.99311477 -0.7407643 -0.6063589 -0.7947973 -0.4796722
-0.736671 -2.147371 -2.745055 -1.7443534 -0.46801892 -0.7656971 -0.9450934 -0.40538338
-0.2709631 0.68082887 1.0524391 1.7351012 1.6745219 0.35249072 1.3814121 1.6233817
1.1509513 0.56397855 0.81385344 0.16249697 -0.4180672 -0.44852906 -0.6369518 -0.65285075
0.36027917 0.481856 0.56183 0.8041957 1.1203502 1.1332959 0.6820958 0.46373695
0.56387234 0.9265659 0.952364 1.3915539 0.7148656 0.96051645 1.0014932 1.5525973
1.3524419 1.3212339 0.64095914 0.32226804 0.8447049 1.1138468 1.2712651 0.9863155
0.58477813 0.32418317 0.63269365 0.38274932 -0.22809453 -0.15130791 0.071843036 -0.25477773
-0.051053066 -1.7186519 -2.047438 -2.1188126 -1.6558657 1.5443832 2.425017 0.46086782
-0.564827 0.4302047 0.29493052 0.42466658 1.6442505 6.1310396 2.9537325 -0.134655
-2.169581 -4.9049196 -3.9107857 -4.5128803 -2.086265 0.32098186 -0.519489 -0.66866493
-1.437155 -1.7084279 -0.6499165 -2.0345957 1.1454604 0.70764923 -0.070797525 0.25311804
0.5108903 0.28419122 0.38447157 0.660311 0.20907113 0.7145543 0.6314252 0.28089583
-0.13183382 -0.08999222 -0.16461407 -0.21196175 -0.039594684 -0.19044298 0.12878902 -0.11588054
0.061491888 0.6775608 0.57361776 -0.48942208 -1.2621348 -0.7156458 -0.35274902 0.8252103
00000000: 89af 52bd c352 b4be 6399 a5be 7ea8 9abe
00000010: c8eb 2cbf 8296 87be 805b 4cbe fc4f 073f
00000020: 9d23 9f3f 6056 9c3f e50d 413f 5b1a e43f
00000030: 2067 2940 2934 7f40 e2c5 0d40 991f 84bf
00000040: e2dd babf abd4 98bf 407e a4bf a644 90bf
00000050: c604 5dbf 7089 d3be b4d5 51bf ab02 88bf
00000060: 7050 c0bf 4dcd 0fbf e55f 48be 9086 3dbd
00000070: 9102 09c0 b513 c8bf 51ce e4bf 764e d5bf
00000080: 6c29 9bbf 2c0c 0fc0 d738 d7bf 00e7 50bf
00000090: 0acd 4dbf 3cd9 373f cf25 3b40 65a6 0541
000000a0: 07d4 0041 a243 f440 05b0 3b40 ef83 fd3e
000000b0: 2306 7a40 2546 b840 dfc3 3e40 45b3 a1bf
000000c0: 40a5 cdbe 14af b8bf 215e 20c0 c81d 36c0
000000d0: be2f e6bf 441d d5bf 4760 8dbf 9c1e c0bf
000000e0: 2dd2 473e d321 98bc cf25 ec3e 0524 523f
000000f0: 8159 793f 9231 cb3f 33df 5fbe 411e 5abf
00000100: c1aa 0a3f af41 0740 3f79 1940 caad 8c3f
00000110: eb33 52c0 a7db e6c0 2955 4cc0 7132 8abf
00000120: 7dd8 a1be 38ad 8cc0 fa0b d4c0 f78c 3ac0
00000130: 763e a73f c86d 0440 b35d e83e 1647 873f
00000140: 50f7 473f 6905 e8bd b9bb 6d3e 671e 273e
00000150: f399 f2be c4c9 56bf ea2b 63bf b842 97bc
00000160: b210 3dbf 850a 043e 4f7d ca3e 8870 52be
00000170: 6958 bebe 5524 f1bd d2b6 403f 4c0b c43f
00000180: 38a2 07be cb9a 043f 97ff 0540 8a7d 0b40
00000190: fbe6 d33f 100a e9be ab21 9abf 6619 aabf
000001a0: 5ac8 70bf 0b14 f7be af8a d13d 5f02 c23e
000001b0: cdf4 053e 1ddc febd 5339 d8be 7863 ecbe
000001c0: 6852 a3be 78ef 60bf 5869 12bf 651e 93be
000001d0: 1870 50be 4024 843c 4a59 23be bf88 3a3e
000001e0: 0f3a 89bd 0fbf c2bd ef09 8b3e 134c f63d
000001f0: dbf5 ca3e e609 a43d 0405 993c 5e00 813e
00000200: ad25 e73e 3747 633f 617d b43e 394b db3e
00000210: 5cc6 dc3d 7103 edbe a7b6 d7be 35c9 adbe
00000220: d0cc ffbe d1c9 34bf a580 99bf c53c 7ebf
00000230: bba2 3dbf 563a 1bbf d677 4bbf 9897 f5be
00000240: 7896 3cbf 876e 09c0 fbae 2fc0 f946 dfbf
00000250: 2da0 efbe ba04 44bf a4f1 71bf 698e cfbe
00000260: adbb 8abe cd4a 2e3f 53b6 863f cc17 de3f
00000270: bc56 d63f aa79 b43e 1dd2 b03f f9ca cf3f
00000280: 5f52 933f e660 103f b358 503f 9b65 263e
00000290: e70c d6be 9aa5 e5be 460f 23bf 3a21 27bf
000002a0: 8376 b83e d4b5 f63e 17d4 0f3f c5df 4d3f
000002b0: a367 8f3f d70f 913f d59d 2e3f ee6e ed3e
000002c0: f059 103f 6c33 6d3f 21ce 733f 701e b23f
000002d0: 6f01 373f 68e4 753f ee30 803f 82bb c63f
000002e0: d11c ad3f 311e a93f e615 243f 5100 a53e
000002f0: 953e 583f 8892 8e3f d1b8 a23f 2c7f 7c3f
00000300: 05b4 153f 56fb a53e 36f8 213f b8f7 c33e
00000310: 9d91 69be 76f0 1abe 7122 933d 3a72 82be
00000320: 051d 51bd c9fc dbbf 3909 03c0 a09a 07c0
00000330: 68f3 d3bf 59ae c53f 7b33 1b40 def6 eb3e
00000340: 8198 10bf ca43 dc3e 2201 973e e66d d93e
00000350: cd76 d23f 7a31 c440 f409 3d40 00e3 09be
00000360: 6ada 0ac0 1af5 9cc0 504a 7ac0 8469 90c0
00000370: 5e85 05c0 bc57 a43e 3bfd 04bf a02d 2bbf
00000380: b2f4 b7bf c4ad dabf ee60 26bf d136 02c0
00000390: 729e 923f 8028 353f 4bfe 90bd b098 813e
000003a0: b5c9 023f 8381 913e 75d9 c43e 240a 293f
000003b0: be16 563e 08ed 363f 15a5 213f 94d1 8f3e
000003c0: 72ff 06be d74d b8bd 9790 28be 800c 59be
000003d0: 092e 22bd 7c03 43be 45e1 033e c752 edbd
000003e0: ebde 7b3d a074 2d3f 9dd8 123f 8895 fabe
000003f0: a28d a1bf 9034 37bf 859b b4be fb40 533f

weight_hh_l0 f4 [24, 8]
-1.41249 -1.1147194 0.67807764 1.6549183 -0.7592669 -1.054926 1.0177613 -0.34194762
0.23358966 -4.440583 7.807592 1.6744511 -0.90015966 3.610323 3.773884 -5.5230036
-0.9902003 -0.190539 -2.086059 2.138706 -3.6968675 0.97992873 -0.21462542 -0.642779
1.817845 -0.73996574 1.3408655 1.3860153 0.9167183 0.5698253 -1.1069559 -1.1231256
0.046362214 0.42406327 -0.1870632 0.21874961 0.22003123 0.0065501747 0.8049826 0.23980893
8.618237 1.0534635 -1.2107992 -0.7642072 -1.9678427 2.2770958 0.6754506 -2.8266466
1.6015075 2.683597 -1.2031189 0.7247006 -0.7436949 4.8146143 0.44801843 1.4333171
-0.84888124 -0.392904 -1.190034 -1.3768961 0.36039743 1.5019642 1.0063759 -3.7976513
-0.22199854 0.38544604 0.12203451 -0.4184357 -0.4880143 -0.08894165 -6.771832 -1.0712638
-4.2895527 -0.84474164 -3.4247758 -0.64267665 -1.6062124 -1.5152063 -5.116602 1.888331
-1.054444 -4.832262 -7.3194027 -0.47391918 0.24100837 0.07114099 -4.2092934 -0.38136986
-0.08332756 -0.9073904 1.3083915 4.6473994 -3.7873402 -0.013372342 8.450336 -2.6055462
-1.1133015 1.483208 1.0080805 3.7342868 -7.6492653 0.9797775 5.5853314 2.0677438
-0.97555 -0.13891988 -3.4542625 0.5283457 -0.13072254 -0.3132978 -7.201814 -0.35876694
0.48906144 0.97742456 -0.17820463 1.5585995 0.08027574 0.03877846 0.100805 0.06796435
1.5377375 -0.7790915 0.6982273 1.0032295 5.655965 0.4378021 -2.655537 -8.397436
8.633478 0.97270054 -0.5407023 -1.748946 -0.26318747 1.3309704 5.66588 -0.44964775
-1.5909232 3.064643 -1.9187003 -0.2506722 1.8405744 -5.4796715 -1.5965043 3.0385923
-2.7051635 7.175576 -4.700327 4.5216503 -2.4451284 6.6231976 3.1669147 1.9038502
0.8852472 -0.17491774 0.63934207 1.3155679 -2.478194 1.5989751 1.6698539 -8.242186
0.2541098 2.289014 4.0236483 -1.5708148 6.622878 -5.096441 -5.9095635 2.4238677
-2.0285165 -5.303288 -10.404824 -1.3515769 1.7458272 1.1987153 1.3694935 -0.44961995
-0.31734714 1.6654108 -2.556625 -1.3752493 -0.34416723 0.6978253 1.0640974 1.5554146
3.2845397 -5.733768 0.6513517 12.581723 12.088059 -10.021637 -16.73518 -8.523515
00000000: 79cc b4bf 20af 8ebf 7f96 2d3f 5dd4 d33f
00000010: 515f 42bf d107 87bf 0146 823f c213 afbe
00000020: 2132 6f3e 4219 8ec0 cbd7 f940 6a54 d63f
00000030: dd70 66bf 880f 6740 5187 7140 72bc b0c0
00000040: c47d 7dbf a81c 43be fe81 05c0 8fe0 0840
00000050: 7a99 6cc0 9cdc 7a3f c4c6 5bbe 2a8d 24bf
00000060: 25af e83f 656e 3dbf 7ba1 ab3f f368 b13f
00000070: 0dae 6a3f 12e0 113f bbb0 8dbf 94c2 8fbf
00000080: 4ee6 3d3d d21e d93e 7f8d 3fbe e6ff 5f3e
00000090: de4f 613e d9a2 d63b 5713 4e3f 7990 753e
000000a0: 4ce4 0941 e4d7 863f 78fb 9abf 15a3 43bf
000000b0: 45e2 fbbf f0bb 1140 55ea 2c3f c7e7 34c0
000000c0: 33fe cc3f 0ec0 2b40 cdff 99bf fb85 393f
000000d0: ca62 3ebf 5211 9a40 ac62 e53e ef76 b73f
000000e0: 4850 59bf b72a c9be 0953 98bf 223e b0bf
000000f0: 0386 b83e 5d40 c03f edd0 803f b80c 73c0
00000100: 9653 63be 2f59 c53e 3bed f93d 343d d6be
00000110: 03dd f9be 0a27 b6bd d9b2 d8c0 2c1f 89bf
00000120: 0444 89c0 fd40 58bf 872f 5bc0 7586 24bf
00000130: 5e98 cdbf 48f2 c1bf 34bb a3c0 d5b4 f13f
00000140: 05f8 86bf e4a1 9ac0 8c38 eac0 89a5 f2be
00000150: e6ca 763e 5eb2 913d 88b2 86c0 e942 c3be
00000160: a4a7 aabd bd4a 68bf 5f79 a73f 7fb7 9440
00000170: c863 72c0 ab17 5bbc 9434 0741 45c1 26c0
00000180: aa80 8ebf c2d9 bd3f c808 813f 8efe 6e40
00000190: c8c6 f4c0 b3d2 7a3f 09bb b240 ea55 0440
000001a0: a5bd 79bf 0341 0ebe a312 5dc0 aa41 073f
000001b0: 21dc 05be 9268 a0be 4375 e6c0 4db0 b7be
000001c0: 4366 fa3e 7f38 7a3f 467b 36be 3080 c73f
000001d0: 9b67 a43d 2ad6 1e3d da72 ce3d e530 8b3d
000001e0: 95d4 c43f 8a72 47bf 06bf 323f d369 803f
000001f0: aafd b440 9927 e03e 51f4 29c0 e65b 06c1
00000200: ba22 0a41 e702 793f 776b 0abf 76dd dfbf
00000210: 82c0 86be 3d5d aa3f e44e b540 3b38 e6be
00000220: 5fa3 cbbf 1c23 4440 f997 f5bf 1b58 80be
00000230: f197 eb3f 7859 afc0 415a ccbf 4c78 4240
00000240: 6621 2dc0 529e e540 1469 96c0 5cb1 9040
00000250: fc7c 1cc0 3cf1 d340 bbae 4a40 5db1 f33f
00000260: 8f9f 623f a31d 33be ecab 233f 8764 a83f
00000270: bb9a 1ec0 37ab cc3f c6bd d53f fedf 03c1
00000280: ae1a 823e 357f 1240 bac1 8040 7610 c9bf
00000290: 9eee d340 0b16 a3c0 251b bdc0 a620 1b40
000002a0: 37d3 01c0 89b4 a9c0 297a 26c1 7900 adbf
000002b0: 4477 df3f 816f 993f 904b af3f 9634 e6be
000002c0: 537b a2be 2e2c d53f be9f 23c0 2b08 b0bf
000002d0: b036 b0be aea4 323f 5834 883f d317 c73f
000002e0: e635 5240 077b b7c0 fcbe 263f bd4e 4941
000002f0: b168 4141 a058 20c1 a6e1 85c1 5160 08c1

bias_ih_l0 f4 [24]
0.46940395 4.41458 -0.61456794 1.3072568 1.6199753 1.600339 -1.8581964 0.9674133
4.0238495 3.1720679 -3.7514412 4.02666 3.894013 0.49378473 0.5883972 -0.25602692
-3.218892 -2.7484918 11.869836 1.4060212 -1.4658829 0.22383961 5.7431726 -17.70486
00000000: b755 f03e 3d44 8d40 5354 1dbf 3154 a73f
00000010: 5a5b cf3f e9d7 cc3f 61d9 edbf 66a8 773f
00000020: 60c3 8040 2903 4b40 9d17 70c0 66da 8040
00000030: 8237 7940 5ad1 fc3e 33a1 163f f615 83be
00000040: 5402 4ec0 4ae7 2fc0 d9ea 3d41 81f8 b33f
00000050: 0da2 bbbf 3636 653e 12c8 b740 8ea3 8dc1

bias_hh_l0 f4 [24]
0.55358225 4.3808837 -0.3049153 1.8735732 1.7315017 1.5310956 -1.647661 0.7334968
3.7857227 3.4223742 -3.8283243 4.149193 3.8387716 0.42041135 0.72611606 -0.19202694
1.9978415 -1.0794418 3.836378 0.5971986 -2.5429049 -0.9341307 -3.685222 -16.633652
00000000: 91b7 0d3f 3330 8c40 dc1d 9cbe 3fd1 ef3f
00000010: d9a1 dd3f f1fa c33f 8ee6 d2bf 72c6 3b3f
00000020: 4849 7240 2e08 5b40 4403 75c0 30c6 8440
00000030: 6fae 7540 2840 d73e bee2 393f b6a2 44be
00000040: 45b9 ff3f 262b 8abf 3887 7540 02e2 183f
00000050: f4be 22c0 3123 6fbf adda 6bc0 b811 85c1

weight f4 [10, 8]
7.758353 5.81569 5.80562 0.011592311 -0.38596264 1.1862664 -0.7330576 -2.5524378
0.600575 -3.6278698 4.064966 -4.7129574 4.7514653 -0.69066674 -1.0310493 5.2454104
-2.0321 1.1863377 -0.36881942 -1.327635 -1.1500502 0.8932628 -5.481334 0.02254882
-5.472089 0.77565163 -1.7279788 0.5325385 0.061915684 2.3288565 1.2671849 0.004756277
-0.35085917 1.1706597 -1.5349218 -0.97098756 -2.8085494 -3.720171 0.7376197 -1.1928068
-1.5950142 -4.6922803 -4.8006477 3.427129 -0.75967973 1.6243601 0.7894038 -0.054469038
6.2749867 -1.7979302 0.025957838 -7.8886056 1.0426959 0.69849575 -10.13605 0.49643514
-5.1172137 0.097901665 -3.0316615 7.1206713 -1.3534989 -0.5091209 7.4903345 0.12046413
3.6025195 1.4701939 2.650433 0.15231317 0.5126939 0.6335504 1.763076 -1.1080105
-2.683784 0.05103524 -1.8935335 4.191136 0.2687274 -1.6983193 6.021161 -0.7124827
00000000: 6e44 f840 221a ba40 a4c7 b940 aded 3d3c
00000010: e59c c5be 94d7 973f aaa9 3bbf 245b 23c0
00000020: 48bf 193f 052f 68c0 3414 8240 8cd0 96c0
00000030: 010c 9840 89cf 30bf 6cf9 83bf 67da a740
00000040: ed0d 02c0 ead9 973f e6d5 bcbe f2ef a9bf
00000050: d834 93bf dfac 643f 1767 afc0 4eb8 b83c
00000060: 5a1b afc0 1b91 463f 692e ddbf 7154 083f
00000070: 4d9b 7d3d fc0b 1540 1d33 a23f 8bda 9b3b
00000080: d0a3 b3be 2dd8 953f 5178 c4bf a492 78bf
00000090: 46bf 33c0 4817 6ec0 a5d4 3c3f e5ad 98bf
000000a0: 6d29 ccbf 2927 96c0 e89e 99c0 1556 5b40
000000b0: 5f7a 42bf 08eb cf3f 5e16 4a3f ed1a 5fbd
000000c0: b1cc c840 9422 e6bf 88a5 d43c 756f fcc0
000000d0: 0f77 853f 9ed0 323f 432d 22c1 bf2c fe3e
000000e0: 37c0 a3c0 ab80 c83d be06 42c0 8adc e340
000000f0: 743f adbf bf55 02bf d2b0 ef40 e6b5 f63d
00000100: ae8f 6640 502f bc3f b2a0 2940 fcf7 1b3e
00000110: e83f 033f 5c30 223f 79ac e13f 4ad3 8dbf
00000120: 1ec3 2bc0 540a 513d 4e5f f2bf c91d 8640
00000130: a396 893e 8762 d9bf 5aad c040 4465 36bf

bias f4 [10]
-1.5893123 0.3656812 0.121030666 1.2364175 0.91260743 -0.43587488 -1.4172301 -0.9040168
0.8444494 0.31563738
00000000: 966e cbbf 913a bb3e edde f73d ee42 9e3f
00000010: a4a0 693f fe2a dfbe cc67 b5bf a56d 67bf
00000020: d62d 583f 399b a13e
