model/new/8_gru.model (torch_old, 14542 bytes, 6 tensors)

weight_ih_l0 f4 [24, 28]
0.23019463 -0.10109664 -0.095847666 0.47322732 0.7754843 0.37641042 0.55843294 0.7770507
-0.19066861 0.6766172 1.8995676 1.3803716 1.3359969 -2.3049612 -1.2417957 -0.27694163
-1.0891861 -1.7792834 -0.83945256 -1.1057416 -1.8043503 -1.269062 -0.5888656 0.64179033
-0.3922849 -0.1885003 0.18383761 0.22048332 -0.8241735 -0.21968889 -0.39370352 -0.33785743
-1.7217758 -3.094716 -0.14005291 -0.77013826 0.312496 0.6454638 0.1758383 -0.36667377
0.9235066 0.41127715 1.0523609 1.4965047 1.4534342 2.3764694 1.4427519 1.6525302
1.1635374 0.69754016 0.6823368 0.32012174 0.50141144 0.120466806 0.611154 0.17585668
-0.8457147 -0.8817465 -0.18594866 -0.07727368 0.5102216 0.72524995 0.58441067 -0.1359708
0.13931009 0.27608186 -0.88252753 1.0209243 1.5524944 0.94078016 0.74285585 -0.4200586
0.4677363 1.0747026 1.2098554 0.2174491 0.13804688 0.6744041 -0.23636402 -0.034604635
-1.2348104 -1.0497801 -0.7735659 -0.8292985 0.123789765 -0.2731706 -0.14307976 -0.068771906
-0.24146119 -0.6962102 -0.5213449 -0.4797598 -0.2329062 -0.99482715 -0.22867152 -0.09370363
2.1160424 0.26920727 1.2407705 1.6390874 -0.017933879 0.40952206 1.8964393 0.72125196
0.14446995 0.30467218 0.36010677 -1.1230743 -1.0877789 -0.69087684 -0.010904335 0.17818874
-0.3736142 -0.9476239 -0.59382236 -0.14866938 0.09789538 0.15480378 -0.04815365 0.060954176
-0.18881102 -0.18192142 -0.04396551 0.011553401 0.6738615 -0.033845335 -0.6046155 -0.23169236
-0.06020158 0.36986452 0.06703329 0.2698168 0.42957616 0.26566344 0.02011381 -0.11849146
-0.14522135 -0.4627065 -0.8706926 -0.969865 -0.47440365 -0.35360762 -0.35452163 0.046534095
0.3609946 0.6812891 0.996345 0.79462093 0.50296205 0.34462422 0.22681232 1.3554723
0.99124163 1.4417347 -0.04356449 0.17956422 -0.022540264 -0.80445534 -0.97389126 -0.2585834
-0.24754797 -0.28938463 -1.1841831 -0.755146 -0.95629936 -0.40574664 -0.47787368 -0.37790123
-1.4606835 -1.3393457 -1.2838659 -1.0071276 -1.0118694 -0.6376943 -0.3842873 -0.3390997
-0.0023528493 -0.05153513 2.0167603 -0.7892118 -0.9638241 3.4587896 3.2742882 3.936304
2.0197144 0.3809279 1.2023107 -0.37617373 -0.9500176 -0.34928688 -0.34170535 -1.1555727
-1.3127118 -1.1201878 -0.94726837 -1.4414604 -0.28713787 -0.2196492 -0.09699248 -0.34773624
-0.19456773 -0.4670531 0.02367938 -0.6906035 -0.14232925 -1.2007682 -0.45100656 -0.26763782
-0.6528326 -0.5194669 -0.06934602 0.3625767 0.13679779 0.84867316 0.30817375 -1.109357
-1.1091241 -2.2092612 -2.1148012 -0.52301466 -0.7912627 -0.2863349 -0.71194524 -0.6143079
-3.186682 -2.5636363 -1.3508283 0.5827647 -0.8364031 -1.8409017 -0.96246004 -1.7258744
-1.3951018 -0.7301183 -1.0319968 0.16679898 2.206515 0.45262066 1.009932 1.4972757
2.2742507 -2.3349013 2.7957041 0.508386 -3.8514695 -4.5206885 1.0183678 0.97931
1.0311552 0.7864434 -1.0714849 -2.8677227 -2.8984342 -2.6340613 -3.5005581 -2.4790416
00000000: 24b8 6b3e c10b cfbd c84b c4bd da4a f23e
00000010: 2486 463f deb8 c03e 76f5 0e3f cbec 463f
00000020: a23e 43be c936 2d3f 0825 f33f 04b0 b03f
00000030: f201 ab3f 7c84 13c0 29f3 9ebf 4bcb 8dbe
00000040: 736a 8bbf 8fbf e3bf 5de6 56bf f188 8dbf
00000050: f3f4 e6bf a070 a2bf e5bf 16bf 5f4c 243f
00000060: 91d9 c8be 3906 41be ed3f 3c3e 61c6 613e
00000070: 09fd 52bf 20f6 60be 8293 c9be a6fb acbe
00000080: 2663 dcbf d40f 46c0 086a 0fbe c827 45bf
00000090: 7aff 9f3e 1e3d 253f f50e 343e aabc bbbe
000000a0: ee6a 6c3f eb92 d23e c3b3 863f 778d bf3f
000000b0: 220a ba3f 1318 1840 18ac b83f 1c86 d33f
000000c0: cbee 943f fe91 323f a0ad 2e3f ffe6 a33e
000000d0: 805c 003f 4db7 f63d 9774 1c3f c613 343e
000000e0: c280 58bf 23ba 61bf 5369 3ebe aa41 9ebd
000000f0: e29d 023f fba9 393f f09b 153f ee3b 0bbe
00000100: 4ea7 0e3e 9a5a 8d3e 53ed 61bf a6ad 823f
00000110: 23b8 c63f f8d6 703f cd2b 3e3f ec11 d7be
00000120: 227b ef3e db8f 893f 8bdc 9a3f faaa 5e3e
00000130: 295c 0d3e bfa5 2c3f 6909 72be 97bd 0dbd
00000140: 440e 9ebf 325f 86bf 6a08 46bf e84c 54bf
00000150: 7d85 fd3d 04dd 8bbe 8083 12be 49d8 8cbd
00000160: 9a41 77be d53a 32bf dc76 05bf 14a3 f5be
00000170: f77e 6ebe feac 7ebf de28 6abe b0e7 bfbd
00000180: 3d6d 0740 89d5 893e 91d1 9e3f 9ecd d13f
00000190: 12ea 92bc e0ac d13e 86be f23f f8a3 383f
000001a0: eeef 133e fefd 9b3e ea5f b83e e6c0 8fbf
000001b0: 573c 8bbf 4edd 30bf 19a8 32bc 1c77 363e
000001c0: 5c4a bfbe 7b97 72bf be04 18bf c93c 18be
000001d0: 5f7d c83d e284 1e3e c33c 45bd 16ab 793d
000001e0: ad57 41be 9c49 3abe 2e15 34bd 7a4a 3d3c
000001f0: 3082 2c3f 68a1 0abd 15c8 1abf c340 6dbe
00000200: ef95 76bd e25e bd3e c048 893d 6d25 8a3e
00000210: 68f1 db3e 0a05 883e b8c5 a43c a7ab f2bd
00000220: e8b4 14be dee7 ecbe b6e5 5ebf 1349 78bf
00000230: 09e5 f2be 0f0c b5be dc83 b5be 899a 3e3d
00000240: 49d4 b83e f668 2e3f 7710 7f3f 476c 4b3f
00000250: 1fc2 003f 9672 b03e 7d41 683e 1e80 ad3f
00000260: 03c2 7d3f c38a b83f ae70 32bd afdf 373e
00000270: 5ca6 b8bc c9f0 4dbf f050 79bf 0b65 84be
00000280: 377d 7dbe 392a 94be 5093 97bf 4051 41bf
00000290: 09d0 74bf 06be cfbe dcab f4be 457c c1be
000002a0: adf7 babf ae6f abbf b855 a4bf 8fe9 80bf
000002b0: f084 81bf ef3f 23bf 4ec1 c4be 7a9e adbe
000002c0: 4332 1abb 8016 53bd 9a12 0140 c909 4abf
000002d0: 2dbd 76bf cf5c 5d40 f08d 5140 68ec 7b40
000002e0: 0043 0140 fb08 c33e 51e5 993f d899 c0be
000002f0: 5a34 73bf bbd5 b2be 01f4 aebe cee9 93bf
00000300: f106 a8bf 5062 8fbf 2e80 72bf c681 b8bf
00000310: bc03 93be b8eb 60be fea3 c6bd 7c0a b2be
00000320: c33c 47be 9521 efbe 42fb c13c 64cb 30bf
00000330: c2be 11be c6b2 99bf 55ea e6be d307 89be
00000340: 0a20 27bf c8fb 04bf 4905 8ebd a7a3 b93e
00000350: b814 0c3e a542 593f f3c8 9d3e 69ff 8dbf
00000360: c7f7 8dbf 8964 0dc0 e758 07c0 4ae4 05bf
00000370: 3190 4abf 7d9a 92be 0b42 36bf 4843 1dbf
00000380: 99f2 4bc0 9e12 24c0 f1e7 acbf 1130 153f
00000390: 831e 56bf aba2 ebbf c863 76bf 74e9 dcbf
000003a0: b292 b2bf 08e9 3abf 7918 84bf 5acd 2a3e
000003b0: 8b37 0d40 e5bd e73e 7445 813f bba6 bf3f
000003c0: 538d 1140 066f 15c0 d1ec 3240 9625 023f
000003d0: 7a7e 76c0 7ba9 90c0 e059 823f 0fb4 7a3f
000003e0: e5fc 833f 5b54 493f 6b26 89bf c588 37c0
000003f0: f27f 39c0 7694 28c0 2509 60c0 9ea8 1ec0

weight_hh_l0 f4 [24, 8]
-0.8257661 -0.44463465 -1.302758 1.7996167 0.06710576 -0.6686409 -0.17746644 -0.362932
-1.8244674 1.9820276 -0.530923 -0.9088725 -2.441062 -0.19187382 0.9407755 -3.4549665
2.2313712 0.3817359 -0.2660545 0.5531776 -3.3261948 1.8854445 1.7944278 -5.4456997
-1.2138189 4.502524 -0.68372023 -2.4939752 -1.6311048 0.5117251 5.9614954 -1.9597538
-0.33859834 0.4243775 0.11146439 0.41629037 0.45665774 -0.26393807 0.03848495 0.48875892
-1.4103819 -0.22567502 -0.0037015942 -0.7743437 0.18546736 0.8864308 0.6602204 -0.8436208
0.9343671 1.5100807 -0.77416694 -3.4974902 -0.18192859 -0.8727621 -0.24751835 -1.7605045
-0.08762594 1.8635259 0.62020856 1.5496546 -0.85086614 -0.08114902 2.1461203 1.5150353
4.132217 2.6576333 1.6155703 -3.584807 0.7427119 1.5034909 -2.434072 -1.5643154
0.1962573 -3.4338372 0.075570725 -0.639923 -2.6684813 -0.14217621 -0.48287076 0.3119085
-0.2206209 -2.808162 -1.4660577 -0.62968844 1.3666524 0.74966687 -2.7578213 4.552788
-0.41350326 -11.39268 -10.943485 8.305799 -3.5066535 1.1313666 4.7522354 14.049002
0.19274938 -5.7656636 -0.8049216 0.85603386 -1.1525377 -0.39723352 -2.1746325 -9.592884
-1.092442 1.9334371 -1.1321477 0.22260141 0.7057592 -1.0155056 -4.411302 -2.1601622
-0.2291151 -1.560637 2.2181146 1.2317778 1.0520535 -0.2781792 2.569992 1.7648413
-0.37281844 7.0125422 1.2211257 -5.198506 12.037926 0.24596174 -6.7225266 3.7747395
0.863665 1.2899873 -0.45324892 2.2870712 -2.363149 3.6082742 3.4787357 -2.0980246
-11.380116 7.0441394 -8.46777 -4.2787447 15.156118 -0.92427075 -9.584582 21.512814
-0.738483 16.291508 3.5479228 -2.4892974 3.1160114 3.0583246 -4.9839826 -1.7968987
1.4038554 -11.045201 -16.832275 16.215525 10.590286 -1.1217748 -10.319125 9.328926
-0.94956267 -0.37543264 1.1074089 1.2728412 5.3211913 0.38346103 -6.0537763 3.9374173
-2.2501981 3.4718935 -4.5645413 2.108187 1.6610371 1.6346259 -0.75739753 0.7137119
-0.44986007 2.824562 2.652908 -12.374749 -1.8730843 -2.6382887 -4.1390133 -8.604176
-1.2176856 -2.9520686 -0.4748628 1.1112639 -1.3630086 -1.0268148 -8.5128145 2.6478515
00000000: 6865 53bf 27a7 e3be c6c0 a6bf d759 e63f
00000010: bf6e 893d 0d2c 2bbf c3b9 35be 39d2 b9be
00000020: 2688 e9bf 15b3 fd3f 92ea 07bf deab 68bf
00000030: 5c3a 1cc0 927a 44be aad6 703f 2c1e 5dc0
00000040: c9ce 0e40 e372 c33e 4c38 88be 0c9d 0d3f
00000050: 60e0 54c0 3f56 f13f cfaf e53f 2c43 aec0
00000060: 6b5e 9bbf ad14 9040 4a08 2fbf 4a9d 1fc0
00000070: 0bc8 d0bf 6b00 033f 92c4 be40 36d9 fabf
00000080: c35c adbe 0248 d93e 7147 e43d 0324 d53e
00000090: 0bcf e93e e422 87be 65a2 1d3d 9c3e fa3e
000000a0: 6587 b4bf 5a17 67be 7296 72bb 643b 46bf
000000b0: 28eb 3d3e 21ed 623f 3404 293f 88f7 57bf
000000c0: af32 6f3f 534a c13f ce2f 46bf e1d6 5fc0
000000d0: 7d4b 3abe 566d 5fbf 7375 7dbe 3658 e1bf
000000e0: 3b75 b3bd 0488 ee3f fdc5 1e3f 155b c63f
000000f0: 5dd2 59bf 7531 a6bd 095a 0940 adec c13f
00000100: 1f3b 8440 aa16 2a40 02cb ce3f 7a6d 65c0
00000110: 5e22 3e3f 6472 c03f d6c7 1bc0 7d3b c8bf
00000120: acf7 483e fdc3 5bc0 d3c4 9a3d fed1 23bf
00000130: 66c8 2ac0 a496 11be d63a f7be 79b2 9f3e
00000140: 72ea 61be edb8 33c0 c7a7 bbbf 4333 21bf
00000150: 77ee ae3f 2bea 3f3f 2580 30c0 70b0 9140
00000160: b3b6 d3be 6b48 36c1 8418 2fc1 8de4 0441
00000170: 036d 60c0 9fd0 903f 5012 9840 b6c8 6041
00000180: 1860 453e 5180 b8c0 580f 4ebf 0925 5b3f
00000190: 5b86 93bf 3162 cbbe 2e2d 0bc0 747c 19c1
000001a0: 24d5 8bbf de7a f73f 37ea 90bf a0f1 633e
000001b0: a3ac 343f 16fc 81bf 6329 8dc0 1940 0ac0
000001c0: 269d 6abe f4c2 c7bf 97f5 0d40 e5aa 9d3f
000001d0: b0a9 863f 816d 8ebe c07a 2440 52e6 e13f
000001e0: 0fe2 bebe bf66 e040 d94d 9c3f 295a a6c0
000001f0: 589b 4041 65dd 7b3e f01e d7c0 5595 7140
00000200: 2619 5d3f 4e1e a53f 3e10 e8be 605f 1240
00000210: d53d 17c0 f7ed 6640 9ba3 5e40 0946 06c0
00000220: f514 36c1 9769 e140 fc7b 07c1 7aeb 88c0
00000230: 767f 7241 029d 6cbf 735a 19c1 3e1a ac41
00000240: 390d 3dbf 0255 8241 2b11 6340 a650 1fc0
00000250: bb6c 4740 97bb 4340 c97c 9fc0 c700 e6bf
00000260: 89b1 b33f 25b9 30c1 80a8 86c1 65b9 8141
00000270: d071 2941 5196 8fbf 231b 25c1 4843 1541
00000280: 8a16 73bf b538 c0be 93bf 8d3f 76ec a23f
00000290: 3347 aa40 0155 c43e 89b8 c1c0 a5fe 7b40
000002a0: 3f03 10c0 8133 5e40 b910 92c0 89ec 0640
000002b0: dd9c d43f 6c3b d13f cee4 41bf d3b5 363f
000002c0: 0f54 e6be a0c5 3440 3fc9 2940 f9fe 45c1
000002d0: 3ac1 efbf b9d9 28c0 cc72 84c0 b4aa 09c1
000002e0: 1fdd 9bbf b1ee 3cc0 3821 f3be e53d 8e3f
000002f0: 1177 aebf ab6e 83bf 7d34 08c1 6676 2940

bias_ih_l0 f4 [24]
-0.18712495 1.3114365 1.8417011 -0.09662937 1.7474146 0.9601696 2.4344506 1.1054854
8.404153 7.1972027 1.9305416 -10.602811 1.1118 7.0303907 -0.3351085 -1.1309984
3.2354662 4.090067 2.2617252 -18.100418 -2.6373024 -3.7203457 1.7524124 -6.5322466
00000000: af9d 3fbe 27dd a73f ddbc eb3f 9ee5 c5bd
00000010: 48ab df3f adcd 753f 0ace 1b40 8c80 8d3f
00000020: 6977 0641 7c4f e640 fd1b f73f 1da5 29c1
00000030: 764f 8e3f f6f8 e040 5793 abbe 8ec4 90bf
00000040: e111 4f40 d4e1 8240 1bc0 1040 a8cd 90c1
00000050: 90c9 28c0 251a 6ec0 0d4f e03f 2a08 d1c0

bias_hh_l0 f4 [24]
-0.10294415 1.2777457 2.1513681 0.4697004 1.8589412 0.89092845 2.6449833 0.87156755
8.166038 7.4475307 1.8536552 -10.480266 1.0565598 6.9570103 -0.1973958 -1.0669972
-1.2664411 -4.546105 3.5646021 -18.1305 -3.0152075 -1.4222956 11.251542 -3.84422
00000000: 62d4 d2bd 2c8d a33f 04b0 0940 927c f03e
00000010: c9f1 ed3f e313 643f 6847 2940 0d1f 5f3f
00000020: 17a8 0241 2c52 ee40 9344 ed3f 2baf 27c1
00000030: 5a3d 873f d49f de40 2022 4abe 5d93 88bf
00000040: be1a a2bf b179 91c0 7122 6440 440b 91c1
00000050: 29f9 40c0 c80d b6bf 5106 3441 b307 76c0

weight f4 [10, 8]
4.277414 1.1943446 1.7060709 0.24540628 -0.48083428 7.6165123 0.37276465 2.1646173
-4.7999153 0.86709493 2.191936 0.6938055 -1.7035775 -8.991978 1.7726139 0.09458103
0.9062173 1.9257245 -2.053689 0.26233405 1.5848485 0.84285516 -1.8202586 -0.46323842
0.25247476 -0.058652706 -2.2496097 0.32612684 -0.11015309 1.6256679 -1.1128883 -0.55921984
-0.00020771097 -0.57951355 0.45346308 -0.27715692 -0.24667612 -0.89392334 -1.1767234 0.29643956
-0.48013547 -0.27428287 -1.6373303 -0.018068945 0.82744044 2.3834553 -1.6045126 -0.6890888
0.44247037 2.9960184 1.106833 -0.44375518 2.1806123 -3.1199045 1.1003649 0.9900524
-0.06930069 -2.40051 -1.4625971 -0.10272173 0.99591184 -1.277268 2.3131814 -1.9055327
0.5913933 -0.5400977 1.4466653 0.5201553 -0.95946854 3.6984048 -0.21996318 1.1928853
-0.13474345 -2.680569 -0.3126482 -0.6709245 -1.9082086 -1.1374896 1.062566 -0.8516262
00000000: 93e0 8840 49e0 983f 8860 da3f c94b 7b3e
00000010: e92f f6be 78ba f340 02db be3e 1789 0a40
00000020: e898 99c0 eff9 5d3f ae48 0c40 3d9d 313f
00000030: d40e dabf 24df 0fc1 03e5 e23f b3b3 c13d
00000040: dbfd 673f 247e f63f a46f 03c0 a650 863e
00000050: 51dc ca3f 5bc5 573f 3cfe e8bf 962d edbe
00000060: 5f44 813e d23d 70bd 9bf9 0fc0 19fa a63e
00000070: f197 e1bd e315 d03f 2073 8ebf 0829 0fbf
00000080: fdcc 59b9 005b 14bf 502c e83e 83e7 8dbe
00000090: aa98 7cbe 29d8 64bf df9e 96bf edc6 973e
000000a0: 51d4 f5be ce6e 8cbe 0a94 d1bf 5305 94bc
000000b0: 23d3 533f 888a 1840 ab60 cdbf 2068 30bf
000000c0: 7a8b e23e c4be 3f40 b4ac 8d3f e133 e3be
000000d0: 278f 0b40 84ac 47c0 c2d8 8c3f 1374 7d3f
000000e0: 85ed 8dbd f5a1 19c0 6236 bbbf c55f d2bd
000000f0: 14f4 7e3f 857d a3bf 2a0b 1440 7fe8 f3bf
00000100: 8d65 173f d843 0abf 542c b93f e628 053f
00000110: bb9f 75bf aab2 6c40 073e 61be 77b0 983f
00000120: 30fa 09be 718e 2bc0 6d13 a0be b5c1 2bbf
00000130: 2e40 f4bf 4299 91bf 2a02 883f 2d04 5abf

bias f4 [10]
-2.246934 -5.845533 0.06941447 1.2840357 0.34023786 2.850412 -2.6362164 5.052588
-0.46868256 1.0500747
00000000: c4cd 0fc0 9b0e bbc0 2c29 8e3d 485b a43f
00000010: a833 ae3e 266d 3640 c5b7 28c0 cdae a140
00000020: 29f7 efbe d968 863f
