model/new/8_lstm.model (torch_old, 16459 bytes, 6 tensors)

weight_ih_l0 f4 [32, 28]
000000 19 a1 34 be cb 89 e8 be 03 c1 a5 3f 65 db 43 3f
       -0.17639579 -0.45417628 1.2949528 0.76506644
000010 f0 45 52 3e dd fc 11 3e cc f9 ce be 2d 5b 9d bf
       0.20534492 0.14256616 -0.40424955 -1.229345
000020 82 b3 5e bf 32 33 77 3f f1 1e c6 3f 4b 3c 95 bd
       -0.8699266 0.9656249 1.5478193 -0.072868906
000030 2d 0c a9 3f 73 62 fa 3f 07 68 a5 3d a8 fd 6c bf
       1.3206841 1.9561294 0.08076482 -0.9257455
000040 8f 4c d0 3f ad fe 35 40 8d 86 82 3f 9b 8c 3c 40
       1.6273364 2.8436692 1.0197312 2.9460819
000050 75 f9 dd 40 45 ea ba 40 85 21 9c 3f 48 b3 98 3f
       6.9367013 5.8410974 1.2197729 1.1929712
000060 a8 aa 9d 3e cd d8 d6 bf 54 77 a9 bf f6 43 aa be
       0.30794263 -1.6784912 -1.3239541 -0.33254975
000070 3b 11 10 be 59 77 bd 3e 57 95 85 3d b5 41 61 bf
       -0.14069073 0.37005118 0.06522625 -0.87990886
000080 e8 38 80 bf f1 b5 1e bf 6f fb b1 bf a8 5b 3d bf
       -1.0017366 -0.6199637 -1.3904856 -0.7396798
000090 11 91 f0 bf 0d a8 ef bf e0 ab 2d 3f 56 92 a3 bf
       -1.8794271 -1.872316 0.67840385 -1.2779033
0000a0 d0 04 43 bf e2 60 3a c0 5f 39 92 c0 7b 15 19 3f
       -0.7617922 -2.9121633 -4.5695033 0.597984
0000b0 8b db d8 3f d0 d2 9d 3f 22 c5 aa 3e 1f 13 37 3f
       1.6941999 1.232996 0.33353525 0.7151355
0000c0 9a 43 86 3f 58 9d 8f 3f d4 c3 c6 3e 52 de a2 3f
       1.048938 1.1219893 0.3882128 1.2724097
0000d0 e9 af 70 bf 3c 18 6b c0 8f f3 53 bf 2f 18 73 3e
       -0.9401842 -3.6733541 -0.82793516 0.23739694
0000e0 04 94 97 bf 7c ef b4 bf 42 ed 59 bf f5 b3 08 bf
       -1.1842046 -1.4135585 -0.8512765 -0.5339959
0000f0 24 63 8e bf 1e 1f a8 bf 82 ba bf bf 01 15 91 be
       -1.1124005 -1.3134496 -1.4978793 -0.28336337
000100 da ed 8b 3f 8f b9 27 40 98 fc 81 40 d2 34 27 40
       1.0931962 2.6207006 4.062084 2.612599
000110 20 86 48 41 d5 93 a5 41 b9 d5 37 41 8c 12 0e 40
       12.532745 20.697184 11.489678 2.219882
000120 89 03 89 40 9e 29 42 40 71 01 1b 40 a0 c5 1c 40
       4.2816815 3.03379 2.421963 2.449562
000130 b0 17 62 3f 21 f6 6f be 2f 39 3a be 1d 7d 60 bf
       0.88317394 -0.23433734 -0.18185876 -0.8769091
000140 0e b2 d0 bf 79 da b8 bf 32 00 8c bf 08 b5 9c bf
       -1.6304338 -1.4441673 -1.093756 -1.2242746
000150 e8 50 8d 40 b6 67 7f 40 bf de 80 40 19 8e 8e 40
       4.4161263 3.990705 4.0271907 4.454846
000160 d3 4b 84 40 d4 bc ab 40 72 8d af 40 2a 01 be 40
       4.134256 5.3668003 5.4860163 5.937642
000170 16 08 c8 40 cc 76 76 40 2b 1d 43 40 a6 3c 91 40
       6.250987 3.8510008 3.0486553 4.5386534
000180 24 7a 84 40 ab 84 c2 be a9 f2 d5 c1 60 c0 a9 c1
       4.1399097 -0.37991843 -26.743486 -21.218933
000190 7a 68 dc 3f 4d 8a 6f 40 29 b5 70 40 5c d8 80 40
       1.7219384 3.7428162 3.7610571 4.026411
0001a0 49 a6 54 40 7b 3d 24 40 ae 5b fe 3f 99 d7 0e 40
       3.3226492 2.5662525 1.9871728 2.231909
0001b0 6f 94 46 40 f4 4c 7a 40 23 70 88 40 e1 d6 8f 40
       3.1028097 3.9109468 4.2636886 4.4949803
0001c0 6c bc 4a bf 5f 4e a1 bf ac 0e b4 bf 32 30 98 bf
       -0.7919376 -1.2602042 -1.4066978 -1.1889708
0001d0 a2 45 df bf 51 6d 3e bf d9 3c 65 be 94 f1 5c bd
       -1.7443125 -0.74385554 -0.22386493 -0.053941324
0001e0 73 07 87 bf f8 8d 71 bf 8e e0 c1 bf 50 94 19 c0
       -1.0549148 -0.9435725 -1.5146654 -2.3996773
0001f0 70 52 3f c0 a2 ed 09 c0 78 c3 9e 3e 46 76 5f 3f
       -2.9894066 -2.155129 0.31008506 0.87289846
000200 b9 fd 84 bf 23 28 53 3f 6f 1f 9d 3e 70 87 53 bf
       -1.038993 0.8248312 0.30688044 -0.82628536
000210 a9 33 06 c0 ad 96 54 c0 28 32 a7 c0 1e 93 c7 c0
       -2.096903 -3.3216965 -5.2248726 -6.2367086
000220 2c ff 80 c0 e6 2d 10 c0 86 de e8 bf ac f4 c7 bf
       -4.031149 -2.2528014 -1.8192909 -1.5621543
000230 2a 2d 58 3f 32 a5 7e 3f 8b 05 6d 3f 01 23 d0 3e
       0.84443915 0.9947082 0.9258658 0.40651706
000240 7d b7 e8 bd ad 7f 80 bf 72 df 00 c0 11 49 40 c0
       -0.113631226 -1.0038964 -2.013638 -3.0044596
000250 0a a1 b9 bf e4 26 24 c0 7b b1 97 bf 83 92 f9 c0
       -1.450227 -2.5648737 -1.1851038 -7.7991347
000260 01 7d 7e c1 82 4b c8 bf 29 d9 f9 be 53 5c 26 bf
       -15.905519 -1.5648043 -0.48798493 -0.64984626
000270 dc dc d8 bf 5b 4d b3 bf 56 02 8a bf e1 58 08 c0
       -1.6942401 -1.4007982 -1.0781963 -2.1304247
000280 23 cc b3 bf 84 e0 b4 be 5a 9d 95 3e 12 84 7a bf
       -1.4046673 -0.35327542 0.29221612 -0.97857773
000290 1d f5 20 c0 ac b8 f7 bd 23 3c 84 3f 86 b9 65 3f
       -2.5149605 -0.1209577 1.0330852 0.8973621
0002a0 49 19 2d bd ac ca be 3d 49 af 9a 3e e6 e7 27 bf
       -0.042260442 0.09316 0.30211857 -0.65588224
0002b0 42 a7 dc bc f7 91 53 bf 89 ec 8b bf 8d 9a db bd
       -0.026935223 -0.826446 -1.093156 -0.107228376
0002c0 4a 87 8a be a3 b0 f7 be c0 c1 11 bf ef bd f1 3e
       -0.27056342 -0.4837695 -0.56936264 0.4721522
0002d0 cc 1f 0d 40 78 ac 78 3f 53 d1 27 c0 23 ee 8b c0
       2.2050657 0.97138166 -2.6221511 -4.3728194
0002e0 fb 98 9f 3f 07 24 f0 3f b1 36 98 3f f8 d6 c8 3f
       1.2468561 1.8760995 1.189169 1.5690603
0002f0 a1 3c 4c 3f 89 4f e0 3f 05 a1 c5 3f 40 61 d0 3f
       0.7978001 1.7524272 1.5439764 1.6279678
000300 53 ef 82 3e 9e d9 e0 bf 6a cc 43 3e de e7 e1 3a
       0.25573215 -1.7566411 0.19120947 0.001723524
000310 19 50 54 bf 2b dd 3c bf 26 73 23 bf 77 43 14 bf
       -0.8293472 -0.73774976 -0.6384758 -0.57915443
000320 54 48 8b bf 0f f2 0e c0 4e f3 2d c0 07 e1 0d c0
       -1.0881448 -2.233524 -2.7179751 -2.2168596
000330 ce 58 52 c0 96 a9 ff bf 5f 91 da bf 07 bd d5 bf
       -3.2866702 -1.9973629 -1.7075614 -1.6698312
000340 a4 fa a7 bf 31 43 1d c0 8b 33 91 3f 54 26 b6 40
       -1.3123364 -2.457226 1.1343855 5.6921787
000350 b9 c9 7d 40 98 81 90 40 f2 47 6f 40 cd eb 8e 40
       3.9654372 4.5158195 3.7387662 4.4662843
000360 c3 ba 9d 40 13 8d 62 40 24 ab 9e 40 07 da a9 40
       4.929048 3.5398605 4.958391 5.3078647
000370 7b b9 2b 40 91 6d b5 be 68 87 be bf 01 17 a2 bf
       2.6831958 -0.35435155 -1.4885073 -1.266327
000380 3c 58 3b bf d7 27 29 bf 95 47 1d bf cb f1 8d be
       -0.7318151 -0.66076416 -0.6143735 -0.27723536
000390 56 49 09 3f c1 bf 0a 3f 15 98 38 3f 57 e7 01 3f
       0.53627527 0.54198843 0.7210706 0.5074362
0003a0 3c 00 56 3f a3 2c 5d be 35 bc c8 3e 22 bb ee 3e
       0.8359411 -0.21599059 0.3920609 0.46627146
0003b0 5b 35 bd bf b9 5d f3 3e b6 3e 04 bf 55 e3 88 be
       -1.4781908 0.47532442 -0.5165819 -0.2673594
0003c0 9a 5b d2 3d fc 4c 12 3f c5 0d b5 3e 5d d8 dd bd
       0.10271378 0.5714872 0.35362068 -0.10832284
0003d0 68 41 bd 3e 9d 42 31 bd f3 7a c8 be 26 3a 9c bd
       0.36963964 -0.043276418 -0.39156303 -0.076282784
0003e0 4a 0b 60 3f 38 9f be be 12 a7 10 bf ce 54 8c bf
       0.87517226 -0.3723085 -0.5650493 -1.096338
0003f0 6f d3 f5 bf 05 12 c2 bf c7 65 03 bf 93 b0 58 3f
       -1.920515 -1.5161749 -0.51327175 0.8464443

weight_hh_l0 f4 [32, 8]
000000 11 70 55 bd 7e 25 85 3e 7e 25 fb 3d 8c a7 38 40
       -0.052108828 0.26005167 0.122630104 2.8852262
000010 81 b8 29 c0 0c 67 b6 40 5e 25 2b c1 c5 6a 2f c0
       -2.6518862 5.700079 -10.696623 -2.7408917
000020 8d 40 c3 be e2 f0 0a 41 27 26 81 c0 94 9f 0e bf
       -0.38135186 8.683809 -4.0359073 -0.55712247
000030 89 cc 45 c1 de 77 c3 3f 86 11 a1 3e 38 cc a6 c1
       -12.362435 1.5270956 0.31458682 -20.849716
000040 94 59 cf 3e 34 5c 10 40 18 4f 53 3f 35 64 30 c0
       0.4049803 2.2556276 0.8254256 -2.7561162
000050 ca 58 b8 40 97 ee ae c0 41 1a 69 c0 bc f1 8a 40
       5.7608385 -5.4666247 -3.6422274 4.3420086
000060 1d 12 24 bf 37 f9 89 40 92 b8 c9 40 d2 cd 2c 41
       -0.6409014 4.3116717 6.3037806 10.800249
000070 f6 68 bf bf 41 24 ed 3f ef 86 95 3e 77 89 07 c0
       -1.4953907 1.8526689 0.2920451 -2.1177652
000080 6c 10 32 3e d1 15 b6 3f 51 b2 91 3f 4d 48 d1 c0
       0.17389077 1.4225408 1.1382543 -6.540076
000090 3a ad 69 c0 d7 d8 73 be 5f 53 c3 40 69 1d 37 c0
       -3.651198 -0.23813187 6.103927 -2.86117
0000a0 12 8c 17 c0 a0 e1 92 40 8b 11 6a bf 70 db 8e 3f
       -2.3679242 4.590042 -0.9143302 1.1160717
0000b0 9f 4e 98 3f 13 a4 56 40 d3 45 09 41 30 dd 32 40
       1.1898993 3.3537643 8.579547 2.7947502
0000c0 64 41 e8 bf 9a da 0e bf 71 14 8e 40 26 7d f6 bf
       -1.8144956 -0.5580231 4.4399953 -1.9256942
0000d0 1d a6 01 bf ee 20 a6 c0 76 85 53 c0 70 61 01 39
       -0.50644094 -5.1915197 -3.3050208 0.00012338697
0000e0 45 e3 a4 3e 8f a2 16 c1 25 5a e7 c0 df 91 10 bf
       0.32204643 -9.414687 -7.229754 -0.5647258
0000f0 26 00 85 3f b4 99 0c 41 50 50 a6 3f 32 f7 58 40
       1.039067 8.787525 1.299326 3.3900876
000100 aa cf 72 40 20 64 36 be 33 b1 9a c0 a4 78 24 3f
       3.7939248 -0.17811632 -4.834131 0.64246583
000110 d2 7e 1d c0 dc 6e 2b 40 07 9b 7a bf 2a 70 3d 3e
       -2.4608655 2.6786413 -0.978928 0.18499818
000120 3b e8 96 3f d4 81 26 bf b6 2c c7 bf 12 d2 9e bf
       1.1789621 -0.6504185 -1.556052 -1.2407858
000130 8e 30 ae 40 1a 8e 37 c0 ba 93 ab 40 fe 32 8a 40
       5.443427 -2.8680482 5.361783 4.3187246
000140 b5 b3 83 3e d7 58 71 3f 0a db 5b 40 52 9c 34 3f
       0.25723043 0.94276184 3.435244 0.70551026
000150 70 08 0e c0 11 d0 dd 3d d7 35 28 c0 6a bb e1 40
       -2.219265 0.10830701 -2.6282861 7.0541277
000160 d4 2b 2a be 0b 4a 08 c0 06 25 a3 3e 8b 22 f2 3f
       -0.16618282 -2.1295192 0.31864184 1.8916792
000170 04 c2 93 bf 37 96 b9 be 61 06 6c 3f 13 5d ac 3d
       -1.1543584 -0.36247417 0.92197233 0.0841619
000180 1d 95 0c 40 b4 5f a8 bd 53 3e a2 c0 94 2b 69 bf
       2.1966012 -0.08221379 -5.070108 -0.9108212
000190 fe 0d cd 40 6f 4f 7f c0 e9 64 97 c0 5b f8 38 bf
       6.407958 -3.9892232 -4.731068 -0.7225396
0001a0 00 54 75 be 11 88 70 c1 c3 ce 80 41 41 38 ac 3d
       -0.23957825 -15.033219 16.100958 0.08409167
0001b0 3e e1 9d bf cc 82 59 c1 0f 12 27 c1 a6 14 ec 40
       -1.2334363 -13.594433 -10.441909 7.3775206
0001c0 b8 b5 91 bf 0e 39 7c bf 37 05 cf 3f e0 61 d1 3d
       -1.1383581 -0.9852456 1.6173466 0.10223746
0001d0 fb b9 86 c0 ae 9c 0d c0 75 f5 b5 c0 ba c3 ef 3f
       -4.2102027 -2.212688 -5.686213 1.8731606
0001e0 58 06 28 be 47 2f 0c 40 cc 1f 66 c0 55 f8 b1 3f
       -0.1640867 2.1903856 -3.5956907 1.390391
0001f0 aa 43 be 3f 5e 0c 1e c0 b8 79 49 40 f8 cf 38 c1
       1.48644 -2.4695048 3.1480541 -11.550774
000200 2e 9a 98 c0 7e 90 f1 c0 2c c7 74 c0 47 46 cd c0
       -4.768821 -7.548888 -3.8246565 -6.414829
000210 02 9c ce 3d b5 37 1b c1 2c 42 3f c0 49 e9 53 c0
       0.1008835 -9.7011 -2.9884138 -3.3111136
000220 eb c0 30 c0 2b ef ab 3f 35 af b2 3d bf 03 47 40
       -2.7617748 1.3432363 0.08724824 3.1096036
000230 35 29 2a 3f ed 57 a8 c0 ba 8c 70 c0 c6 77 a2 bf
       0.66469127 -5.260733 -3.7585893 -1.2692802
000240 55 17 49 be 9b 39 6c 40 ee 28 53 c0 ba 40 42 bf
       -0.19637807 3.691016 -3.2993731 -0.75880015
000250 b7 e4 14 bf 55 fc 56 40 e2 52 b3 40 fe ca 0a c0
       -0.5816149 3.3591511 5.6038675 -2.1686397
000260 27 82 1c bf 92 54 97 40 55 09 36 c1 aa b8 57 41
       -0.61136097 4.7290735 -11.377278 13.482584
000270 dd 60 aa 3e 9e e5 09 41 ed 79 6e 40 ad f1 8e c0
       0.33277026 8.618559 3.7261918 -4.4670014
000280 4f 85 0b 40 30 0a af be 2d 74 80 3f 7c 91 4b bf
       2.1800115 -0.3418746 1.0035454 -0.79518867
000290 e9 9e c3 40 63 e3 8c c0 60 a2 39 bf a6 1c 51 c0
       6.113148 -4.402757 -0.7251339 -3.2673736
0002a0 fd ff 00 40 8a b9 0c 3e 47 db e1 bf cc 81 e4 bd
       2.0156243 0.13742653 -1.7645043 -0.11157569
0002b0 dc b0 3e 40 fb 4b 11 c0 55 34 46 40 5d f6 b4 3e
       2.9795446 -2.2702625 3.096944 0.3534421
0002c0 8f 17 23 3c fa c2 1f 3f f4 32 cf c0 33 19 77 be
       0.009954347 0.62406886 -6.47497 -0.24130706
0002d0 66 67 00 40 74 53 df 3e 87 4b fd be 43 bd 0a 40
       2.006311 0.43618357 -0.49471685 2.1678016
0002e0 a0 12 71 bf 21 c4 21 40 6c 36 80 3f f1 ab fa bf
       -0.94169044 2.5275958 1.0016608 -1.9583722
0002f0 4a d4 5b 40 73 bb 00 40 81 71 3d c0 6b 1a 6c 40
       3.434832 2.011441 -2.9600527 3.6891124
000300 fc c9 dc 3f ea a5 89 3f a6 4a 8e 40 9f 09 ec bf
       1.7249141 1.0753758 4.4466124 -1.8440436
000310 a3 73 a8 bf 08 7a e7 c0 3f 3a 1f c0 ba f4 96 3f
       -1.316029 -7.2336464 -2.48793 1.1793435
000320 4e 5a 85 be e1 97 16 c0 25 d3 1c 3f 4f 6e 94 c0
       -0.2604546 -2.35302 0.6125968 -4.6384654
000330 2f d7 a8 bf bf 68 0a c0 1e 2c 10 c0 7d 41 05 41
       -1.3190669 -2.1626432 -2.2526927 8.328488
000340 4c da 35 bf 6c 4d d7 3f 12 55 ac 3f 42 6d 69 3f
       -0.7103622 1.6820502 1.3463461 0.9118234
000350 96 25 1b 40 29 bf ff 3f ce 3f 31 3e f9 90 1b bf
       2.424169 1.9980212 0.17309496 -0.60768086
000360 09 d9 9d 3e 1c 1c 77 3e 3d 38 05 40 82 d8 a7 3d
       0.30829647 0.24131817 2.0815575 0.081955925
000370 7b c5 d0 c0 ce 34 7d 40 bf 68 c5 3e 62 c6 8c bf
       -6.5241065 3.956348 0.38556477 -1.0998042
000380 ee c9 1d be 50 a7 28 40 20 05 de be b6 a0 66 c0
       -0.15409061 2.635212 -0.43363285 -3.603559
000390 d6 00 78 40 d8 2f 4a c0 fb 28 8d 40 95 1a f8 40
       3.875051 -3.1591702 4.4112525 7.753245
0003a0 ac 50 f4 3e 1e 4d 46 c0 cb 09 ed 40 c0 c2 1d c0
       0.47717798 -3.0984569 7.4074454 -2.4650116
0003b0 94 fa 70 bf d0 65 9c 3e a1 8b 61 bf af 41 34 41
       -0.9413235 0.30546427 -0.8810368 11.266036
0003c0 12 84 fd be c0 75 0d 3f 4f dc c7 40 26 cb 46 3f
       -0.49514824 0.552578 6.245643 0.7765373
0003d0 d3 c3 ec c0 f1 44 fa bc fc 67 d6 c0 8b 0d 4b 3f
       -7.3989043 -0.030550452 -6.7001934 0.7931754
0003e0 fa 5c 64 3f 7d 4d ff c0 58 82 21 41 64 fb 18 40
       0.8920437 -7.978209 10.094322 2.3903437
0003f0 af 51 99 c0 a1 23 db c0 2d 06 3a c1 f4 3f 02 3e
       -4.791221 -6.848099 -11.626508 0.12719709

bias_ih_l0 f4 [32]
000000 8f ef 19 3f 88 85 23 bf b1 c7 30 40 dd af 21 c1
       0.6013116 -0.6387563 2.7621882 -10.105435
000010 1b c5 3f 40 0d 47 1f c0 86 31 44 bf 13 cc 10 40
       2.9964054 -2.4887116 -0.76638067 2.2624557
000020 e5 26 eb 3f 08 59 98 40 14 fe cc bf 0a a3 20 3f
       1.8371245 4.760868 -1.6015038 0.6274878
000030 ef f5 ea 3f a7 4a a5 41 9e 09 e8 3f 0c 51 8d c0
       1.8356303 20.661451 1.8127935 -4.4161434
000040 6d 06 50 3e 24 a3 12 3f 76 cf fd c0 14 a3 bf c1
       0.20314951 0.5728018 -7.931575 -23.954628
000050 12 ab 57 40 a3 b0 1f c0 b7 99 8e c0 bc 7f c7 bf
       3.3698163 -2.495156 -4.456264 -1.5585856
000060 65 47 45 be 77 a8 86 40 da 54 88 40 78 e1 95 3f
       -0.19265516 4.2080646 4.260358 1.1709433
000070 dd b0 5e 40 8c 11 ef 40 18 bd 28 40 7c 28 1c 41
       3.4795449 7.470892 2.6365414 9.759884

bias_hh_l0 f4 [32]
000000 00 3e 64 3f 85 be 89 be dc 02 39 40 93 f1 1b c1
       0.89157104 -0.26903167 2.8907995 -9.746478
000010 f5 f9 38 40 67 e6 13 c0 c3 d0 87 be 16 e5 24 40
       2.8902562 -2.3109376 -0.2652646 2.5764823
000020 2d 58 07 40 6c 77 8d 40 f5 df f0 bf bb a9 8d 3f
       2.1147568 4.420828 -1.8818346 1.1067423
000030 e9 39 0c 40 7a 81 a1 41 85 53 ff 3f 98 e3 8b c0
       2.1910346 20.188221 1.9947363 -4.3715324
000040 d1 d9 1f 3f fc b0 9c 3f 64 55 f8 c0 23 1f bd c1
       0.62441736 1.2241511 -7.7604237 -23.640203
000050 a6 a4 50 40 df f4 2d c0 4d e1 92 c0 d0 14 ab bf
       3.2600493 -2.7180707 -4.5900025 -1.3365726
000060 ed 79 15 bf 7e 87 64 40 a9 aa 91 40 51 34 c1 3f
       -0.5838917 3.5707698 4.5520825 1.5094091
000070 19 80 62 40 07 e6 e4 40 02 87 2c 40 aa 14 1d 41
       3.5390685 7.1530795 2.6957402 9.817545

weight f4 [10, 8]
000000 55 f0 9e 40 dd a6 82 40 fb 3c 41 40 bb 63 82 bf
       4.9668374 4.082869 3.019347 -1.0186685
000010 87 5e e3 c0 8c 66 86 bf 76 55 94 c0 74 1c 0a c0
       -7.105289 -1.0500045 -4.6354322 -2.1579866
000020 82 0c 4c c0 16 d4 e1 c0 e9 5b d1 3f 22 5e 20 40
       -3.1882634 -7.0571394 1.6356174 2.5057454
000030 3c de 96 c0 02 90 08 c0 0a b4 7f 40 92 96 0c c1
       -4.714628 -2.1337895 3.9953637 -8.78676
000040 a4 f4 fc 3f d3 06 47 bf 75 ab 4d 40 71 62 04 c0
       1.9762158 -0.7774479 3.21359 -2.0685084
000050 2d 1f 13 40 b5 85 3d 3f fc 0b 24 c0 62 2f 46 3f
       2.2987778 0.74032146 -2.5632315 0.7741605
000060 5f 09 99 3f bb 0e c9 be f2 df 17 40 f2 e3 8a c0
       1.1955985 -0.3926905 2.3730435 -4.3403254
000070 df d6 cf c0 61 6e 5a c0 32 d1 cd bf 98 cf 8f 40
       -6.4949794 -3.412987 -1.6079466 4.494091
000080 7f 95 3e 40 e0 c5 84 3f 95 1f ed 3f af ba 4c 40
       2.9778745 1.0372887 1.8525263 3.1988943
000090 5b ed 17 40 4c cf 23 40 00 9d 83 40 bd 7a 2f 3f
       2.373862 2.5595274 4.112915 0.6854666
0000a0 4f 01 81 bf c3 4e 00 bf 74 9d ad 3f 48 e2 ac bf
       -1.0078524 -0.5012018 1.3563676 -1.3506556
0000b0 bb b7 5c c0 c8 f2 50 bf 7d 48 cf bf 69 d4 05 40
       -3.448714 -0.81620455 -1.6193997 2.0910895
0000c0 68 6b 1a c0 bd c1 85 3f 93 8e 33 c0 cf ef 86 40
       -2.4128056 1.0449749 -2.805577 4.2167735
0000d0 3d 88 2d 40 da e8 e1 be 0f 43 e9 c0 b4 f4 38 c0
       2.7114403 -0.44122964 -7.289436 -2.8899355
0000e0 46 47 8c be d0 4f ff bf bd 8e d5 c0 a3 0e 99 be
       -0.27398127 -1.9946232 -6.673674 -0.2989398
0000f0 fd ba 45 41 c1 db 82 40 f8 b8 d8 40 fe 37 2f 40
       12.358151 4.0893254 6.772579 2.7377925
000100 1a f5 08 c0 16 83 18 40 bd 20 2d 40 e7 a0 a1 be
       -2.1399598 2.3830009 2.7051232 -0.3156807
000110 f9 51 11 c1 a2 2f 4d c0 5c a9 06 c0 80 d0 e0 3f
       -9.082513 -3.2060323 -2.1040869 1.7563629
000120 aa 9b 83 bf 71 97 b7 3f e8 02 a7 c0 bc 42 71 bf
       -1.028188 1.4343091 -5.219105 -0.94242454
000130 82 e5 30 41 76 41 18 40 77 3a b8 40 c0 4a fe 3f
       11.056032 2.3789954 5.757137 1.9866562

bias f4 [10]
000000 3b 96 36 bf ee e9 25 40 5d c7 c4 bf 69 22 0b 40
       -0.71322984 2.592403 -1.5373341 2.1739752
000010 23 a5 34 40 bb 5a 79 40 04 10 bc c0 0a 78 9c c0
       2.8225791 3.8961627 -5.876955 -4.889653
000020 98 ff b8 40 97 98 80 c0
       5.7812004 -4.0186267
