model/new/8_lstm.model (torch_old, 16459 bytes, 6 tensors)

weight_ih_l0 f4 [32, 28]
00000000: 33e7 a53f 0f7b 893f a4dd b43f 2a85 d83d
00000010: 46fa 01bd 456a 423e 6a88 323e 45ae 3a3e
00000020: e16e f83c d13e 903d f7a4 f83d 1fec bd3d
00000030: b4e1 64bb c4b9 80bd acc8 7fbe a1ea ac3d
00000040: 9a76 cd3c fbe1 113e 2a91 5abd 3c85 b0ba
00000050: 5e9f 59bb 77c8 503d bab2 23bd e38c 2ebe
00000060: e32b d2bd a187 61be 5206 c8be 5581 9a3f
00000070: e10d 48be f09d 963e 4866 03bd 819c 87bf
00000080: 1a30 0cbf 6913 04bf e9d5 3fbe b788 f6be
00000090: 661e 7abe 2f9e b5be 0d42 c0be 6427 1fbe
000000a0: 0f3d 64bf 67fe 3fbf 6ac7 61bf b4f7 073e
000000b0: 0f53 4f3f 8559 003f 3600 403e 5416 a43e
000000c0: 7fae 65bd 6da2 873e 08f7 063e b93e 4abf
000000d0: 1fcf aebe ea77 8fbf b985 5fbf 369b 8b3e
000000e0: d341 843a fbd5 83be d932 1b3f b8f7 4abb
000000f0: 888c 323f f796 f6be 44ca 6bbf f02a 5abf
00000100: 894b 54bf 1f95 0dbf 03ef e6be f9b1 b63d
00000110: 6580 46bf 464c 3dbf 4a97 6840 906c 0140
00000120: b072 c53d cba6 0b3f 805a a63e 068d d63e
00000130: ca1b 5dbd e8ee 27bf 0d25 c43e 3859 523e
00000140: 8085 efbe c1c2 53bf c3d8 6fbd b761 48bd
00000150: 475f bebe 5751 50bf b902 34bf e50a 003e
00000160: 45ee d6bd a8f2 963e 6f99 ba3f 3d30 2c3f
00000170: 6539 913f 2b9b 813f 01eb debd dbc3 cbbe
00000180: 01b6 0dbf 51fe a43f 69ab 3b3f f22a 093e
00000190: f26a 0240 003e 7140 daf8 6e40 6746 3d40
000001a0: f401 3a40 397e 3340 751d a63f 2b94 3fbf
000001b0: cfb5 9ebf aa36 6dbf 4018 02bf 7e1d a9be
000001c0: 3753 fd3f 78a1 b13f c5ed e63f 2650 f13f
000001d0: cd5d e8bf bc8f 0ac0 5fa1 fabf c0dd 15c0
000001e0: b39a 40c0 8706 61c0 c801 63c0 eda4 73c0
000001f0: 0c67 09c0 3a3f 70bf aaa0 e9be 98dc fbbe
00000200: 9bf9 243e f879 d33b bd77 283d 98dc ba3e
00000210: 864f 6fbd 510d 873e 7a88 283e ec4b e8bd
00000220: a89b 833c 6c7a 3ebd 01ca d13e 5335 423f
00000230: 7094 8abf fc43 6fbf 6129 87bf 2532 86bf
00000240: 2578 5dbe 125a 553e c415 59be 6eb7 a0bd
00000250: a424 e1bd d3d4 da3d 38e1 e7bd 4cec d6be
00000260: 5b09 a5be 2566 1dbf cb56 c5bf c478 16c0
00000270: 3139 cdbf 42a6 29bf d27a 25bf 45fd f0be
00000280: 5ab3 933f 98dd ee3f 6469 ba40 2107 9140
00000290: ade7 b63f 8f37 343e e105 6cbf 3770 79bf
000002a0: bcc1 753e 6690 c63e 41e9 b03e 7a06 14bf
000002b0: 9ec1 f0be a940 e23e a67f ea3e 0962 ee3e
000002c0: 1976 90bc 0256 3bbc 8ca3 093f d4d7 623e
000002d0: 003d 853f 20bc 943f c4dd 7d3f 3ab1 c1be
000002e0: ff26 8abe 4f6f e3be 794f 16be 37bd e8be
000002f0: fe4c babd b05e e8be c261 0cbf b439 0cbe
00000300: 2e8e f03c 6b6b 58bf d68b b6be 6f28 c73e
00000310: 7537 e7bf bc98 dcbf eab4 aabf a89e 723e
00000320: 4d4b 6f3f ad3c e23f 00f3 c43f c1b7 5c3d
00000330: 1c42 d23f be06 8a3f 2421 e53f f9b9 3240
00000340: 1b18 83c0 63c7 0dc0 c985 3ac0 086d 13bf
00000350: 9d2c eb3e 7567 c63e f934 22bf 2e92 043f
00000360: e20a 913f 7bf2 0f3f 5bb5 953e 461f 75bf
00000370: 629c b8bf 611e 07c0 2608 0fc0 3f74 12c0
00000380: 5bd2 8dbf 8536 b8bf 445e 8ebf 6a8e 4cbf
00000390: a7a8 c0be 4d1e 01be d0df 27be 78e9 e4bd
000003a0: 1790 82be bafd 483f 3f36 b43f 4896 8f3f
000003b0: 4b89 853f b1be 903f 06fe 553f d731 4e3f
000003c0: 01c1 9c3f b495 893f 2486 8a3f 3762 7f3f
000003d0: 7a47 a53f 27c0 793f 8c5f 8c3f c14e ac3f
000003e0: 293f 613f 399a 42bf 6bc4 84bf 8daa b5bf
000003f0: c776 8bbf d063 4bbf fa32 3ebb a0aa 503d
1.2961181 1.074068 1.4130139 0.10572274 -0.03173282 0.18985851 0.1743485 0.18230541
0.030326309 0.07043231 0.121408395 0.09273552 -0.0034924569 -0.06285432 -0.24978894 0.084431894
0.025080968 0.14246361 -0.053361095 -0.0013467441 -0.0033206563 0.05097243 -0.03996537 -0.17045932
-0.10262277 -0.22024395 -0.39067322 1.2070719 -0.19536544 0.29417372 -0.032079965 -1.0594636
-0.547609 -0.5159212 -0.18733944 -0.4815118 -0.24425659 -0.35472247 -0.37550393 -0.1554237
-0.8915567 -0.7499756 -0.88194907 0.13278085 0.8098611 0.50136596 0.1875008 0.32048285
-0.056074616 0.2649111 0.13180172 -0.7900196 -0.34142396 -1.120847 -0.8731342 0.27266854
0.0010090418 -0.25749192 0.6062446 -0.0030970406 0.69745684 -0.48162052 -0.9210551 -0.8522177
-0.8292776 -0.55305666 -0.45104226 0.08920664 -0.77539665 -0.7394451 3.634234 2.0222511
0.096410155 0.5455138 0.3249092 0.41904467 -0.05398158 -0.65598917 0.38309518 0.20541847
-0.4678154 -0.82719046 -0.05855633 -0.048921313 -0.37182066 -0.81374115 -0.70316654 0.12504156
-0.10494665 0.29482007 1.4578074 0.67261106 1.134564 1.0125479 -0.10884667 -0.39797863
-0.5535584 1.2890111 0.73308426 0.13395289 2.0377774 3.7694092 3.7339387 2.957422
2.9063692 2.804579 1.297774 -0.7483546 -1.2399234 -0.92661536 -0.5081825 -0.33030313
1.979102 1.3877401 1.8041312 1.8852584 -1.8153626 -2.1650229 -1.9580497 -2.3416595
-3.009442 -3.5160234 -3.5469837 -3.8069413 -2.1469145 -0.93846476 -0.4563039 -0.49191737
0.16110842 0.006453749 0.041129816 0.36496425 -0.05842545 0.26377347 0.16458312 -0.11342606
0.016065434 -0.04650347 0.4097443 0.75862616 -1.082655 -0.9346311 -1.0559503 -1.0484053
-0.21627863 0.2083514 -0.21199709 -0.078474864 -0.10993317 0.10685124 -0.11322254 -0.41977155
-0.322337 -0.61483985 -1.5417112 -2.351121 -1.6033078 -0.66269314 -0.64640534 -0.4706823
1.1539109 1.8661375 5.825365 4.53212 1.4289452 0.17599319 -0.9219647 -0.9743685
0.23999685 0.38782042 0.3455296 -0.5782238 -0.47022718 0.44189957 0.45800513 0.4655917
-0.017634438 -0.01143408 0.5376518 0.22152644 1.0409241 1.1619911 0.9916651 -0.37830526
-0.26982877 -0.4442086 -0.14678754 -0.4545686 -0.09096716 -0.4538474 -0.54836667 -0.13693887
0.029364672 -0.84538907 -0.3565356 0.38898036 -1.8063799 -1.7234111 -1.333646 0.23693335
0.93474275 1.7674767 1.5386658 0.05388618 1.6426425 1.0783308 1.7900739 2.7926009
-4.0966926 -2.2152946 -2.9144156 -0.57588243 0.45932475 0.38750806 -0.6336208 0.5178555
1.1331446 0.5622937 0.29239926 -0.95750844 -1.4422724 -2.1112292 -2.2348723 -2.288345
-1.107982 -1.4391638 -1.1122518 -0.79904807 -0.37628672 -0.12609215 -0.16393971 -0.11177343
-0.25500557 0.78512156 1.4079055 1.1217737 1.0432523 1.1308194 0.83590734 0.805448
1.22464 1.0748811 1.0822186 0.9975924 1.2912438 0.97558826 1.0966659 1.3461534
0.87987 -0.76016575 -1.0372442 -1.4192673 -1.0895623 -0.79449177 -0.0029022084 0.05094397

weight_hh_l0 f4 [32, 8]
00000000: 1935 1140 61bf a7bf c47a 1bc0 c51c 32be
00000010: 033a afc0 6718 d340 d88e 9cc0 3e4f 3bbf
00000020: 9a85 c83e fce4 8f3d c747 6240 30fa 0740
00000030: 950f 25c1 ed04 d93c 9ad9 233f da09 39c1
00000040: 6b09 7abf ae55 a43f cdff 55bf 5598 49c0
00000050: d333 b03f 569a 7440 c898 3840 33e7 b340
00000060: ddf6 34bf dfb5 0740 2230 afbf 9454 5440
00000070: 4134 8dbe a733 09c0 44a0 fcbd c182 733e
00000080: 40bb fbbf 4aaa c83f c787 aec0 eedc 8fbf
00000090: 6f24 b0bd 2f11 8cbe 4f97 1240 dfe5 d5c0
000000a0: db78 26bf fb4f 5740 efe7 9dc0 4c65 cb3f
000000b0: a162 3740 8389 8840 fe72 8140 ab67 d1bf
000000c0: 7cc5 e23e 24dc 5dbe 73f8 9e40 ccae 56c0
000000d0: 62f6 5c40 5ce2 65c0 8de1 99be c847 dbbf
000000e0: 36fd 94be b294 36bf 1a93 9ec0 39bf 863d
000000f0: 21d8 0440 6180 4e40 fdc4 2940 9a97 16c1
00000100: d5f4 913e 83b0 48bf 1113 c33e 6523 55bf
00000110: 89f1 df3f 0b04 83be c9ff 573f c2d0 0740
00000120: 5f10 933e 41db 01bf 5d48 93bf 93b9 4440
00000130: 7cc4 cd3f 21e4 9dbd 5718 0e40 de8c 17bd
00000140: 2495 b33f 6d11 4e3f 1861 693f f730 513f
00000150: 24de 8b3f 6a9a 153f a2a7 e9bf 65e9 0041
00000160: f51a 353d 4033 22bf 9cc1 39be ee37 1640
00000170: 9b7b 293f f69d 35bf 5b68 7d3f d7a8 20c0
00000180: e188 4e3f 66eb 063f 3369 babf 9b78 6d3f
00000190: 3869 7d3f 1950 993f 9e5f 903f 67f6 55c0
000001a0: bc8f 43bf 1e54 1cbf 6435 2b40 e1cb d73e
000001b0: 14a6 3640 f8f0 d0bf 469f 5440 4e7e 283f
000001c0: f78f c6bf 9f05 cbbe 42e1 87bf af18 d8be
000001d0: 31c1 8d3f 6119 91c0 394e 53c0 d179 963f
000001e0: 6c5a e03d 0c05 213f a3eb ee40 3ac5 b53f
000001f0: bbfa d2be 1236 ddbe 520c 343f 6dc7 be3e
00000200: 4e03 6bc0 5290 e2bf 3a17 18bf 50a2 3740
00000210: 079b f23e 3b1e 2ac1 9080 fec0 1b7d 2c3f
00000220: 475b 21bf e6c1 18c0 d759 5d3e 038e 4040
00000230: 0c60 8f3e 0c0e 6fbd 4846 253e 8683 e93f
00000240: 14dc 38bf 2acf a2bf 3e9a efbf 63c2 f1be
00000250: efa9 f5bf 41db 703f a4b7 fa3f ccfa e4bf
00000260: 8120 b8bf f4d5 0d40 c1ea 9e3f 2d1c 9cc0
00000270: 43d6 f4bf 8de1 2f40 d17c 3240 99b4 a23f
00000280: 7011 75bb 8dfc d93e 0348 d9be 8642 bcbe
00000290: 2c4c ce3e 8935 82bb bbaa 3b3f 908e 94bf
000002a0: d889 aa3d 8d16 a4be 0474 d2be 7b03 42bf
000002b0: 2b2c e8bd 8c04 fbbd 8ded 9cbf 5c15 3540
000002c0: 9854 b5bd 79d5 8540 9b28 e7bf 6864 783f
000002d0: d682 d73e 9e30 9f3f 6d9b cbbf f430 103f
000002e0: 95a8 d9bd 9e66 083e fa99 0640 cf4d 8fc0
000002f0: 6ac8 4b3e 5c11 b33e f91e 20c0 b292 d6bf
00000300: dc37 2d3f 0179 1dc0 f83b 4abf cd8b 1dbf
00000310: 370a 983f 1e9f e9bd de79 163f ba20 b13e
00000320: ffc1 9e3d ed48 13c0 c574 c2bf 517f ccbe
00000330: 474d 9f3f d428 883e 5b7b 92be b9cb 7d3f
00000340: b174 3ebf 8c5b 3440 486f b33f 7be0 2dbe
00000350: 0f17 3940 0519 dfbf 29b0 30be e603 1d40
00000360: 47d9 8ebe e058 183f 23c0 0f40 6166 38c0
00000370: 3f15 bec0 b1ea f03e ce7c 6d3f 4374 0f3e
00000380: 6907 2ebe 85a7 1dbf 81d7 5b3d fa9a 28bf
00000390: 70f3 7c3e e2f9 01bf a13d 0bbe bf85 2840
000003a0: e440 473e 960a 853e ecda 553f 1ea9 e5bf
000003b0: 9816 6cc0 52ec 8ebf ef6c 3d40 e587 8a40
000003c0: e61d 3d3f 755f 843f 2ab8 aabf 168f ba3f
000003d0: e84e 8f3f 5303 0e40 44cb 57c0 d5ff 2240
000003e0: 9a3c 19bf 1cbe 25bf 1d00 67be e20e 0c40
000003f0: 2a2e 36c0 daa4 0bc0 ef28 20c0 21f2 2b40
2.2688658 -1.3105279 -2.429368 -0.17393787 -5.4758315 6.596729 -4.892437 -0.7316779
0.3916443 0.07026097 3.535631 2.1246452 -10.316304 0.026491607 0.6400391 -11.564905
-0.9767062 1.2838647 -0.83593446 -3.1499226 1.3765815 3.82192 2.884325 5.6219726
-0.70689183 2.1204755 -1.3686564 3.3176622 -0.2757893 -2.1437776 -0.12335256 0.23780347
-1.9666519 1.5676968 -5.4540744 -1.1239297 -0.08600699 -0.2735686 2.2904851 -6.6843104
-0.6502816 3.3642566 -4.934562 1.5890288 2.8653948 4.266786 4.045287 -1.6359762
0.44291294 -0.21666008 4.9678283 -3.3544188 3.452538 -3.5919409 -0.30054894 -1.7131281
-0.29099435 -0.7132064 -4.9554567 0.065794416 2.0756915 3.2265856 2.6526482 -9.412012
0.28507105 -0.78394336 0.38100484 -0.8325713 1.7495586 -0.25589022 0.8437467 2.1221166
0.28723428 -0.5072518 -1.1506459 3.0738266 1.6075587 -0.07709528 2.2202356 -0.036999576
1.4029889 0.8049534 0.9116378 0.8171534 1.0927167 0.5843874 -1.8254282 8.056981
0.04421516 -0.6335945 -0.18140262 2.3471637 0.6620423 -0.70944154 0.9898736 -2.5103052
0.8067761 0.5270294 -1.4563354 0.92762154 0.98988676 1.1977569 1.127918 -3.3431642
-0.76391196 -0.6106585 2.6751337 0.42147735 2.8538866 -1.6323538 3.3222213 0.65817726
-1.5512685 -0.39652726 -1.0615618 -0.42206332 1.1074582 -4.534348 -3.3016493 1.1755925
0.109547466 0.62898326 7.4662642 1.4200814 -0.41206917 -0.43205315 0.703313 0.37261525
-3.6720767 -1.7700293 -0.5941044 2.8692818 0.473839 -10.6323805 -7.9531937 0.67378396
-0.63029903 -2.3868346 0.21616302 3.0086677 0.28002965 -0.058363006 0.16140091 1.8243263
-0.7221081 -1.2719471 -1.8718946 -0.47218618 -1.9192485 0.94084555 1.9587293 -1.7889037
-1.438492 2.2161837 1.2415391 -4.8784394 -1.9127887 2.7481415 2.7888682 1.2711364
-0.0037394427 0.42575493 -0.42437753 -0.36769503 0.4029249 -0.003973667 0.7330739 -1.1606007
0.08327073 -0.32048455 -0.41104138 -0.7578656 -0.11336549 -0.122567266 -1.2259995 2.8294287
-0.088540256 4.1823087 -1.8059267 0.9702821 0.42092007 1.2436712 -1.5906807 0.56324697
-0.106278576 0.13320395 2.103148 -4.478248 0.1990067 0.34974182 -2.5018904 -1.6763518
0.6766336 -2.4605105 -0.78997755 -0.61541444 1.1878117 -0.11407302 0.58779705 0.3459528
0.077518456 -2.301326 -1.5191885 -0.39940885 1.2445458 0.2659365 -0.28609738 0.9913898
-0.74396807 2.8180876 1.4018335 -0.16980164 2.8920324 -1.742951 -0.172547 2.453363
-0.27900144 0.5951061 2.246102 -2.8812487 -5.9400935 0.47054055 0.9276856 0.14009194
-0.16995014 -0.6158374 0.053672317 -0.65861475 0.24702239 -0.50771916 -0.13597728 2.6331632
0.19458348 0.2598464 0.83537173 -1.7942235 -3.688879 -1.1165869 2.9597738 4.3290887
0.73873746 1.0341631 -1.3337452 1.4574916 1.1195955 2.218953 -3.3717813 2.5468647
-0.59858096 -0.6474321 -0.22558637 2.1884084 -2.8465676 -2.1819367 -2.5024984 2.6866534

bias_ih_l0 f4 [32]
00000000: 3ee8 43c0 4e6d 0cbf e54b 19bd a945 983f
00000010: 00d3 62c0 1249 0340 97c1 b7bf 5d05 9240
00000020: 1506 3140 9111 3440 f9da 1f3f f703 323f
00000030: 9f7c 3240 305a b63f 7d87 2fbd fa28 0240
00000040: c2cc 86bf 98b9 aa3f 6c86 52c0 3c6e 09c0
00000050: 2579 ab3e 41ab fc3f f59d 42bf ab8b 3ac0
00000060: 5b9a 553f 9e2c 81bd 52b2 213f 6845 8c3f
00000070: a48c 263f f5a1 76bf 249a 323f 5fa9 ca3f
-3.06105 -0.54854286 -0.037425894 1.1896259 -3.5441284 2.0513349 -1.4355954 4.5631547
2.7659962 2.8135722 0.624435 0.695373 2.7888563 1.4246273 -0.04285382 2.033751
-1.0531237 1.3337889 -3.2894545 -2.1473532 0.33490863 1.9739763 -0.76022273 -2.9147747
0.8343865 -0.06307338 0.6316272 1.0958681 0.6505835 -0.96340877 0.6976645 1.5832938

bias_hh_l0 f4 [32]
00000000: f254 31c0 771d 37be 9fbd ba3d d537 c63f
00000010: 339e 69c0 91a9 0e40 4c39 6fbf fc11 9c40
00000020: cdca 4240 fe4d 1e40 af2e b03e b859 963f
00000030: a63b 4940 998e 733f 686f 0e3e f503 0540
00000040: aac0 21bf 9318 fe3f 4a92 47c0 2d9d eabf
00000050: 708c 663e c622 e03f b5da 64bf 7056 2cc0
00000060: 91e4 e23e 5c4e 33bf c860 6c3f c797 b73f
00000070: a8c9 353f 1aff a3bf 9ac1 413f dd0a d23f
-2.7708097 -0.17882334 0.091181986 1.5485789 -3.6502807 2.2290995 -0.93446803 4.8771954
3.043628 2.4735103 0.34410617 1.174613 3.1442657 0.9513946 0.13909686 2.0783665
-0.6318461 1.985125 -3.1183038 -1.8329216 0.2251451 1.7510612 -0.8939622 -2.6927757
0.44315007 -0.7004144 0.92335176 1.4343194 0.7101083 -1.2812226 0.7568604 1.6409565

weight f4 [10, 8]
00000000: e249 ca40 c7db 933f 8290 5540 c1fd ba3e
00000010: 86c3 d0c0 d690 8fbf dc1e d0bf bb54 a3be
00000020: 0367 81bf 8a83 7fc0 2470 dabf e56e 1e3f
00000030: 967a 72c0 3c1b adbf b73d 843e 7d68 adbf
00000040: e80c 273f b89d eebf 782b 943f f57c c2bd
00000050: 89e2 1d40 f004 ce3f 5950 f9bf 7ffc 14bf
00000060: b48e 773d febd cfbf 5e5d 413e 393e 82c0
00000070: c164 9740 435e a2bf 4c99 dd3f c05e debe
00000080: afa0 a540 ac84 273f 37cb 23c0 12b9 8b40
00000090: 39a1 823f fe00 82bf ea27 62be 4b12 4b3f
000000a0: 9910 09c1 dbfe 2fbf 07c1 b33f 2702 44c0
000000b0: 95a6 2240 c616 4abf ba5d 8b3f 84f0 0a3f
000000c0: 2718 59c0 b198 5240 b8b5 d93f 0f35 9040
000000d0: 2772 80c0 cb00 42bf edab 17c0 21d6 9840
000000e0: 4c3c 5b40 5dc7 24c0 81b1 21c0 7ff6 0fbf
000000f0: 439c a640 aa4b de3f e5fc 2e40 619f cb3f
00000100: b89d acbf 04fb 0f40 e879 0040 3010 a9bf
00000110: dac1 c6c0 2362 073f 7bc0 8e3e 250a 17c0
00000120: 0735 81be d1ad 2940 3cea c5bf 5998 94bf
00000130: 18bd 9040 16b4 913f 1f3f 643f 6120 fbbf
6.321519 1.1551446 3.336945 0.36521724 -6.5238676 -1.1216075 -1.6259418 -0.31900582
-1.0109562 -3.9924035 -1.7065473 0.6188796 -3.788732 -1.3523936 0.25828335 -1.3547512
0.6525407 -1.8641882 1.1575766 -0.0949649 2.4669516 1.6095257 -1.9477645 -0.5819778
0.060438827 -1.6229856 0.18883273 -4.0700955 4.731049 -1.2685016 1.7312407 -0.43431664
5.1758647 0.65436816 -2.5592782 4.3663416 1.0205451 -1.0156553 -0.22085539 0.7932479
-8.566552 -0.68748254 1.4043282 -3.0626314 2.5414174 -0.78941 1.0887978 0.5427325
-3.3920991 3.2905695 1.7008581 4.506477 -4.0139346 -0.7578246 -2.3698685 4.776139
3.4255552 -2.5746682 -2.526459 -0.562355 5.206575 1.7366841 2.7341855 1.5908014
-1.3485632 2.2496958 2.0074406 -1.3208065 -6.2111635 0.5288412 0.27881226 -2.3599942
-0.2523577 2.651234 -1.5462108 -1.1608993 4.5230827 1.1383083 0.89158815 -1.9619256

bias f4 [10]
00000000: f87d 2dc0 67f3 1dbe ff6a 883f 92e4 f03e
00000010: 1ea2 1f3f bf2f a7bf 222e 73c0 48fa 733f
00000020: 1ab3 2340 84f9 2140
-2.7108135 -0.15424882 1.0657653 0.47049385 0.62356746 -1.3061446 -3.7996907 0.95303774
2.5578065 2.5308542
